EXPERIMENT_1/model_OpenChem_CLASSIFIER_ENSEMBLE_8.pth (torch, 340093 bytes, 21 tensors)

Embedding.embedding.weight f4 [56, 64]
-1.1549708 -1.0820138 -0.19821633 -0.4124849 0.90454996 0.7688816 -0.42509574 -1.9666271
0.25333554 -1.229409 0.34115362 0.43611395 0.14310214 1.3400422 1.1688666 -0.17904568
-1.4057752 -1.6770496 0.49599773 0.76735485 0.6392359 -1.5340526 -0.24701217 1.8523084
0.72722113 -0.5186769 -0.031185236 0.099100746 1.381339 1.5172204 0.95397365 -0.80977875
-0.56714803 0.042300597 -0.5482148 0.2523306 0.35785797 0.21471576 0.71928066 0.47774473
-0.15307683 0.72598886 -0.26030752 0.08687761 0.6032826 2.3847609 -1.4728537 -1.5047697
-0.7228389 0.94787645 0.98233587 0.13468829 -0.19398114 -0.30343714 0.5030174 -0.40450066
-0.3914199 0.75073856 1.418886 3.3474853 -1.5223377 -1.1790992 1.8990738 -0.548761
-0.59602207 0.93906146 1.1385375 1.2524362 -1.4518933 2.5018451 -0.5151384 0.48666576
-1.6542544 -0.5225896 -0.409701 -0.42825615 -1.0203292 1.144293 -0.11806338 0.7877161
-0.08918754 0.64685184 -0.8172512 0.040290873 0.8669646 -0.42196608 1.0903903 0.27488914
-0.34761173 2.3256435 -1.9174621 0.024697114 -1.1311735 -0.9433584 0.084890336 0.6482468
1.6362793 -1.3529932 0.3780738 0.552766 -2.6782598 -1.6852359 -0.21582335 0.27431124
0.16209702 -0.027225249 0.33417764 0.34009865 0.41168368 -0.8745404 0.7858595 -0.80000025
-0.35908356 -2.5061357 -0.070901945 0.12012272 1.127259 0.34897554 -0.91992605 -0.10384066
-0.5825835 -0.36417583 1.8625027 -0.4262708 0.23703009 1.109603 1.0451553 1.4353514
-0.8173805 -0.32932362 -0.82082504 0.5916792 0.64497477 0.42494094 2.0156097 -0.9508452
-0.102861725 0.15600625 -0.4840222 -1.3475662 -0.0018425958 -0.8970441 -0.19930702 0.19979793
-0.40271774 0.034460444 0.24901387 1.0424014 0.30250224 0.3297892 -0.10046837 -0.14570156
0.15918057 -0.65187764 -1.92253 0.13408287 -0.64448744 0.09029627 0.12791732 0.370535
0.9726747 -1.0122995 0.24803357 -0.20136862 1.1356962 -0.47863102 0.70251364 0.66982967
0.20591243 0.21665262 -0.25205746 0.4933863 -0.2048168 -1.113748 0.22448924 -1.4467506
-0.15031512 -0.40042832 -1.5976107 -0.5058988 1.1366874 0.09444162 1.753959 0.8921542
-1.0233966 -0.82438946 1.5196764 0.26340935 0.6427126 -1.0298915 -1.0679203 -1.3377872
-0.5596301 0.5334718 0.4068866 0.39458653 0.17151096 0.87604475 -0.2870874 1.0216401
-0.07439492 -1.0922236 0.39202642 0.5945261 0.66227406 -1.2063024 0.6074397 -0.5471568
1.1710889 0.09749614 0.96337456 0.8403232 -1.2536547 0.9868361 -0.49465504 -1.283043
0.95522183 1.2835777 -0.6658611 0.5651337 0.2877034 -0.033374783 -1.0618885 -0.11442617
-0.3433358 1.5712649 0.19161488 0.37994185 -0.14475703 0.6376178 -0.28129023 -1.3298751
-0.1420108 -0.5341458 -0.523379 0.86150426 -0.8869632 0.8387747 1.1528951 -1.7610981
-1.4777428 -1.7556711 0.07616609 -1.0786034 1.4403422 -0.11059419 0.57686025 -0.16917409
-0.06402487 1.0384256 0.9068235 -0.47551385 -0.8707436 0.14474289 1.9028565 0.3903958
00000000: 15d6 93bf 6e7f 8abf 39f9 4abe 3931 d3be
00000010: 9690 673f 6dd5 443f 26a6 d9be 70ba fbbf
00000020: 32b5 813e 465d 9dbf b0ab ae3e 544a df3e
00000030: 5e89 123e 8186 ab3f 6c9d 953f c057 37be
00000040: 71f0 b3bf 90a9 d6bf 6af3 fd3e 5e71 443f
00000050: f7a4 233f d65b c4bf c2f0 7cbe 7118 ed3f
00000060: 2a2b 3a3f 02c8 04bf 2e78 ffbc 55f5 ca3d
00000070: b7cf b03f 4734 c23f 9e37 743f a94d 4fbf
00000080: 9d30 11bf 6443 2d3d ce57 0cbf 7a31 813e
00000090: 2939 b73e 73de 5b3e c722 383f f59a f43e
000000a0: 2cc0 1cbe 68da 393f 0747 85be e3ec b13d
000000b0: ba70 1a3f ec9f 1840 7886 bcbf 4b9c c0bf
000000c0: f80b 39bf 08a8 723f 5d7a 7b3f baeb 093e
000000d0: fea2 46be 1d5c 9bbe c0c5 003f b61a cfbe
000000e0: 3068 c8be 6730 403f 0e9e b53f 333d 5640
000000f0: f6db c2bf b9ec 96bf da14 f33f 9a7b 0cbf
00000100: e794 18bf 5566 703f 99bb 913f d44f a03f
00000110: a4d7 b9bf 3b1e 2040 1ce0 03bf 412c f93e
00000120: 9cbe d3bf 6fc8 05bf 54c4 d1be 6444 dbbe
00000130: 269a 82bf 3178 923f 37cb f1bd c3a7 493f
00000140: f5a7 b6bd 1598 253f 6037 51bf 0b08 253d
00000150: 64f1 5d3f f00b d8be e991 8b3f 45be 8c3e
00000160: 2afa b1be 58d7 1440 666f f5bf 9a51 ca3c
00000170: 4bca 90bf f07f 71bf fcda ad3d 81f3 253f
00000180: 9a71 d13f e22e adbf e492 c13e 1382 0d3f
00000190: 9c68 2bc0 cfb5 d7bf cc00 5dbe 8672 8c3e
000001a0: c3fc 253e 7c07 dfbc 5519 ab3e 6921 ae3e
000001b0: 34c8 d23e e1e1 5fbf 172e 493f d1cc 4cbf
000001c0: cdd9 b7be 8764 20c0 0a35 91bd e702 f63d
000001d0: 064a 903f ecac b23e 4680 6bbf 69aa d4bd
000001e0: 3124 15bf 4175 babe 7d66 ee3f 2b40 dabe
000001f0: 04b8 723e 7907 8e3f a6c7 853f 98b9 b73f
00000200: d93f 51bf 1b9d a8be 9721 52bf 4a78 173f
00000210: 111d 253f dc91 d93e c0ff 0040 976a 73bf
00000220: 2ba9 d2bd 1ac0 1f3e c2d1 f7be 0d7d acbf
00000230: 4183 f1ba afa4 65bf 2417 4cbe d497 4c3e
00000240: 0531 cebe 6526 0d3d 7efd 7e3e 696d 853f
00000250: 93e1 9a3e 21da a83e 5cc2 cdbd ca32 15be
00000260: 3b00 233e 74e1 26bf 7715 f6bf 054d 093e
00000270: 21fd 24bf 40ed b83d c2fc 023e c3b6 bd3e
00000280: 3601 793f 0893 81bf 83fc 7d3e 9333 4ebe
00000290: 7e5e 913f 200f f5be efd7 333f f579 2b3f
000002a0: b5da 523e 2fda 5d3e ad0d 81be 219d fc3e
000002b0: 7fbb 51be 4b8f 8ebf 82e0 653e 202f b9bf
000002c0: 35ec 19be f104 cdbe 827e ccbf 9582 01bf
000002d0: f97e 913f 9c6a c13d ba81 e03f 3864 643f
000002e0: a9fe 82bf 300b 53bf c284 c23f 97dd 863e
000002f0: d088 243f 7cd3 83bf 9db1 88bf 9c3c abbf
00000300: eb43 0fbf 9c91 083f 7153 d03e 3f07 ca3e
00000310: 92a0 2f3e 7844 603f 1ffd 92be 1ac5 823f
00000320: 5d5c 98bd fccd 8bbf b0b7 c83e dd32 183f
00000330: cb8a 293f 1e68 9abf 2b81 1b3f 7812 0cbf
00000340: 3ee6 953f 0eac c73d b79f 763f 6c1f 573f
00000350: c277 a0bf 4aa1 7c3f 6d43 fdbe c13a a4bf
00000360: 6b89 743f 464c a43f e075 2abf 9aac 103f
00000370: dc4d 933e ffb3 08bd f6eb 87bf 4558 eabd
00000380: b6c9 afbe 351f c93f b136 443e bd87 c23e
00000390: 303b 14be ec3a 233f 4605 90be 5939 aabf
000003a0: 476b 11be c7bd 08bf 2bfc 05bf 8b8b 5c3f
000003b0: 0510 63bf f0b9 563f 1192 933f aa6b e1bf
000003c0: ad26 bdbf d5b9 e0bf f8fc 9b3d ad0f 8abf
000003d0: 225d b83f 357f e2bd 1dad 133f f93b 2dbe
000003e0: 791f 83bd 21eb 843f 9625 683f 8d76 f3be
000003f0: 0de9 5ebf 7b37 143e cd90 f33f f5e1 c73e

Encoder.rnn.weight_ih_l0 f4 [192, 64]
-0.041507 -0.07574104 -0.13282934 -0.11443589 0.042647466 -0.25248545 0.13810574 0.06675653
0.29965845 0.22004598 0.023255222 -0.18984485 0.0769908 0.055472013 0.05868629 -0.1749175
-0.15188554 -0.08245147 0.057289094 0.09462075 -0.010857246 0.069305934 0.12277161 0.012849009
-0.13372818 -0.112876505 0.17386685 0.089055836 0.05037838 0.029135132 -0.17901812 0.1264043
-0.18642606 0.22245859 -0.101842515 0.1886464 0.18828194 0.14291078 -0.07814782 -0.12561882
-0.03198227 -0.15131693 -0.07234068 -0.097367495 -0.11984123 -0.08621801 0.07495268 0.07516823
0.015977718 0.1066054 -0.12675692 -0.17651114 0.09173689 -0.15749471 -0.061336804 0.009977492
0.05735659 0.15424974 -0.25524077 -0.02316676 0.2183834 -0.21740572 -0.03509103 -0.09467589
-0.061084095 0.108456895 0.0817565 0.0072025163 0.03069969 -0.03807988 -0.060196992 -0.11478456
0.10198696 0.04712624 -0.15472007 0.06823596 -0.1271499 -0.059914492 -0.38068542 0.105122805
-0.17758735 0.026341941 0.074588135 0.17801602 0.08818539 0.20341593 0.08250773 -0.07360845
0.16568352 0.03953189 -0.20958005 -0.09855529 0.041109193 0.17122754 0.14404956 -0.069243096
0.14368337 -0.08560951 -0.083188444 0.055855002 0.0077397143 -0.12405669 0.15392312 0.15593287
0.08030968 -0.17533155 0.110204495 -0.18277471 0.13891302 -0.0034452335 -0.008310888 0.13748273
0.14244594 -0.21228936 -0.16718231 -0.14503746 0.098727085 -0.046976764 -0.16592184 -0.27177086
0.095274165 0.03701311 0.28664574 0.21610366 -0.15814413 0.15573293 -0.006468651 0.22334598
-0.030322887 -0.17447104 0.02782941 0.17874156 -0.1179508 0.11929177 0.014242423 -0.090532936
-0.012783525 0.18930224 -0.12430755 -0.01509241 -0.12208747 -0.19942562 -0.28169656 0.18668847
-0.22120665 -0.06889864 0.052279193 0.15791246 0.051312853 -0.16025172 0.0055818213 -0.009156724
0.037041552 0.057233773 0.110904925 -0.24054728 0.11498461 0.20700333 0.051117074 0.1273938
0.16578884 -0.23106205 0.10085451 -0.15476131 -0.13275261 -0.23246709 0.092250414 0.14110216
-0.0762816 0.10780641 0.07164352 0.105798416 0.26719633 0.07189022 0.16000517 -0.012193638
-0.046910398 -0.079856135 0.013012062 0.14322588 0.09143903 0.09284025 -0.034575097 0.08844144
-0.03798811 -0.29428154 0.019274116 -0.02136676 -0.05769651 0.0078095677 0.13756943 -0.038242012
-0.15949285 -0.05675371 0.122099414 0.04365867 -0.1990228 0.10972872 0.32586867 0.1345025
0.054799404 0.20665488 -0.097819276 -0.16960263 0.014097701 0.06278505 -0.008905044 -0.16142839
-0.006071128 0.18422621 -0.2250644 -0.13190672 0.118568935 0.0064154756 0.013076214 -0.0016016086
0.0019354878 0.05201176 -0.029805295 -0.0076566897 -0.282441 0.06269562 -0.061489813 0.27616864
0.12847976 -0.07233419 -0.15259853 -0.13286635 -0.11701757 -0.13613403 -0.08295901 -0.11215293
-0.10108508 0.03369591 0.17522949 -0.05879654 0.21969125 -0.03778089 -0.007800826 0.06308825
-0.12341224 -0.030522302 -0.18481714 0.25927204 0.052780576 0.2235441 -0.009616139 0.1382964
-0.41072446 -0.12185309 -0.18990977 -0.074419 0.33123407 0.049103215 -0.15383606 -0.16556065
00000000: 3e03 2abd 1e1e 9bbd 6a04 08be 5d5d eabd
00000010: 1caf 2e3d c645 81be 976b 0d3e a6b7 883d
00000020: d56c 993e bc53 613e bc81 be3c b066 42be
00000030: 5aad 9d3d 9f36 633d 0961 703d 931d 33be
00000040: e287 1bbe 51dc a8bd f8a7 6a3d 86c8 c13d
00000050: 97e2 31bc 45f0 8d3d af6f fb3d a684 523c
00000060: 0af0 08be cc2b e7bd 270a 323e e862 b63d
00000070: 8f59 4e3d cdac ee3c 8750 37be 2170 013e
00000080: 79e6 3ebe 2fcc 633e cf92 d0bd 862c 413e
00000090: fbcc 403e 3457 123e f70b a0bd 38a2 00be
000000a0: d7ff 02bd d3f2 1abe 5a27 94bd 9c68 c7bd
000000b0: 526f f5bd 1193 b0bd ca80 993d cdf1 993d
000000c0: b4e3 823c ef53 da3d 91cc 01be 56bf 34be
000000d0: 8de0 bb3d 4b46 21be 4d3c 7bbd a278 233c
000000e0: beee 6a3d a5f3 1d3e ebae 82be 38c8 bdbc
000000f0: e69f 5f3e 9b9f 5ebe 9dbb 0fbd 6fe5 c1bd
00000100: 5133 7abd a61e de3d f46f a73d 1603 ec3b
00000110: eb7d fb3c a6f9 1bbd 1f91 76bd 2b14 ebbd
00000120: 8ade d03d 7207 413d f06e 1ebe 4cbf 8b3d
00000130: 9533 02be e668 75bd 33e9 c2be a04a d73d
00000140: 75d9 35be 0ecb d73c aac1 983d d549 363e
00000150: 8b9a b43d 444c 503e d0f9 a83d 07c0 96bd
00000160: f1a8 293e 31ec 213d 279c 56be 5bd7 c9bd
00000170: 1d62 283d 4656 2f3e ba81 133e 53cf 8dbd
00000180: bc21 133e 0a54 afbd b45e aabd 37c8 643d
00000190: 6e9d fd3b 6f11 febd 069e 1d3e deac 1f3e
000001a0: 6779 a43d 1d8a 33be e5b2 e13d 4b29 3bbe
000001b0: 373f 0e3e 6dc9 61bb 642a 08bc 46c8 0c3e
000001c0: 59dd 113e 6262 59be d731 2bbe b384 14be
000001d0: 6d31 ca3d b56a 40bd 6ae7 29be 8d25 8bbe
000001e0: 1a1f c33d 0f9b 173d 3bc3 923e 474a 5d3e
000001f0: 89f0 21be 7478 1f3e faf6 d3bb cfb4 643e
00000200: b467 f8bc 89a8 32be 81fa e33c 0708 373e
00000210: 3090 f1bd 3e4f f43d 0d59 693c 5569 b9bd
00000220: fd71 51bc 72d8 413e f594 febd 2846 77bc
00000230: ff08 fabd 3b36 4cbe 883a 90be 432b 3f3e
00000240: ff83 62be bb1a 8dbd b522 563d ceb3 213e
00000250: 6d2d 523d 0719 24be b6e7 b63b 1606 16bc
00000260: e2b8 173d f66d 6a3d 1f22 e33d 0752 76be
00000270: 0d7d eb3d aef8 533e 2360 513d 8573 023e
00000280: 8dc4 293e 889b 6cbe cf8c ce3d c079 1ebe
00000290: 4df0 07be da0b 6ebe c9ed bc3d 167d 103e
000002a0: 8739 9cbd 9bc9 dc3d d6b9 923d d7ac d83d
000002b0: f5cd 883e 2e3b 933d 65d8 233e d3c7 47bc
000002c0: 1e25 40bd 9d8b a3bd 8b30 553c cea9 123e
000002d0: 6344 bb3d 0723 be3d 9e9e 0dbd c920 b53d
000002e0: 6c99 1bbd 12ac 96be c0e4 9d3c 5809 afbc
000002f0: 2d53 6cbd 67e7 ff3b 00df 0c3e a8a3 1cbd
00000300: 1852 23be 9476 68bd 420f fa3d 6fd3 323d
00000310: a2cc 4bbe 73b9 e03d 42d8 a63e 06bb 093e
00000320: 5775 603d 569d 533e 7955 c8bd 50ac 2dbe
00000330: 0bfa 663c 7395 803d 76e6 11bc 7c4d 25be
00000340: 50f0 c6bb cca5 3c3e 4877 66be 8e12 07be
00000350: 45d4 f23d e938 d23b 9e3d 563c 11ed d1ba
00000360: 32b0 fd3a 490a 553d 3c2a f4bc f8e4 fabb
00000370: 1b9c 90be 9066 803d bedc 7bbd fa65 8d3e
00000380: 3390 033e f323 94bd ca42 1cbe 1e0e 08be
00000390: e8a6 efbd b866 0bbe 6ae6 a9bd 6fb0 e5bd
000003a0: b205 cfbd b904 0a3d 5c6f 333e a4d4 70bd
000003b0: bef6 603e 22c0 1abd 129e ffbb 6a34 813d
000003c0: 8ebf fcbd e809 fabc b440 3dbe 4ebf 843e
000003d0: 7230 583d bfe8 643e 038d 1dbc 929d 0d3e
000003e0: 7a4a d2be 1d8e f9bd b577 42be fd68 98bd
000003f0: 8397 a93e 7420 493d 3387 1dbe bb88 29be

Encoder.rnn.weight_hh_l0 f4 [192, 64]
-0.05162668 0.040424008 0.2287869 0.17468558 -0.06431982 0.1375486 0.10665346 0.053117357
0.12907745 -0.12943977 0.13711376 0.050358374 0.21107017 0.022230444 0.07761641 -0.081483014
-0.14089125 -0.14606728 -0.06299863 -0.15509692 -0.3375223 -0.07994182 -0.089060105 -0.11626543
0.14792815 -0.100354776 0.13518766 0.16221604 0.007066322 0.028162029 0.027876008 -0.120888576
0.166386 0.0031520056 0.02937885 0.008071799 0.07412635 0.123499796 0.0076890253 0.29795575
0.1547625 0.19912148 0.041558176 -0.21965027 0.02682028 -0.31466582 0.124655955 0.03047205
0.096767195 -0.04643688 0.12881878 0.12461074 -0.19120188 0.08787572 -0.014858298 0.1678189
0.07050566 0.038667146 -0.052433472 0.034427013 -0.14374708 0.007660472 0.11787887 -0.06087614
-0.020199621 0.08295245 0.11705807 0.110020615 -0.031973213 -0.08398418 0.15534562 -0.15109609
-0.15526246 -0.0084589515 0.2134097 0.17578174 0.13548699 -0.1290822 -0.11588185 0.09209926
0.00090317766 -0.191269 0.101741485 -0.19228233 0.0063300985 -0.18176968 0.037845105 -0.1308566
0.35511965 0.18524428 0.04633776 0.11662466 0.07335841 -0.06284103 -0.023045864 -0.15288684
-0.080454424 0.013017263 -0.06757626 -0.060409803 0.1432199 -0.13673154 0.14179546 -0.029172765
-0.19044039 -0.20636466 -0.041291233 -0.3689433 0.4181675 -0.29031578 0.057537682 0.18406549
-0.04853631 -0.24057262 -0.018036703 -0.10158274 0.076267205 -0.14957382 -0.01638889 0.18820776
0.09315354 -0.050317936 -0.0708617 0.019241173 -0.03053235 0.019632638 -0.08151973 0.018738152
-0.33962205 0.14105512 0.21261567 0.0673265 -0.12518679 0.25227362 -0.15799883 -0.05787317
-0.117060214 -0.07512204 -0.098781995 0.11440222 -0.054450203 -0.02554812 -0.056628358 -0.1462931
-0.05802619 0.17301561 -0.09933456 -0.21449035 0.11739892 -0.028110964 -0.25425857 -0.18028998
-0.03524904 -0.12509279 0.01607886 -0.24643898 0.17506598 0.15519848 -0.022511685 0.032683022
0.14363477 0.036157746 0.22762612 -0.051000804 0.024266295 -0.17419955 -0.19580798 -0.078091584
0.09923801 0.054512464 0.17447135 -0.08213154 -0.082236916 -0.008817943 -0.016313039 -0.12446487
0.056107048 -0.047589194 0.08173159 -0.007955579 -0.227146 -0.035608076 0.12536316 0.049564052
0.10847013 -0.24337889 0.28064704 0.3101869 -0.008150452 0.03325193 -0.17744964 -0.26084924
-0.16558889 0.031882837 0.18842499 -0.28961858 -0.01043704 0.07001568 -0.14901781 -0.032192618
0.06763112 0.00675515 -0.26779568 -0.041207746 -0.048332952 0.4354881 -0.11922046 -0.19018799
-0.04160982 0.07385947 -0.11323096 -0.122942284 0.22390813 0.15544355 0.09540579 0.08658103
-0.13920152 -0.22899073 -0.014817448 -0.04799938 0.10048987 0.1405891 -0.11352252 0.117128745
0.17523354 0.069429226 0.09796905 -0.024284849 -0.12726922 -0.080251224 -0.22982448 0.0035853016
-0.27078015 -0.003959585 -0.08367797 0.28534237 -0.05066387 -0.08006843 -0.1187635 -0.089881346
-0.31073272 -0.11951467 0.13400638 0.18222865 -0.11563266 -0.0072366865 0.19913438 0.11081729
0.056527723 -0.013561375 -0.043468267 0.102156706 -0.08406271 -0.0056951023 -0.03385318 -0.11923497
00000000: 7f76 53bd a593 253d 1d47 6a3e c7e0 323e
00000010: 1cba 83bd 8ad9 0c3e 216d da3d 9691 593d
00000020: e12c 043e dc8b 04be 8d67 0c3e 9544 4e3d
00000030: c722 583e 9f1c b63c 5af5 9e3d 91e0 a6bd
00000040: cc45 10be a992 15be 6d05 81bd bad1 1ebe
00000050: b9cf acbe 89b8 a3bd 2565 b6bd 921c eebd
00000060: 7a7a 173e ce86 cdbd a26e 0a3e f61b 263e
00000070: 9b8c e73b 0eb4 e63c 3a5c e43c 6e94 f7bd
00000080: 1761 2a3e e191 4e3b eaab f03c 943f 043c
00000090: 8ecf 973d 76ed fc3d 38f4 fb3b a88d 983e
000000a0: 107a 1e3e 80e6 4b3e e838 2a3d 00ec 60be
000000b0: 34b6 db3c e11b a1be 9f4b ff3d 85a0 f93c
000000c0: e12d c63d 9934 3ebd 12e9 033e ea33 ff3d
000000d0: 6dca 43be 2ff8 b33d 3870 73bc b8d8 2b3e
000000e0: 4565 903d 7161 1e3d 7bc4 56bd 5703 0d3d
000000f0: 6f32 13be b204 fb3b 7a6a f13d 4259 79bd
00000100: ad79 a5bc f9e2 a93d 24bc ef3d 7d52 e13d
00000110: 58f6 02bd e6ff abbd ec12 1f3e efb8 1abe
00000120: 1ffd 1ebe 6a97 0abc 1388 5a3e 2100 343e
00000130: 1abd 0a3e 202e 04be 7753 edbd 899e bc3d
00000140: 3ac3 6c3a 05dc 43be d75d d03d a9e5 44be
00000150: b76c cf3b d521 3abe 7803 1b3d 46ff 05be
00000160: 3ed2 b53e adb0 3d3e aacc 3d3d e9d8 ee3d
00000170: ef3c 963d ccb2 80bd aeca bcbc 5e8e 1cbe
00000180: 4ac5 a4bd 5c46 553c 6c65 8abd 4570 77bd
00000190: 3da8 123e 5a03 0cbe d432 113e b9fb eebc
000001a0: ce02 43be 4251 53be ff20 29bd 23e6 bcbe
000001b0: 0d1a d63e 45a4 94be a2ac 6b3d aa7b 3c3e
000001c0: 03ce 46bd ab58 76be b5c1 93bc 9d0a d0bd
000001d0: fb31 9c3d e129 19be fe41 86bc 89b9 403e
000001e0: 48c7 be3d 2e1a 4ebd f01f 91bd aa9f 9d3c
000001f0: fb1e fabc a0d4 a03c d1f3 a6bd c180 993c
00000200: f1e2 adbe c170 103e ecb7 593e 7ae2 893d
00000210: f730 00be 022a 813e 72ca 21be 6b0c 6dbd
00000220: 44bd efbd 96d9 99bd 374e cabd b64b ea3d
00000230: 2d07 5fbd 4a4a d1bc 23f3 67bd dccd 15be
00000240: dfac 6dbd 012b 313e eb6f cbbd 5ca3 5bbe
00000250: d86e f03d f748 e6bc 2e2e 82be f09d 38be
00000260: 4c61 10bd 5318 00be d0b7 833c 805a 7cbe
00000270: 7f44 333e 5aec 1e3e 6d6a b8bc a2de 053d
00000280: fe14 133e 251a 143d d216 693e 38e6 50bd
00000290: 1cca c63c 5e61 32be e381 48be 7bee 9fbd
000002a0: 4c3d cb3d 7648 5f3d 9ea8 323e 9534 a8bd
000002b0: d46b a8bd 2279 10bc eca2 85bc 70e7 febd
000002c0: 81d0 653d e3ec 42bd e462 a73d 1e58 02bc
000002d0: f698 68be c6d9 11bd 335f 003e ad03 4b3d
000002e0: 9625 de3d 5138 79be f8b0 8f3e d1d0 9e3e
000002f0: 7989 05bc 2d33 083d 5cb5 35be 088e 85be
00000300: 2290 29be 9497 023d 7bf2 403e e348 94be
00000310: 1e00 2bbc 6164 8f3d 2098 18be 68dc 03bd
00000320: 2f82 8a3d 4e5a dd3b 841c 89be 74c9 28bd
00000330: c6f8 45bd 4cf8 de3e db29 f4bd a4c0 42be
00000340: 0f6f 2abd a243 973d a2e5 e7bd 2ac9 fbbd
00000350: 2c48 653e 982c 1f3e 1c64 c33d 6551 b13d
00000360: d88a 0ebe 8c7c 6abe e2c4 72bc ff9a 44bd
00000370: a2cd cd3d 97f6 0f3e 7f7e e8bd 32e1 ef3d
00000380: 6c70 333e e930 8e3d ffa3 c83d 05f1 c6bc
00000390: dd52 02be c15a a4bd 1c57 6bbe 61f7 6a3b
000003a0: b2a3 8abe 68bf 81bb 5b5f abbd 6518 923e
000003b0: eb84 4fbd ebfa a3bd 473a f3bd b613 b8bd
000003c0: 5c18 9fbe 1bc4 f4bd f838 093e 269a 3a3e
000003d0: d1d0 ecbd ba21 edbb e2e9 4b3e 2df4 e23d
000003e0: 9d89 673d 8830 5ebc c80b 32bd 8937 d13d
000003f0: 1229 acbd fb9d babb a2a9 0abd 7731 f4bd

Encoder.rnn.bias_ih_l0 f4 [192]
0.14595683 0.07254171 0.0012048583 0.036580693 0.076468214 -0.031684987 -0.14776517 0.07801055
0.10189585 -0.08250201 -0.062478956 0.04189953 -0.100308 0.044656146 0.04143016 -0.014973109
0.12226563 0.0022247985 0.052158423 -0.07830666 -0.039690923 0.23529707 -0.0183537 0.010442501
0.01165444 0.13435742 0.0032906646 0.022991093 0.10106814 0.11021047 -0.07245434 -0.032416314
0.12021224 0.108492106 0.15831152 -0.01360401 0.11854387 0.15694016 -0.057002828 0.14796661
0.055132553 0.14308113 0.13746268 0.01288992 -0.03674967 -0.12774564 -0.17956984 -0.009676828
0.036693674 -0.05992684 -0.05652984 0.09980421 0.12991713 -0.11311709 0.021719892 0.07762408
0.1339292 0.18376192 0.13404343 0.044071853 0.15809138 0.17362852 -0.044092786 0.053925354
-0.021363417 0.08494448 -0.039453976 0.2889268 0.20890006 0.22453088 -0.14724757 -0.16069928
-0.032443713 -0.013217136 0.0013512211 0.1334251 0.009388823 0.26603934 -0.04355961 0.0112063605
0.0316694 -0.11274004 -0.058792528 -0.027761253 0.2328212 0.3069386 0.050381336 0.03889479
0.2569826 -0.23679422 0.0965121 0.077560075 -0.10760064 -0.07675172 -0.11750059 -0.0043408386
0.27126393 -0.0843066 0.06318464 0.0068278457 0.054242633 0.20673627 0.10477021 -0.098141536
0.0056580934 0.04096767 0.0054004923 0.3530258 -0.042705785 0.013835075 -0.07081083 -0.023353472
0.013855314 -0.036724295 -0.093421005 -0.044428647 -0.03704204 -0.21682635 0.17374788 -0.16904883
0.09816981 0.0025956372 -0.08951069 0.0995122 -0.08267787 -0.004489021 0.0284356 0.19531853
0.06538794 -0.0023794132 0.06450291 -0.12786748 -0.08838885 -0.120567635 -0.061641663 -0.04397344
-0.016222231 0.042100213 -0.057068434 -0.034570012 -0.04239147 0.12283202 -0.04366834 -0.14299376
-0.014463243 -0.060889058 -0.1359158 -0.050119776 0.096630655 0.08117306 0.00773054 -0.05959378
-0.085367545 -0.009855927 0.109425105 -0.01673749 0.093001835 -0.01823138 -0.09975876 0.07460291
0.11211267 -0.061792556 -0.016923571 0.09852183 -0.06126903 -0.1459443 -0.07614042 0.11064506
-0.08029358 -0.10876266 -0.025735727 0.0030441806 -0.09040179 0.01681564 -0.13859156 0.09420752
-0.13430063 -0.028787328 0.13659239 0.042940896 -0.10868348 -0.0910482 0.11451339 -0.051116414
-0.06396759 0.059512302 0.113567084 -0.001641259 0.083722055 -0.14053427 0.03309815 0.10655081
00000000: b575 153e c090 943d 56ec 9d3a a3d5 153d
00000010: 5e9b 9c3d 1ec8 01bd c14f 17be ffc3 9f3d
00000020: c5ae d03d d0f6 a8bd efe9 7fbd d79e 2b3d
00000030: 486e cdbd 5de9 363d acb2 293d c551 75bc
00000040: 6766 fa3d edcd 113b 12a4 553d 3e5f a0bd
00000050: f392 22bd b7f1 703e 805a 96bc 0617 2b3c
00000060: 44f2 3e3c fe94 093e 31a8 573b d157 bc3c
00000070: d0fc ce3d 07b6 e13d f162 94bd f8c6 04bd
00000080: d631 f63d 1c31 de3d 6a1c 223e 5be3 5ebc
00000090: 21c7 f23d ecb4 203e cc7b 69bd 8f84 173e
000000a0: acd2 613d dc83 123e 04c3 0c3e 3e30 533c
000000b0: d286 16bd c1cf 02be 28e1 37be 8f8b 1ebc
000000c0: 1b4c 163d d975 75bd d58b 67bd 2666 cc3d
000000d0: ff08 053e efa9 e7bd eaed b13c 60f9 9e3d
000000e0: bc24 093e 162c 3c3e ae42 093e b084 343d
000000f0: b5e2 213e adcb 313e a39a 34bd d5e0 5c3d
00000100: 5502 afbc 5ff7 ad3d 7e9a 21bd 37ee 933e
00000110: e6e9 553e 6ceb 653e 11c8 16be 5a8e 24be
00000120: b3e3 04bd b08c 58bc 751b b13a 97a0 083e
00000130: 94d3 193c 4f36 883e 906b 32bd e29a 373c
00000140: c6b7 013d 40e4 e6bd 6fd0 70bd 916b e3bc
00000150: ae68 6e3e 0e27 9d3e a95c 4e3d 2550 1f3d
00000160: 3993 833e 2f7a 72be 23a8 c53d d1d7 9e3d
00000170: b95d dcbd 0130 9dbd 26a4 f0bd 983d 8ebb
00000180: 1be3 8a3e f0a8 acbd f366 813d 1fbc df3b
00000190: 862d 5e3d acb2 533e c491 d63d 6efe c8bd
000001a0: 8767 b93b b7cd 273d 9df6 b03b ccbf b43e
000001b0: 43ec 2ebd 83ac 623c 4505 91bd c84f bfbc
000001c0: 6601 633c 376c 16bd 8353 bfbd d0fa 35bd
000001d0: 65b9 17bd ba07 5ebe f7ea 313e 231b 2dbe
000001e0: 410d c93d 911b 2a3b 6151 b7bd 0dcd cb3d
000001f0: 0453 a9bd a318 93bb c7f1 e83c 9501 483e
00000200: 1dea 853d eeef 1bbb 1a1a 843d b1ef 02be
00000210: 3705 b5bd 2aec f6bd f87b 7cbd 7e1d 34bd
00000220: 7ce4 84bc 4671 2c3d 97c0 69bd 4999 0dbd
00000230: aea2 2dbd 5b8f fb3d 93dd 32bd f56c 12be
00000240: 3df7 6cbc ce66 79bd 832d 0bbe 654a 4dbd
00000250: 4be6 c53d 103e a63d 7850 fd3b 9c18 74bd
00000260: 2ed5 aebd c17a 21bc 451a e03d 101d 89bc
00000270: bf77 be3d fa59 95bc 524e ccbd 69c9 983d
00000280: 549b e53d 311a 7dbd 4da3 8abc d0c5 c93d
00000290: 3cf5 7abd 6c72 15be 82ef 9bbd e199 e23d
000002a0: f670 a4bd f5be debd bbd3 d2bc e080 473b
000002b0: 9324 b9bd f4c0 893c f2ea 0dbe dfef c03d
000002c0: 1b86 09be 67d3 ebbc e0de 0b3e cbe2 2f3d
000002d0: 7295 debd 7b77 babd ff85 ea3d 725f 51bd
000002e0: 7101 83bd 2cc3 733d dc95 e83d 831f d7ba
000002f0: 7876 ab3d 37e8 0fbe ed91 073d 5037 da3d

Encoder.rnn.bias_hh_l0 f4 [192]
0.091887966 0.060502205 0.17533252 0.08425831 0.09176325 0.19844 -0.14917055 -0.09015665
0.03410982 -0.061392084 -0.03801721 0.03193698 0.04276208 0.043148786 -0.03599495 0.09936129
0.17061622 0.19238901 0.12430237 -0.052161362 0.09194532 0.03947739 -0.12380294 0.15509368
-0.009076716 -0.0814258 -0.022102978 0.15087064 0.08887417 -0.046039697 -0.16544719 0.083768
0.066172786 0.08398092 0.014649138 0.06222652 0.0244597 0.14560014 0.004546488 0.16062629
0.05848185 0.16753854 0.11458769 0.051485486 0.071579225 -0.08255289 -0.03353659 0.03706018
0.10878319 0.09219367 0.06445964 -0.021319045 0.13242312 -0.089253046 0.033115376 0.05854512
0.13115855 0.101891845 0.06747528 -0.0303197 0.08744953 -0.0058616176 0.16665058 0.07298078
-0.17387083 0.16553436 0.014282229 0.28676143 0.2398637 0.2087687 -0.040686548 -0.14957179
0.0847061 0.14773647 0.05443411 0.18795851 -0.011654265 0.25613227 0.0685059 -0.01182411
-0.03823336 -0.018608969 -0.0029424757 -0.015090977 0.052983426 0.16482572 -0.0053082653 0.099463254
0.13046801 -0.071333334 0.19953485 -0.005026769 0.060578108 0.015917398 -0.0415953 -0.07056406
0.20762056 -0.106557995 -0.03144259 0.029459983 -0.09874868 0.21417229 0.118782006 0.03699094
0.0055538765 0.10917369 0.02010506 0.33947122 -0.096625924 -0.025080526 -0.0852211 -0.0039847614
-0.0084816 -0.16744234 -0.1393635 -0.12996155 -0.12508821 -0.092122115 0.27823716 -0.13483721
-0.06263793 0.15956889 0.036323503 0.038203094 -0.10475548 0.18509756 -0.04651753 0.2744193
0.022452615 0.13999091 0.0345792 -0.08803956 -0.05496986 -0.107048355 -0.114003435 0.12228959
0.12298001 -0.00820291 -0.05104387 0.03994792 0.12244474 -0.015579769 0.13547023 -0.092536196
-0.01994805 0.10716783 -0.12662151 0.036901277 0.08452514 0.058333427 -0.09036013 0.048134536
-0.1967807 0.03709368 -0.00873704 -0.08657732 -0.014406646 0.063850775 -0.10444553 -0.0031729406
-0.069179915 0.087296814 -0.04818524 -0.098038554 0.030119682 -0.16172935 -0.13983752 0.086017475
0.003786628 0.05284145 -0.13325408 0.07234625 -0.123900265 0.05555584 0.00023470954 0.08061455
-0.09099189 0.0065643555 -0.056167763 -0.059915397 0.08429197 -0.02377572 0.1357787 0.12569194
0.15035181 -0.11261723 0.10850724 0.0484274 0.015690543 -0.13543688 -0.0952104 0.07333448
00000000: c22f bc3d 29d1 773d 5e8a 333e 9f8f ac3d
00000010: 5fee bb3d db33 4b3e 2ac0 18be 0da4 b8bd
00000020: bdb6 0b3d 4476 7bbd efb7 1bbd 5ad0 023d
00000030: 4a27 2f3d c8bc 303d 716f 13bd ef7d cb3d
00000040: 05b6 2e3e a001 453e 3e92 fe3d 27a7 55bd
00000050: d44d bc3d 0bb3 213d 658c fdbd e1d0 1e3e
00000060: 82b6 14bc 92c2 a6bd 4e11 b5bc d57d 1a3e
00000070: a903 b63d 1f94 3cbd fd6a 29be 8f8e ab3d
00000080: 9985 873d 30fe ab3d f002 703c 3ce1 7e3d
00000090: b55f c83c 3418 153e b5fa 943b 387b 243e
000000a0: aa8a 6f3d 398f 2b3e f3ac ea3d 72e2 523d
000000b0: 2198 923d 7d11 a9bd aa5d 09bd 6acc 173d
000000c0: b9c9 de3d 09d0 bc3d 6a03 843d 47a5 aebc
000000d0: ed99 073e 4dca b6bd fda3 073d 02cd 6f3d
000000e0: 6d4e 063e acac d03d 7b30 8a3d 0561 f8bc
000000f0: bd18 b33d d012 c0bb 73a6 2a3e f276 953d
00000100: 320b 32be d781 293e 0300 6a3c 65d2 923e
00000110: d49e 753e 76c7 553e f0a6 26bd 5929 19be
00000120: 647a ad3d 3b48 173e 4df6 5e3d 3278 403e
00000130: 88f1 3ebc c523 833e d24c 8c3d e9b9 41bc
00000140: 959a 1cbd d671 98bc 8dd6 40bb 2540 77bc
00000150: 2605 593d 13c8 283e f5f0 adbb 64b3 cb3d
00000160: 6899 053e 3617 92bd dd52 4c3e 98b7 a4bb
00000170: c020 783d 3465 823c d55f 2abd e483 90bd
00000180: 7c9a 543e 143b dabd f2c9 00bd 1056 f13c
00000190: bf3c cabd fb4f 5b3e fb43 f33d d083 173d
000001a0: 4bfd b53b 7596 df3d 5eb3 a43c 2ccf ad3e
000001b0: d0e3 c5bd ad75 cdbc 6688 aebd 9a92 82bb
000001c0: 69f6 0abc 0176 2bbe 4eb5 0ebe a414 05be
000001d0: 2017 00be 85aa bcbd 1a75 8e3e c412 0abe
000001e0: 5148 80bd 0766 233e f4c7 143d d97a 1c3d
000001f0: 0b8a d6bd 378a 3d3e 2a89 3ebd b080 8c3e
00000200: 8cee b73c c759 0f3e eba2 0d3d 164e b4bd
00000210: 1328 61bd 2b3c dbbd a27a e9bd f772 fa3d
00000220: f2dc fb3d 8065 06bc 6113 51bd 6ea0 233d
00000230: 4fc4 fa3d 4a42 7fbc b5b8 0a3e 9e83 bdbd
00000240: 186a a3bc cf7a db3d 12a9 01be cb25 173d
00000250: 841b ad3d 08ef 6e3d bb0e b9bd b828 453d
00000260: e180 49be 8bef 173d cd25 0fbc 734f b1bd
00000270: da09 6cbc 32c4 823d 8ae7 d5bd 1cf1 4fbb
00000280: 33ae 8dbd acc8 b23d e35d 45bd 70c8 c8bd
00000290: 8dbd f63c 619c 25be 9131 0fbe ee29 b03d
000002a0: 1329 783b 4770 583d c273 08be 452a 943d
000002b0: 6cbf fdbd 858e 633d 5d1c 7639 3e19 a53d
000002c0: f559 babd ce19 d73b 2b10 66bd d969 75bd
000002d0: 45a1 ac3d 4cc5 c2bc 9209 0b3e 63b5 003e
000002e0: d3f5 193e dda3 e6bd 0b39 de3d cf5b 463d
000002f0: 7489 803c f7af 0abe acfd c2bd 6330 963d

Encoder.rnn.weight_ih_l1 f4 [192, 64]
-0.11113865 0.13029209 -0.08761338 -0.13921188 0.004847457 -0.20757945 0.028631799 0.22472672
-0.020708764 0.096200585 -0.18588004 0.025834054 -0.03988948 0.04037119 0.16154367 0.016470468
0.040812265 -0.13217229 -0.011308212 0.09346773 -0.085258804 -0.3523511 0.059602838 0.15885055
0.05904487 0.13451539 -0.1625372 0.020876592 0.0028789833 0.06857416 0.060008578 0.07144638
-0.17764397 -0.15098993 -0.18620983 0.16076046 0.061156347 -0.058406778 -0.008219044 0.058856796
0.20293055 -0.061433695 0.053082645 0.043198746 -0.17875975 0.07871061 0.17992133 0.063720055
0.17296523 0.0504282 -0.056023546 -0.048013307 -0.07155394 -0.050752345 0.07161706 0.15424685
0.21031445 -0.05873963 -0.019899813 -0.098050475 0.061606716 -0.030690134 0.00025212805 -0.14404286
-0.14749275 0.019666722 -0.037264608 -0.107647665 0.054464396 -0.068905465 -0.057882126 -0.11633977
-0.0030246503 0.032663934 0.10561456 0.04399822 0.09377414 0.08220055 0.055676218 0.028670158
-0.10405824 0.030130414 0.091728814 0.16017842 0.0813976 -0.09021672 -0.16724662 -0.090920806
-0.06594565 0.0371439 -0.13167529 -0.076253094 0.17983939 -0.15531431 -0.08116909 0.073668934
0.06793083 0.16964772 0.046942387 -0.11102069 -0.16642618 -0.43470043 -0.10581877 -0.0740965
-0.19542284 0.006011349 0.03846944 -0.027592009 0.064944714 0.07686926 -0.1207669 -0.042320345
-0.081628256 -0.18625958 -0.14216939 0.024860375 0.17011935 0.0037604626 -0.04098891 -0.023369815
0.09077858 -0.21170616 0.073963754 0.15295973 0.05426084 0.14360088 -0.019986881 -0.16166225
0.048158284 -0.14260834 0.069830306 -0.100979194 -0.15899819 0.020921303 0.09616678 0.058070328
-0.021741245 -0.07221806 -0.013392679 -0.13802192 0.18149914 -0.07158367 0.20902136 0.15133122
-0.0071865097 0.20663886 -0.014444879 -0.11346748 -0.056447078 0.044589736 -0.10861659 -0.13537377
-0.11567762 -0.013770562 0.021885011 -0.108981445 0.19937293 -0.08084944 0.002260665 -0.02363269
0.021588689 0.18878353 0.11687128 -0.042985465 -0.14742246 -0.37670246 -0.049269088 -0.06915467
-0.07637085 0.11778534 0.026299873 -0.011638957 0.20343277 -0.064172626 0.05294262 0.12109455
0.05481231 -0.18736525 -0.020084638 -0.049627077 0.08732281 -0.17206833 0.16520885 0.00014552289
-0.048083965 -0.05629225 -0.014252963 -0.070283264 0.0059939614 0.063162975 0.020416109 -0.3318014
-0.02057413 -0.06057837 0.0019370355 0.11346424 -0.016695429 0.029742012 0.23813361 0.043939613
0.017306283 0.12196875 0.31226984 0.21823299 -0.006782848 -0.05063925 -0.016383665 0.05453025
0.04554528 -0.15376265 0.15585287 0.16179241 0.016130231 0.18104507 0.07560971 0.08838392
0.22047372 -0.008317931 0.1499016 -0.06589673 -0.017564775 -0.053998705 0.058368627 0.019591032
-0.14945 -0.15258606 -0.0882927 0.0008881572 -0.014331713 0.082501024 0.009809699 0.09087167
-0.014759105 -0.007079263 -0.09516778 -0.07996004 0.07750879 -0.071642585 -0.12787928 0.11510377
0.046845198 -0.09306082 -0.08854025 -0.048148584 0.1057834 -0.004247157 -0.063778974 0.16659704
-0.036794525 -0.00074859813 -0.22267161 -0.18150097 -0.107008964 -0.1453667 0.16617835 -0.09792347
00000000: a99c e3bd 4a6b 053e a56e b3bd 8f8d 0ebe
00000010: 6bd7 9e3b b58f 54be 3c8d ea3c c31e 663e
00000020: 6da5 a9bc d004 c53d 5657 3ebe f0a1 d33c
00000030: 2763 23bd 435c 253d b46b 253e 13ed 863c
00000040: c32a 273d 2c58 07be 1446 39bc 026c bf3d
00000050: 2b9c aebd 5d67 b4be 1b22 743d b8a9 223e
00000060: 09d9 713d 67be 093e 2770 26be 6305 ab3c
00000070: 53ad 3c3b 9c70 8c3d 8ecb 753d 7b52 923d
00000080: 4de8 35be 1b9d 1abe caad 3ebe 649e 243e
00000090: 147f 7a3d f23b 6fbd 2ba9 06bc d313 713d
000000a0: 07cd 4f3e e6a1 7bbd 306d 593d 2bf1 303d
000000b0: cc0c 37be 0733 a13d 4c3d 383e a97f 823d
000000c0: cc1d 313e cd8d 4e3d f278 65bd 9aa9 44bd
000000d0: df8a 92bd b1e1 4fbd f7ab 923d e3f2 1d3e
000000e0: ac5c 573e f798 70bd ef04 a3bc b0ce c8bd
000000f0: 5357 7c3d e069 fbbc 0e30 8439 f97f 13be
00000100: 5708 17be 1b1c a13c c6a2 18bd 6176 dcbd
00000110: 0f16 5f3d 4f1e 8dbd cf15 6dbd 8c43 eebd
00000120: 3639 46bb 9eca 053d 724c d83d 7a37 343d
00000130: a80c c03d c358 a83d bf0c 643d aedd ea3c
00000140: 7d1c d5bd 0fd4 f63c 51dc bb3d d005 243e
00000150: c9b3 a63d 8bc3 b8bd b342 2bbe b034 babd
00000160: 830e 87bd 3424 183d e3d5 06be 952a 9cbd
00000170: d127 383e b70a 1fbe fb3b a6bd bddf 963d
00000180: 521f 8b3d 22b8 2d3e a946 403d d15e e3bd
00000190: a06b 2abe 0e91 debe 83b7 d8bd e8bf 97bd
000001a0: ed1c 48be dafa c43b 2292 1d3d a308 e2bc
000001b0: bc01 853d a16d 9d3d a354 f7bd 1958 2dbd
000001c0: b72c a7bd d5ba 3ebe da94 11be fca7 cb3c
000001d0: c433 2e3e 1872 763b fde3 27bd 0e72 bfbc
000001e0: 1fea b93d 80c9 58be 4f7a 973d 7aa1 1c3e
000001f0: 9d40 5e3d 1c0c 133e 87bb a3bc ca8a 25be
00000200: 9f41 453d ec07 12be 3103 8f3d 2ece cebd
00000210: 6cd0 22be 2763 ab3c 17f3 c43d 27db 6d3d
00000220: b21a b2bc 10e7 93bd f86c 5bbc 9e55 0dbe
00000230: e9da 393e 769a 92bd b209 563e 92f6 1a3e
00000240: d07c ebbb 2399 533e 37aa 6cbc a361 e8bd
00000250: 0d35 67bd baa3 363d 6072 debd 6c9f 0abe
00000260: 63e8 ecbd ec9d 61bc 3248 b33c aa31 dfbd
00000270: 6b28 4c3e 6494 a5bd aa27 143b 5899 c1bc
00000280: c3da b03c 7850 413e 365a ef3d 8711 30bd
00000290: eaf5 16be 25df c0be 62ce 49bd f7a0 8dbd
000002a0: 5268 9cbd 7139 f13d d572 d73c 53b1 3ebc
000002b0: ae50 503e f06c 83bd 5cda 583d 6b00 f83d
000002c0: df82 603d addc 3fbe 8a88 a4bc c345 4bbd
000002d0: 4dd6 b23d ae32 30be 822c 293e 8197 1839
000002e0: b1f3 44bd b492 66bd 4285 69bc acf0 8fbd
000002f0: fe68 c43b 975b 813d af3f a73c e0e1 a9be
00000300: 148b a8bc 0621 78bd 20e4 fd3a f15f e83d
00000310: dac4 88bc 85a5 f33c 4cd9 733e 06fa 333d
00000320: e8c5 8d3c c1ca f93d d5e1 9f3e 7878 5f3e
00000330: a742 debb 1a6b 4fbd 0937 86bc 1d5b 5f3d
00000340: b08d 3a3d f573 1dbe e597 1f3e e9ac 253e
00000350: 8c23 843c e163 393e 43d9 9a3d a102 b53d
00000360: ddc3 613e ee47 08bc ce7f 193e ddf4 86bd
00000370: 01e4 8fbc bf2d 5dbd f113 6f3d 5f7d a03c
00000380: 6c09 19be 853f 1cbe ced2 b4bd 39d3 683a
00000390: 90cf 6abc 4cf6 a83d dcb8 203c ed1a ba3d
000003a0: 2cd0 71bc 2af9 e7bb 53e7 c2bd 17c2 a3bd
000003b0: eebc 9e3d 59b9 92bd c9f2 02be 86bb eb3d
000003c0: c0e0 3f3d ac96 bebd 9754 b5bd 7337 45bd
000003d0: f8a4 d83d bc2b 8bbb 8d9e 82bd 6a98 2a3e
000003e0: dbb5 16bd 923d 44ba 0704 64be 64db 39be
000003f0: 8427 dbbd 02db 14be a82a 2a3e 1a8c c8bd

Encoder.rnn.weight_hh_l1 f4 [192, 64]
-0.15521498 -0.06526159 -0.2929366 0.1622606 0.13115582 -0.018419124 0.09281445 0.025727645
0.2427386 0.0033696413 -0.15533535 0.042193305 0.035509508 -0.18763822 -0.073094144 0.05799382
-0.13332185 0.0047312253 -0.17136778 0.3638363 0.13093671 0.1419395 0.2600266 -0.0141245
0.28786913 -0.17596066 -0.055047076 -0.12941855 -0.03324223 -0.022421442 -0.021497652 0.115883686
0.022976222 -0.3521795 -0.08287066 -0.14072414 -0.049191114 0.22624433 -0.09827019 -0.03627773
-0.03637528 0.21611764 0.19306292 0.042065 -0.08858166 -0.14231193 0.11577856 -0.1078345
-0.049752638 -0.010581781 -0.045137107 -0.08657152 0.027890673 -0.069381416 0.20046626 -0.2222393
-0.035151877 0.114027314 0.07233733 0.09670719 -0.10345354 0.05246106 0.10501287 -0.18950906
-0.120773405 -0.040723063 0.22234143 -0.34821784 -0.07311765 -0.2706593 -0.18931726 0.10864769
0.25421157 0.05153684 0.26587287 0.06924087 0.14545919 0.06260457 -0.034185387 -0.054900005
-0.19326453 0.08150502 -0.02426794 0.034446504 -0.102898784 -0.23513164 0.08789146 -0.037984334
0.057707746 -0.026177168 0.10177952 -0.026442898 -0.041846 0.021473385 -0.004407239 -0.42007962
-3.6975456e-05 0.0008968533 -0.07006209 -0.28153992 0.14493668 0.081149966 -0.12890394 0.047480136
0.031459104 -0.1596839 0.09179675 0.16524354 -0.06673211 -0.17960526 -0.114435665 -0.04772092
-0.14532857 0.00879429 0.04863376 0.2678397 0.18444179 0.012318431 -0.11153763 0.030372037
0.13154133 -0.29860908 -0.086288236 -0.013009882 0.005042582 -0.057762634 -0.1365672 -0.006341791
-0.04461557 0.0092809135 0.07070587 -0.32717806 -0.1531703 -0.06628191 -0.23952024 0.09829719
-0.06975847 -0.2156153 0.016120352 0.053325385 0.12847672 -0.009524464 0.01882958 0.009442995
0.1416123 0.007006488 0.13160707 0.032771908 0.007086418 -0.15946363 -0.13735268 -0.004690862
0.08418198 -0.069217734 0.24018286 0.02324763 0.092010595 0.0651416 0.04326115 -0.14966051
0.037420187 0.18615569 0.14033496 -0.13239379 -0.02663339 -0.010981863 0.029093727 0.13449694
0.018947437 -0.16662179 0.06802418 0.21835731 0.027268572 0.16886283 0.05864846 0.060662087
0.014615328 0.03125981 -0.07036873 0.031169735 0.08082245 0.15723595 -0.010671087 -0.061654657
0.20295112 -0.11543941 0.006974264 0.22362751 -0.123840585 -0.060699955 0.09900965 0.049985062
0.062158704 0.110975325 0.17643273 -0.21444228 -0.0109956665 -0.06359427 -0.004445238 -0.01194346
-0.08806245 -0.04503958 0.15781766 -0.041314606 -0.03324479 0.14175275 0.037977606 -0.036831215
0.11831439 -0.19456096 0.27505082 -0.06073404 -0.17675774 -0.060688786 -0.35318115 -0.051690422
-0.07703188 0.008729725 0.08848392 0.054051746 -0.025503285 0.01235541 -0.09529302 -0.07533722
0.023416663 0.03469309 -0.013348425 0.050726112 -0.06652619 0.050579626 0.13285437 0.21467102
-0.042252094 -0.23878075 0.07288261 0.054370627 0.06876563 0.04065295 0.104211114 0.15448365
0.0025400608 -0.034343258 0.010310298 0.060967416 -0.05750799 -0.09624332 -0.030888148 0.07918974
-0.03305557 -0.038859323 -0.16638899 0.054659612 0.05920657 -0.15259667 0.0061286204 0.2855319
00000000: adf0 1ebe dea7 85bd c9fb 95be a527 263e
00000010: b64d 063e b4e3 96bc 8115 be3d c8c2 d23c
00000020: 7890 783e 33d5 5c3b 3b10 1fbe e3d2 2c3d
00000030: 6b72 113d 3c24 40be 62b2 95bd ee8a 6d3d
00000040: 8685 08be 6508 9b3b 097b 2fbe c048 ba3e
00000050: 4614 063e 9758 113e 3522 853e 726a 67bc
00000060: 9563 933e 082f 34be 0b79 61bd 4c86 04be
00000070: 0129 08bd 2cad b7bc d81b b0bc 6d54 ed3d
00000080: a138 bc3c df50 b4be 18b8 a9bd fd19 10be
00000090: 9f7c 49bd 98ac 673e e241 c9bd f597 14bd
000000a0: 3ffe 14bd f14d 5d3e 49b2 453e 594c 2c3d
000000b0: 4d6a b5bd 38ba 11be 4f1d ed3d 56d8 dcbd
000000c0: 6cc9 4bbd 355f 2dbc b0e1 38bd 694c b1bd
000000d0: fb7a e43c d817 8ebd 0747 4d3e b392 63be
000000e0: 6afb 0fbd 2787 e93d 9825 943d 6b0e c63d
000000f0: 73df d3bd 69e1 563d fd10 d73d aa0e 42be
00000100: 0c58 f7bd 3acd 26bd 79ad 633e 9c49 b2be
00000110: b5be 95bd db93 8abe 62dc 41be ae82 de3d
00000120: 0528 823e 4b18 533d 7d20 883e 28ce 8d3d
00000130: 41f3 143e d336 803d fa05 0cbd d4de 60bd
00000140: 23e7 45be 1bec a63d 8fcd c6bc c717 0d3d
00000150: 99bc d2bd 59c6 70be 7000 b43d 7695 1bbd
00000160: f55e 6c3d 8071 d6bc c871 d03d c79e d8bc
00000170: b666 2bbd f4e8 af3c 9a6a 90bb ad14 d7be
00000180: 1816 1bb8 ce1a 6b3a b77c 8fbd 0026 90be
00000190: 486a 143e f431 a63d 65ff 03be 887a 423d
000001a0: 43db 003d 2d84 23be efff bb3d 9a35 293e
000001b0: d8aa 88bd 71ea 37be 3f5d eabd 0377 43bd
000001c0: 03d1 14be ed15 103c 3234 473d 4922 893e
000001d0: 4fde 3c3e 3fd3 493c d76d e4bd c7ce f83c
000001e0: c5b2 063e 4ae3 98be e3b7 b0bd 6627 55bc
000001f0: 3e3c a53b 8398 6cbd 46d8 0bbe ccce cfbb
00000200: d1be 36bd f90e 183c 3dce 903d e283 a7be
00000210: add8 1cbe cfbe 87bd cb44 75be 0a50 c93d
00000220: 87dd 8ebd 42ca 5cbe d40e 843c b86b 5a3d
00000230: 678f 033e 7f0c 1cbc 7e40 9a3c cbb6 1a3c
00000240: d102 113e ae96 e53b 01c4 063e d63b 063d
00000250: 2f35 e83b 6f4a 23be 2ea6 0cbe cdb5 99bb
00000260: 9a67 ac3d 07c2 8dbd 7ff2 753e d071 be3c
00000270: 0d70 bc3d f668 853d 9b32 313d 9b40 19be
00000280: e945 193d 999f 3e3e f8b3 0f3e 3d92 07be
00000290: 442e dabc 46ed 33bc f855 ee3c 91b9 093e
000002a0: a837 9b3c e79e 2abe 4350 8b3d 0f99 5f3e
000002b0: 5762 df3c 61ea 2c3e 5e39 703d cf78 783d
000002c0: 2175 6f3c 490a 003d 7b1d 90bd ac57 ff3c
000002d0: 3e86 a53d 7602 213e c8d5 2ebc 9889 7cbd
000002e0: 6bd2 4f3e 7f6b ecbd 5e88 e43b 9cfe 643e
000002f0: 22a0 fdbd 84a0 78bd 92c5 ca3d 23bd 4c3d
00000300: 209a 7e3d 0847 e33d c8aa 343e c296 5bbe
00000310: 2b27 34bc b63d 82bd 5ca9 91bb 81ae 43bc
00000320: 165a b4bd 6c7b 38bd f49a 213e 8139 29bd
00000330: b02b 08bd a227 113e 688e 1b3d 54dc 16bd
00000340: d14e f23d fd3a 47be 76d3 8c3e 42c4 78bd
00000350: fbff 34be ce94 78bd 29d4 b4be 56b9 53bd
00000360: e4c2 9dbd 1f07 0f3c 0f37 b53d 5d65 5d3d
00000370: 44ec d0bc 586e 4a3c fd28 c3bd 674a 9abd
00000380: 4dd4 bf3c 571a 0e3d 5ab3 5abc 2fc6 4f3d
00000390: e23e 88bd 952c 4f3d fa0a 083e b8d2 5b3e
000003a0: 8810 2dbd f182 74be 7a43 953d bcb3 5e3d
000003b0: ffd4 8c3d b583 263d a36c d53d f630 1e3e
000003c0: 2677 263b 84ab 0cbd 86ec 283c f8b8 793d
000003d0: 808d 6bbd 381b c5bd 2409 fdbc 3b2e a23d
000003e0: 4765 07bd f42a 1fbd e061 2abe c2e2 5f3d
000003f0: 9782 723d 4d42 1cbe 98d2 c83b 3d31 923e

Encoder.rnn.bias_ih_l1 f4 [192]
-0.039127637 0.0662166 -0.0812131 -0.0483042 0.0026990632 0.014082256 -0.10794343 0.21452601
-0.01367223 0.062825665 0.05658435 0.27816057 0.08340877 0.11989885 0.085012436 -0.046416305
0.03425105 -0.025951877 0.08475564 -0.021518389 0.15887028 0.05859389 0.041359376 0.14766508
-0.100948125 -0.037393376 -0.11363399 -0.014678277 0.10761579 0.1435346 0.18848628 -0.09219846
0.08248761 0.062673144 -0.030327292 -0.045715902 -0.09646474 -0.07162872 -0.041594688 -0.00627436
-0.04558537 -0.052625313 0.097749695 -0.02862663 -0.10120335 -0.07090394 -0.01169352 0.036356613
-0.0010461935 0.06297641 0.08883024 0.1374218 -0.027771695 -0.15201879 0.020749575 -0.0023072565
-0.18403967 0.14571106 0.010794091 -0.12696652 -0.002393208 -0.06339542 0.044982392 0.16069701
0.04855928 0.15292709 0.15375292 0.16081125 0.2319508 -0.14956413 0.28638354 0.12601988
0.14565696 0.1247302 -0.0035708565 0.10399944 -0.02532938 -0.0066768657 -0.069438085 0.046482284
-0.048993904 0.04250938 0.1380777 -0.027511744 0.21285588 0.043912042 0.08438324 0.07173191
-0.01921689 0.15061127 0.18767653 0.057105336 -0.05269835 -0.17778194 0.20411977 0.008895052
-0.032151185 0.30679166 0.18078588 -0.058264356 -0.036967143 0.08101322 0.16655366 -0.019427696
0.22549179 -0.022479914 -0.039568726 0.28633273 -0.18262851 0.2824344 0.08994949 0.028309114
0.14945759 -0.08148698 -0.00065291167 0.21258669 0.049555272 -0.09937507 -0.15898472 -0.057001926
-0.013488685 0.10815772 -0.014714459 0.07093453 0.018468484 -0.10925072 -0.064382516 0.24238494
-0.18449275 0.0648141 -0.18267292 -0.064318314 -0.14335105 0.06316504 -0.018998869 -0.040679395
-0.10585818 0.09664374 -0.07360408 0.0033585357 -0.060307715 0.14282659 0.13088843 0.035053004
0.01934482 -0.13900891 -0.12605359 -0.09029171 0.17897172 0.22842848 -0.040303033 0.095119074
0.018236244 0.06888065 -0.06702867 -0.034038976 -0.014646415 0.102397345 0.035419814 0.0016884237
-0.06392016 0.060549587 -0.012994946 -0.050575543 0.11002058 0.020389035 -0.06961401 -0.25356793
-0.12224315 -0.067274414 -0.018818356 0.09036594 0.037737805 0.060785353 0.14563727 -0.12735462
0.23401736 0.07988209 0.12993944 0.027015941 -0.14486961 0.095663585 -0.04539186 -0.15090096
-0.08762547 0.1600651 0.12126161 0.009780462 -0.020793103 0.121036366 -0.05080268 -0.01998967
00000000: 4d44 20bd 929c 873d 0e53 a6bd a0da 45bd
00000010: c4e2 303b 43b9 663c 7211 ddbd b5ac 5b3e
00000020: 7d01 60bc beaa 803d fec4 673d 106b 8e3e
00000030: 38d2 aa3d 878d f53d 001b ae3d 061f 3ebd
00000040: d44a 0c3d 0899 d4bc 5d94 ad3d 5547 b0bc
00000050: e4ae 223e 2600 703d 7368 293d 8435 173e
00000060: e4bd cebd cc29 19bd f0b8 e8bd 287d 70bc
00000070: ab65 dc3d bcfa 123e 8c02 413e 8cd2 bcbd
00000080: 44ef a83d c75a 803d f170 f8bc 9940 3bbd
00000090: 4e8f c5bd 14b2 92bd 315f 2abd 2699 cdbb
000000a0: bab7 3abd a48d 57bd fe30 c83d 6582 eabc
000000b0: b443 cfbd 1636 91bd 2d96 3fbc acea 143d
000000c0: 6e20 89ba c7f9 803d a1ec b53d 4db8 0c3e
000000d0: 7781 e3bc d0aa 1bbe 03fb a93c 5735 17bb
000000e0: e574 3cbe 4835 153e b3d9 303c 8303 02be
000000f0: 5ed7 1cbb 75d5 81bd 753f 383d c28d 243e
00000100: 18e6 463d eb98 1c3e 6871 1d3e b4ab 243e
00000110: 8384 6d3e 5727 19be dda0 923e 5b0b 013e
00000120: 1927 153e 8c72 ff3d 0805 6abb a9fd d43d
00000130: 8f7f cfbc 9cc9 dabb 8e35 8ebd 3564 3e3d
00000140: d5ad 48bd 511e 2e3d 3e64 0d3e 4f60 e1bc
00000150: e4f6 593e 1ddd 333d 1fd1 ac3d 2ee8 923d
00000160: bd6c 9dbc d739 1a3e 472e 403e 49e7 693d
00000170: 3ada 57bd 780c 36be c604 513e 8dbc 113c
00000180: f6b0 03bd cc13 9d3e ef1f 393e 9ba6 6ebd
00000190: dc6a 17bd 42ea a53d 0b8d 2a3e d526 9fbc
000001a0: 52e7 663e cc27 b8bc d112 22bd 349a 923e
000001b0: f802 3bbe 3e9b 903e 7037 b83d 84e8 e73c
000001c0: 690b 193e a5e2 a6bd 2928 2bba 53b0 593e
000001d0: 78fa 4a3d 2885 cbbd e4cc 22be da7a 69bd
000001e0: a5ff 5cbc cb81 dd3d ea14 71bc 1f46 913d
000001f0: 384b 973c d7be dfbd fbda 83bd c233 783e
00000200: abeb 3cbe 41bd 843d 9c0e 3bbe 52b9 83bd
00000210: 9eca 12be ac5c 813d 84a3 9bbc 709f 26bd
00000220: 2ccc d8bd 27ed c53d bcbd 96bd e11a 5c3b
00000230: 3905 77bd 2241 123e 9e07 063e bd93 0f3d
00000240: 0779 9e3c 5a58 0ebe 3114 01be dcea b8bd
00000250: 5d44 373e 28e9 693e cb14 25bd cacd c23d
00000260: 2d64 953c 4c11 8d3d 5446 89bd 746c 0bbd
00000270: 84f7 6fbc b3b5 d13d 5e14 113d 194e dd3a
00000280: 93e8 82bd d802 783d c1e8 54bc 4d28 4fbd
00000290: 7852 e13d e806 a73c ca91 8ebd a8d3 81be
000002a0: 9e5a fabd 2bc7 89bd f428 9abc c711 b93d
000002b0: f592 1a3d 10fa 783d f021 153e 4069 02be
000002c0: 3fa2 6f3e 3999 a33d d80e 053e 8950 dd3c
000002d0: b358 14be 45eb c33d d1ec 39bd c885 1abe
000002e0: fb74 b3bd 1be8 233e 0258 f83d 3b3e 203c
000002f0: 4c56 aabc eae1 f73d 7916 50bd 60c1 a3bc

Encoder.rnn.bias_hh_l1 f4 [192]
-0.04859123 0.06729921 -0.027360816 0.07152119 -0.118308134 0.04607999 -0.11336604 0.15159467
-0.22328079 -0.014867486 0.011001847 0.07915924 0.062297344 0.09763165 0.07085001 0.02177077
-0.06241496 -0.0313302 -0.10030986 -0.18326773 0.15590066 -0.04017289 -0.021654911 0.123838075
-0.03850372 0.030676069 0.12072346 0.02291439 -0.024968015 -0.042615682 0.021053696 0.026264934
-0.01563857 -0.06694102 0.06334386 -0.089158736 -0.17638443 -0.06738502 -0.045332447 -0.08063094
-0.052985486 0.072915286 -0.04482111 0.04423928 -0.09319138 -0.17591032 -0.016194481 -0.035349447
-0.101303495 -0.018642236 -0.044463914 -0.017290724 0.11762246 -0.073791735 -0.04596476 -0.102713
9.613145e-05 -0.071455665 0.09682962 -0.22966677 -0.17712711 -0.13562895 -0.022242798 0.014719789
0.035178818 0.3109208 0.1474351 0.10737022 0.1647906 -0.05679981 0.144746 0.17939155
0.2632813 0.06290948 0.05832677 -0.0519386 0.0937412 0.03341167 -0.061308697 0.17802519
0.064137764 -0.034672473 0.10746691 -0.015266434 0.009111536 0.022448037 0.06734958 0.16733396
-0.09272232 0.019131742 0.22063765 0.18164422 -0.017043259 -0.13904978 0.17258285 0.07186132
0.040080093 0.27151954 -0.0022576645 -0.052977905 -0.097844265 0.044328794 0.2684696 -0.113184415
0.23248716 -0.04720064 0.12021581 0.10872668 -0.14893581 0.28488195 -0.09177098 0.16492087
-0.023644157 -0.22134025 0.06308215 0.1465931 0.099848896 -0.09440629 -0.089033216 0.16265017
0.033579215 0.06919481 0.14767131 -0.06588668 0.052836392 -0.123284236 -0.027730485 0.12252811
-0.16746283 -0.012624349 -0.03857958 0.13000852 0.03884057 0.025234865 -0.04642679 0.05017015
0.04300803 0.2126396 0.062054444 -0.054899238 0.03966935 0.14756829 0.0023363284 0.1323666
-0.037163265 -0.21188478 -0.113554075 -0.020117937 0.14671516 0.028660754 0.10393567 0.16483814
-0.02523631 0.08572092 -0.020842077 -0.15817621 -0.028599452 0.1990448 -0.07849788 0.011449775
0.08367592 -0.021489728 -0.104272954 -0.12337655 -0.0152018415 -0.123170875 -0.15982686 0.025698513
0.01110191 0.02585989 0.13475491 0.06078799 0.12566581 0.0043317913 0.017390588 -0.089974195
0.07650592 0.010176895 0.06566859 0.054316632 -0.039621547 0.1352572 0.06952884 -0.1475326
0.017967768 -0.05528825 -0.080755845 0.0059643537 -0.070061095 0.050150808 -0.11493253 -0.07759162
00000000: 9907 47bd 2bd4 893d ca23 e0bc b479 923d
00000010: 894b f2bd 5fbe 3c3d 742c e8bd a23b 1b3e
00000020: b8a3 64be c296 73bc 1741 343c 3d1e a23d
00000030: 802b 7f3d 1af3 c73d cf19 913d 9d58 b23c
00000040: d4a6 7fbd 1954 00bd 426f cdbd 89aa 3bbe
00000050: 6ca4 1f3e 548c 24bd a465 b1bc d19e fd3d
00000060: 14b6 1dbd 614c fb3c dd3d f73d f5b6 bb3c
00000070: b989 ccbc c88d 2ebd cd78 ac3c 8f29 d73c
00000080: 751c 80bc 6018 89bd 6dba 813d db98 b6bd
00000090: 1f9e 34be 2801 8abd 84ae 39bd d621 a5bd
000000a0: 4f07 59bd 9c54 953d 5796 37bd 3f34 353d
000000b0: 1fdb bebd d621 34be 4aaa 84bc 95ca 10bd
000000c0: 3578 cfbd 9ab7 98bc cb1f 36bd 47a5 8dbc
000000d0: 0be4 f03d 1f20 97bd 8b45 3cbd 315b d2bd
000000e0: 2e9a c938 5957 92bd 9c4e c63d c42d 6bbe
000000f0: cf60 35be 51e2 0abe 8736 b6bc 452b 713c
00000100: aa17 103d 0331 9f3e 3af9 163e ebe4 db3d
00000110: debe 283e eba6 68bd 4c38 143e 6bb2 373e
00000120: cecc 863e afd6 803d 0de8 6e3d 92bd 54bd
00000130: 63fb bf3d adda 083d d41e 7bbd 3c4c 363e
00000140: a95a 833d b904 0ebd 9c17 dc3d 1120 7abc
00000150: 8d48 153c f2e4 b73c 94ee 893d 9859 2b3e
00000160: 33e5 bdbd 2cba 9c3c d6ee 613e f100 3a3e
00000170: 4e9e 8bbc 1163 0ebe 8fb9 303e 072c 933d
00000180: 062b 243d 9c04 8b3e 53f5 13bb 5cff 58bd
00000190: 9362 c8bd 1c92 353d d974 893e 3bcd e7bd
000001a0: 1d11 6e3e 7555 41bd b533 f63d 18ac de3d
000001b0: a182 18be 0cdc 913e 6cf2 bbbd 04e1 283e
000001c0: 64b1 c1bc 05a7 62be 3731 813d 801c 163e
000001d0: 947d cc3d 1658 c1bd 0c57 b6bd c48d 263e
000001e0: 5c8a 093d 02b6 8d3d 2637 173e 98ef 86bd
000001f0: f96a 583d 727c fcbd 0b2b e3bc 05f0 fa3d
00000200: 607b 2bbe 5cd6 4ebc 9f05 1ebd f420 053e
00000210: 4a17 1f3d 59b9 ce3c 052a 3ebd 377f 4d3d
00000220: 3029 303d 32be 593e cd2c 7e3d 06de 60bd
00000230: 547c 223d 241c 173e 161d 193b 1c8b 073e
00000240: 8238 18bd 53f8 58be 0a8f e8bd 5fce a4bc
00000250: 803c 163e f5c9 ea3c 39dc d43d 54cb 283e
00000260: 61bc cebc 738e af3d 01bd aabc f2f8 21be
00000270: 6649 eabc 66d2 4b3e 7fc3 a0bd d697 3b3c
00000280: 485e ab3d 3a0b b0bc 0f8d d5bd d8ac fcbd
00000290: 2511 79bc 0341 fcbd a7a9 23be b085 d23c
000002a0: c9e4 353c 1fd8 d33c 31fd 093e d4fc 783d
000002b0: 8aae 003e b3f1 8d3b b576 8e3c 6444 b8bd
000002c0: 23af 9c3d febc 263c 417d 863d 1e7b 5e3d
000002d0: 344a 22bd dd80 0a3e 2365 8e3d c912 17be
000002e0: 2431 933c ef75 62bd 5263 a5bd a070 c33b
000002f0: 317c 8fbd ef6a 4d3d bf61 ebbd 5be8 9ebd
