EXPERIMENT_1/model_OpenChem_CLASSIFIER_ENSEMBLE_6.pth (torch, 440253 bytes, 25 tensors)

Embedding.embedding.weight f4 [56, 64]
00000000: 414c 8cbf 5a2f 91bf 6647 bebe 58a2 f1be
00000010: f4f5 563f 56af 523f f65a bebe 2a4c 07c0
00000020: e1d3 063f 52b6 8dbf ceb1 ba3e 901a a23e
00000030: 9046 2b3e b3ae 943f 380b 893f ce6a c2be
00000040: 7b96 bbbf 2302 d4bf 5e6c 063f 0da4 2b3f
00000050: bda4 023f d9f6 cabf 0049 bbbe 6a39 fd3f
00000060: 6421 713f 41fd d2be 92f8 83be f6f2 b03e
00000070: 7116 9f3f ac36 ce3f 5327 6f3f 75a2 69bf
00000080: f3ee 33bf 52b0 943d 3fa6 0ebf 4639 273e
00000090: 0a96 073f 6d2f 993e 29b8 403f 790a cb3e
000000a0: a84c c9bd 043a 763f a19e a3be 5042 71bd
000000b0: e45d 103f 9227 1b40 26fb c5bf fdf2 c2bf
000000c0: 1520 31bf d25b 833f 548e 973f 093a d43e
000000d0: 7c6c 92be 2085 c8be cf2d 193f 0d16 00bf
000000e0: e169 d2be d187 263f ff52 ac3f 439b 5e40
000000f0: dd37 d3bf a708 9ebf e7d2 f23f b0f9 15bf
00000100: 74d5 07bf 8a4c 6d3f 4dac 903f 5cb0 943f
00000110: 187c b9bf a86f 2740 e3e2 e4be 6132 9b3e
00000120: 7ce5 c5bf 0ad7 0fbf cced dbbe 4d9f dfbe
00000130: d32c 8ebf 4523 8c3f 37f3 3cbe 48d2 513f
00000140: 2f82 cdbd dea0 333f 6853 4dbf e9b4 b53c
00000150: 3c4d 483f 202f c7be 620b 883f 4848 b23e
00000160: cf83 8cbe 3d41 1440 65fd f5bf 925b 54bd
00000170: a4d8 88bf 4100 82bf 5cbb 8c3d a655 393f
00000180: 3205 c83f bb2a a8bf 60a3 c13e 97aa ee3e
00000190: ee00 24c0 ac89 d3bf 2827 4cbe 1702 9b3e
000001a0: acf9 7b3e bd06 b8bd 8470 bc3e b29c da3e
000001b0: aad8 d03e 21da 5abf a40d 433f 4bde 73bf
000001c0: a453 78be fe14 1cc0 a39e afbd 736e 2ebc
000001d0: 8787 793f 8757 983e f91a 57bf d078 66bd
000001e0: be76 29bf ffcf f4be 0dfb fc3f bd45 d1be
000001f0: 8229 ac3d bcb3 9e3f 1dc7 7a3f a959 b43f
00000200: 2e5a 60bf 8817 e4be 5fe5 57bf 7dba 0a3f
00000210: 8f7f 233f a01c b43e a882 fa3f 7c03 81bf
00000220: f54a 38be 3838 2f3e 7bb9 15bf 3698 9fbf
00000230: f7eb e13c e124 74bf 9398 38be daa7 5b3e
00000240: 3a31 7ebe b013 8d3c 26a5 a43e 0013 903f
00000250: 0709 a03e 8732 883e a2cc 09be 2ea7 59be
00000260: cd65 213e 07e0 43bf f3e3 f3bf 7f35 c53d
00000270: ea61 34bf ffc5 aa3e bf7c 223e 605f e63e
00000280: 9462 793f 4812 7cbf 168a 883e 0050 8b3c
00000290: 196e 8e3f e6a9 0cbf 17d2 523f de38 3c3f
000002a0: 2cdb 293e a8b7 393e 2d46 57be fa20 e43e
000002b0: abeb fcbe 9fea 85bf 9119 3d3e ceb5 c7bf
000002c0: 930c ecbd 4012 e5be 0512 d3bf d3cd ddbe
000002d0: 6fcf 893f 437b 1c3e ebaa dc3f 3f88 713f
000002e0: 9c77 80bf cbe5 40bf 74dc ca3f 449d 9f3e
000002f0: 5350 383f 4e70 76bf deed 92bf 2fa9 9bbf
00000300: eb43 0fbf 9c91 083f 7153 d03e 3f07 ca3e
00000310: 92a0 2f3e 7844 603f 1ffd 92be 1ac5 823f
00000320: 5d5c 98bd fccd 8bbf b0b7 c83e dd32 183f
00000330: cb8a 293f 1e68 9abf 2b81 1b3f 7812 0cbf
00000340: 3ee6 953f 0eac c73d b79f 763f 6c1f 573f
00000350: c277 a0bf 4aa1 7c3f 6d43 fdbe c13a a4bf
00000360: 6b89 743f 464c a43f e075 2abf 9aac 103f
00000370: dc4d 933e ffb3 08bd f6eb 87bf 4558 eabd
00000380: b6c9 afbe 351f c93f b136 443e bd87 c23e
00000390: 303b 14be ec3a 233f 4605 90be 5939 aabf
000003a0: 476b 11be c7bd 08bf 2bfc 05bf 8b8b 5c3f
000003b0: 0510 63bf f0b9 563f 1192 933f aa6b e1bf
000003c0: ad26 bdbf d5b9 e0bf f8fc 9b3d ad0f 8abf
000003d0: 225d b83f 357f e2bd 1dad 133f f93b 2dbe
000003e0: 791f 83bd 21eb 843f 9625 683f 8d76 f3be
000003f0: 0de9 5ebf 7b37 143e cd90 f33f f5e1 c73e
-1.0960771 -1.1342576 -0.37163848 -0.4719417 0.83969045 0.8229879 -0.37178773 -2.1140237
0.5266705 -1.1071265 0.3646378 0.3166089 0.16726136 1.1615814 1.0706549 -0.3797211
-1.4655298 -1.6563152 0.52509105 0.67047197 0.5103262 -1.5856582 -0.36579132 1.9783146
0.94191575 -0.41208842 -0.25775582 0.34560364 1.2428724 1.6110435 0.9341938 -0.91263515
-0.7028648 0.07260193 -0.5572242 0.16330442 0.52963316 0.29918995 0.75281006 0.39656428
-0.09829074 0.96182275 -0.31956962 -0.05890113 0.56393266 2.4242902 -1.546727 -1.5230404
-0.6918958 1.0262396 1.184031 0.41450527 -0.28598392 -0.39164066 0.59835523 -0.50033647
-0.41096404 0.6505099 1.3462828 3.4782264 -1.6501423 -1.234639 1.8970612 -0.5858412
-0.5306008 0.92694914 1.1302582 1.1616321 -1.4490995 2.61619 -0.4470435 0.30311874
-1.5460658 -0.561875 -0.42954862 -0.43676224 -1.1107429 1.0948263 -0.18452154 0.8196149
-0.10034596 0.7016734 -0.8020539 0.022180991 0.7824285 -0.3890314 1.0628474 0.3482077
-0.27444312 2.3164818 -1.9217955 -0.05184514 -1.0691113 -1.0156327 0.068716735 0.72396314
1.5626585 -1.313804 0.37819958 0.46614525 -2.5625567 -1.6526389 -0.19936812 0.30275032
0.24606961 -0.0898566 0.36804593 0.42697674 0.40790302 -0.8548909 0.7619269 -0.9526107
-0.24250656 -2.4387813 -0.085751794 -0.01064645 0.97472423 0.29754278 -0.8402553 -0.05626756
-0.6619681 -0.47814938 1.9764115 -0.4087352 0.084063545 1.23986 0.9796007 1.4089862
-0.87637603 -0.44549203 -0.8433437 0.5419081 0.63866514 0.3517809 1.9571123 -1.0079188
-0.17997344 0.1711129 -0.58486146 -1.2468326 0.027578337 -0.9536877 -0.18026952 0.21450749
-0.24823466 0.017221302 0.32157248 1.1255798 0.31256887 0.2660105 -0.13456967 -0.2125518
0.1576149 -0.76513714 -1.905394 0.09629344 -0.70461905 0.33354184 0.158679 0.4499464
0.97416043 -0.98465395 0.2666785 0.01700592 1.1127349 -0.54946744 0.8235182 0.7352427
0.16587514 0.18136466 -0.21022864 0.4455641 -0.4939855 -1.0462226 0.18466784 -1.5602357
-0.11525836 -0.44740486 -1.6489874 -0.43321094 1.0766429 0.15281396 1.723966 0.9434852
-1.0036502 -0.75350636 1.5848527 0.31174672 0.71997565 -0.96265113 -1.1478841 -1.2161006
-0.5596301 0.5334718 0.4068866 0.39458653 0.17151096 0.87604475 -0.2870874 1.0216401
-0.07439492 -1.0922236 0.39202642 0.5945261 0.66227406 -1.2063024 0.6074397 -0.5471568
1.1710889 0.09749614 0.96337456 0.8403232 -1.2536547 0.9868361 -0.49465504 -1.283043
0.95522183 1.2835777 -0.6658611 0.5651337 0.2877034 -0.033374783 -1.0618885 -0.11442617
-0.3433358 1.5712649 0.19161488 0.37994185 -0.14475703 0.6376178 -0.28129023 -1.3298751
-0.1420108 -0.5341458 -0.523379 0.86150426 -0.8869632 0.8387747 1.1528951 -1.7610981
-1.4777428 -1.7556711 0.07616609 -1.0786034 1.4403422 -0.11059419 0.57686025 -0.16917409
-0.06402487 1.0384256 0.9068235 -0.47551385 -0.8707436 0.14474289 1.9028565 0.3903958

Encoder.rnn.weight_ih_l0 f4 [192, 64]
00000000: 104e 54be 4c28 11be 98a2 b83d e25e 4cbe
00000010: 4b12 34bd 3ab3 9fbc 7938 8a3d 6137 003d
00000020: 477c 1e3d bedd d2bd 6af3 0e3d dbcd 4abe
00000030: b103 203d 5508 ea3d b466 6b3d 4071 d0bd
00000040: 9168 0cbd 3859 ccbd 715f 99be 0529 863d
00000050: 5c3c 143e 70e0 273d 8964 0e3e 8f88 06be
00000060: 8941 d5bc 5cd8 c8bd 3db5 343e bd5c cebc
00000070: 3cd9 353d 138a cabd a27b 95be 6215 b63c
00000080: 6d8a b5be 490c f13d 91b7 94bd dd04 3d3e
00000090: 3433 ca3d 8672 0f3e f818 f8bd e008 14be
000000a0: 37d1 893e 28e3 52bc 8188 07be 2238 5b3b
000000b0: f142 7abd 5b0c 113e a80e 293d 52e8 4d3e
000000c0: 811a 493e e116 5c3e 0db4 883d fbfd f2bd
000000d0: 9791 06be f749 1abe da6e 55be 4afd 0f3e
000000e0: 973c a0bd d6d4 973d 60c7 8bbe 9595 8a3a
000000f0: eac1 193e a7b7 e0bd 1e3a 393d c2bb 92bd
00000100: e4d6 edbc 216c d93d e65a 333d 00aa 98bd
00000110: 5ccb 883c b501 ecbd bcfe e3bc 567b debd
00000120: b77c 963e 62ce db3d 9f4f 44bd 6a2d ed3d
00000130: 3228 c4bd dce4 1bbe 048b 1abf d92a 333e
00000140: c8fc 84be 2261 d53c ca11 f93d 9bd7 6f3e
00000150: 1814 b5bd b8fc 2e3e 1d9a 983d fffa 6d3c
00000160: 3057 4d3d 268b 943d 9476 fbbd e7da e4bd
00000170: 260a ce3d b9dc 6d3e c6e2 e03d 6c3e 39be
00000180: 7eaa d43d 2d99 4bbd c397 9cbd 154d 77bd
00000190: e37c aa3c 40b4 8fbd 312e 353e c47b c03d
000001a0: d1b6 8ebd 7eed 44be e17c f8bc d526 bdbe
000001b0: 921a 243d 8a7d 9ebb 3d13 2d3d 515e 9f3e
000001c0: 045a fb3d 4697 02be 722c 17be 8ae5 a2bd
000001d0: dc11 043e dab9 95be fcca 4ebe a9ed 6dbd
000001e0: 3d66 2f3e 286a ca3d 9eef fa3d 1c67 563d
000001f0: e4a0 04be 93d5 923d 8761 58bc 8f5b 503e
00000200: 9c0a 9dbc b144 8fbe f22e 023e a91c 2c3e
00000210: 24e6 85bd f2a0 e93d 3f91 f5bc a574 55be
00000220: 2d4e 143d 3e7c 3b3e ce80 4d3e c2c8 0cbd
00000230: 16ae 62be bd66 1cbe b042 ff3a 81fd f83c
00000240: 6d3b 74bd e68f bc3c e5df d6bc a782 83be
00000250: a36b df3d 06d7 81be f5e5 c2bd 687f 9e3c
00000260: 324b f53e c2c5 4d3d b42e 6a3e b99f 21be
00000270: b5c8 b73c 2816 3f3d eee5 9f3c f344 ea3d
00000280: b936 b13d daca ccbd a70a f53d 69fa e2bc
00000290: dfdd 38bd 8550 4cbe a489 e53d 75e9 6e3d
000002a0: a31e 453d 770e aa3e 9f14 e4bd f42d 4d3e
000002b0: bb5e a63e 239f c03e 607d 48bc 250e 643c
000002c0: 61e2 e73d 9d61 aa3d 4dcb a03e af31 b13e
000002d0: d61d 483c 35eb 033e a348 f4bd c213 83be
000002e0: a123 123e 4b3f 16be 5d62 35bc a195 7e3c
000002f0: 1970 1abe 9439 ff3d 1c8d 773e 6c46 bc3c
00000300: bf20 93be 7c91 61be 1fbe 9dbd ad78 75bd
00000310: 9d34 743c f1e2 1cbd 2685 a83e a1ea ffbb
00000320: 5383 e03c dd43 c23a b918 2abe 20ce 8fbd
00000330: 7a33 1b3d 3c3d 81bc 0f4f 57be c0be 8abc
00000340: 93aa 2dbe 0268 c03d 3a87 2fbe a73a ee3d
00000350: 7de9 0c3e a9d2 383e d4c3 40bd f1a6 aa3d
00000360: cd71 793d 3d46 6f3d 6937 2cbe 12f3 56be
00000370: fe8b 85be 1ee2 7a3e f0ae a73d d870 c7bb
00000380: 6ebc 963e b1ea f23c 236c d6bd 193b 14be
00000390: e5d3 22be 6ddc 66be 3dd7 603e 0f04 91bd
000003a0: 45aa 77bd 46cd 2a3d 2526 9d3d 7ec2 84be
000003b0: c38c 1b3e fb59 223e 2224 d1bd 3237 073e
000003c0: 2f2e a3bd 59f2 66be 7db3 59be 08e1 843d
000003d0: 54a5 1fbd 7a98 483e 5e8e d63b 5998 e83c
000003e0: 3c3c a3be b244 463e 372b ccbd 4a18 a7bd
000003f0: 5c7d f63d 043d e73c 67d8 c6bd 81b6 1bbe
-0.20732903 -0.14175528 0.09015387 -0.1995807 -0.043962758 -0.019494642 0.067490526 0.031302813
0.03869274 -0.102962 0.034900106 -0.1980509 0.03906602 0.114273705 0.057470992 -0.10177851
-0.03427941 -0.099779546 -0.2995563 0.065507926 0.1447615 0.040985525 0.13905539 -0.1313803
-0.026032226 -0.09806892 0.17647262 -0.025190705 0.044396624 -0.09889617 -0.29195887 0.022226993
-0.35457173 0.11769921 -0.07261575 0.18458886 0.098730475 0.14008531 -0.121141374 -0.1445651
0.2691743 -0.012871541 -0.13235666 0.0033450206 -0.061098997 0.1416487 0.041273743 0.20108154
0.19639017 0.21493103 0.06674967 -0.11864849 -0.13141476 -0.15067278 -0.20843068 0.14061466
-0.078240566 0.07413642 -0.2730055 0.0010573143 0.15015379 -0.10972529 0.04522144 -0.07164718
-0.029033132 0.10616327 0.04378786 -0.074543 0.016698532 -0.11523763 -0.027831428 -0.10863368
0.29392025 0.10732724 -0.047927495 0.11580928 -0.09577979 -0.15224022 -0.6036837 0.17496814
-0.25974107 0.026047293 0.12161596 0.2342209 -0.08841723 0.17088592 0.0745127 0.014525174
0.050131977 0.07253103 -0.12278476 -0.11174565 0.100605294 0.2322873 0.109807536 -0.18090218
0.10384081 -0.049706627 -0.07646134 -0.060376246 0.020811504 -0.07016802 0.17693402 0.093986064
-0.06968463 -0.19231221 -0.030332984 -0.3694369 0.040064402 -0.0048367428 0.042254675 0.31126645
0.122730285 -0.12753019 -0.14763048 -0.07953937 0.12897438 -0.29243356 -0.2019462 -0.05808798
0.17128845 0.09883529 0.122527346 0.052344427 -0.12952 0.07169642 -0.013206846 0.20347427
-0.019170098 -0.27982095 0.1271322 0.16807808 -0.065380365 0.11407651 -0.029976485 -0.20845278
0.036207367 0.18309113 0.20068666 -0.034371145 -0.22136721 -0.15273567 0.001947483 0.030394318
-0.059626985 0.023017835 -0.026229808 -0.25685617 0.10909202 -0.25359362 -0.09516517 0.019347861
0.47908932 0.050237425 0.22869378 -0.15783586 0.022434572 0.04665199 0.019518819 0.11438932
0.08653016 -0.09999628 0.119649224 -0.027707295 -0.045133468 -0.19952591 0.112078935 0.05832811
0.04812492 0.3321416 -0.11136746 0.20037061 0.3249415 0.37621412 -0.012236923 0.013919388
0.11322475 0.083193995 0.31405106 0.34608218 0.012214145 0.12882693 -0.11927917 -0.25601012
0.14271404 -0.14672582 -0.011070815 0.015538604 -0.15081824 0.12462154 0.24174923 0.022982799
-0.2873592 -0.22028154 -0.07702278 -0.05992954 0.014905122 -0.038302366 0.32914084 -0.0078099524
0.02740637 0.001482125 -0.16610993 -0.07021737 0.03789089 -0.01577627 -0.21026252 -0.01693666
-0.169596 0.09394838 -0.17141429 0.11632281 0.13760944 0.1804911 -0.047061756 0.08332623
0.060899545 0.058416594 -0.16818012 -0.20991161 -0.26083368 0.2450032 0.081876636 -0.00608645
0.29440635 0.029652925 -0.10469844 -0.14475669 -0.15901144 -0.22545023 0.21957107 -0.07080852
-0.060465116 0.04169967 0.07673291 -0.25929636 0.15190415 0.15854637 -0.1021197 0.13204649
-0.07967793 -0.22553386 -0.21259876 0.06488234 -0.03897603 0.19589415 0.006547733 0.028392958
-0.31881893 0.19362143 -0.0996918 -0.0815893 0.12035629 0.028227337 -0.09709244 -0.15206338

Encoder.rnn.weight_hh_l0 f4 [192, 64]
00000000: 0790 ff3d 7aab 263e 7728 103e 4a3b 693e
00000010: 0e88 7ebc fc85 563e 4a85 debc 1294 39bd
00000020: 9a50 c33c 2188 25be 8ddd 98bd 2807 77be
00000030: 68ee 853d 7e75 a73d bbdd 7b3e 2496 363e
00000040: cf6b cebd 916b 033e 7cb5 90be 2bab 353b
00000050: 9cf9 543d 7e78 9ebc eadd 41bd 6d4a b53d
00000060: 4834 6dbe 4bd9 89be 0ee2 6d3e a25a a4bc
00000070: dd31 123d 4e18 9bbe 7325 973e eefe 3fbe
00000080: 8834 1b3d 1974 833d c51a 703d b6b0 7cbd
00000090: cd6c bf3c 23db ac3e 54c7 2f3d 5cc2 153d
000000a0: 421e 62bd 5623 0c3e 07a7 1e3e d4b2 9dbd
000000b0: 7efe 63b9 d060 c2bc 5238 0d3e 25ab 903d
000000c0: eb68 a1bb 4246 7abb d7bd 4b3e d851 3fbe
000000d0: 1741 803b 1930 b53e cba3 c93b 62c6 60bd
000000e0: 86f4 b73c 632c ff3c c18c 3d3b 6bdd 31bd
000000f0: 2aef 9a3d dc72 86be 564e 103e 5e94 a43d
00000100: 1926 093e 0b1d 9dbd ce26 993d 3844 b9bd
00000110: 8286 2fbe 3228 a9bd 9ff8 773e c1a1 2e3e
00000120: 818c 43be c49c fe3c dfdb 853e 59e1 b0bd
00000130: bf7f f1bc f10f 03be 65c9 1abe 0e6d c3bd
00000140: ea1a 6a3e 36c5 15be a30d 2b3e e93e 9abd
00000150: 8386 87bc e828 4cbd 0ca6 fbbd 7e1b 57bd
00000160: bd0d 133e fa7c 8b3e 7234 4fbe e65b 863e
00000170: ab6c 2a3c bc1a 0c3e 67eb 9dbd e58a fd3c
00000180: a09e 75bd ff98 8fbb ad53 32be da83 f0bd
00000190: b032 713e 077b 3bbe a636 d53d a07a 26be
000001a0: 9a10 18be 99db f3bd 95d8 d4bc 4e57 e4bd
000001b0: e323 ea3d b180 a1be 0e7b debc fd49 fd3d
000001c0: 5432 b1bc 91d7 fdbd 7b53 d9bc d370 11be
000001d0: a546 1a3e 3a50 5fbe e4d3 3f3e 94b9 ce3c
000001e0: 6e20 353e dc02 793d d986 34be 50a2 af3c
000001f0: a078 2ebe e49e a13d 748c a0bd cc7e 3ebe
00000200: 4589 e7bc bc46 b03c 71f2 6abe d34b 863c
00000210: c978 91ba 3398 4cbd 8877 203d 38ad 1f3d
00000220: 12ae 8fbe ad09 753e 40f0 793d 15ff be3c
00000230: ed0c 0bbe bf8e eebc ae49 aabd 3758 5c3c
00000240: 7920 203d 4ee3 5ebd 6237 2fbe 0c9d 593d
00000250: 9266 bcbb 29fb 0abd cd30 52be 012e 31be
00000260: 1813 a33b 705a 363e e605 6c3d 5ee1 0cbd
00000270: daf1 113c 25f2 313e 2026 9c3d cd82 d93d
00000280: 4a4f fd3d d7bd eb3c 1f17 223e 496d 373d
00000290: c3f9 023e fe8f 06be e565 66bd 374e 7dbe
000002a0: 7919 593d 96c5 babd 31e3 a83c 1753 96bd
000002b0: 3e93 1dbd 2816 a93c dc8b f63d f7e4 af3d
000002c0: fc56 e63d a1f1 0d3d 122f ad3d 6df5 18bd
000002d0: 524e 96bc 5850 f43d 2c1b 28bd 9bb8 bdbd
000002e0: 7d97 893d d091 253d ccbc fd3d 6a55 063e
000002f0: 9607 443d 021d 6ebe 0c36 bebb b261 61be
00000300: eec4 0fbe 6a98 8fbd 6b8b 203e 3328 4bbd
00000310: 7da2 88bd 7bbf 2d3d de3e 0e3d 1919 c9bd
00000320: 10ac 103e 5e19 c53c fce9 9fbd c003 6cbc
00000330: d70e e93d 781c 78bb e29f 1cbd ba19 babd
00000340: a21d bf3e b916 88bd a761 3bbd db5e e8bc
00000350: 5515 bc3d c065 023e 620c 26bd 87d5 05bd
00000360: 29e3 063e 46e6 d4bd 3b7c 41bd e364 9ebd
00000370: cbad 2d3e 95a3 35bb 645e 25be 595d 263e
00000380: db50 753e 5156 d43d 2ecd 38bb 84cf 563e
00000390: 2878 4bbd 667e 95bb 1aa4 86be 4a43 bd3d
000003a0: de2a 84bd b93c e63c 0d26 c33d 9a0b 5b3e
000003b0: 3a1e 4bbe 9fd8 32bd f7de 9cbc 4228 ef3d
000003c0: 6652 98bd 37d6 be3c 926b 793d cde4 923d
000003d0: d5e1 a2bd 7df8 59bd 61f6 013e 22b9 9ebc
000003e0: d2e4 623d f790 dabc d2d3 56be c634 e83d
000003f0: a919 bbbd cd7d bc3b 3632 bb3b ade5 31bd
0.12478643 0.1627635 0.14077936 0.22776523 -0.015535368 0.20949548 -0.027163167 -0.045307226
0.023842145 -0.1616521 -0.074641325 -0.24123824 0.06539613 0.08176707 0.24596302 0.17830712
-0.100791566 0.12834002 -0.28263462 0.0027720432 0.05199586 -0.019344565 -0.047330774 0.08852086
-0.23164475 -0.26923594 0.23230764 -0.020062748 0.035692085 -0.3029198 0.2952076 -0.18749592
0.037891895 0.06418628 0.05861928 -0.061691962 0.02336731 0.33760938 0.042914703 0.03656231
-0.055204637 0.13685355 0.15493403 -0.077001244 -0.00021743213 -0.023727804 0.13791016 0.07063893
-0.0049258373 -0.003818885 0.19896637 -0.18683565 0.0039140093 0.35388258 0.006153559 -0.054876693
0.022455465 0.031149095 0.0028923007 -0.04342405 0.07565148 -0.26259506 0.14092383 0.08036111
0.1339344 -0.07671555 0.074781045 -0.09046215 -0.17141154 -0.0825962 0.24215935 0.17053892
-0.19096567 0.031080611 0.2614431 -0.08636732 -0.02947986 -0.1279905 -0.15115888 -0.09542285
0.2286183 -0.14626011 0.16704421 -0.075315304 -0.016543632 -0.0498437 -0.1228753 -0.052516453
0.1436071 0.27243787 -0.2023485 0.26241988 0.010401885 0.13682073 -0.07710915 0.03095002
-0.05996573 -0.004382252 -0.17414732 -0.11743899 0.23554492 -0.1830865 0.10410814 -0.16257715
-0.14850083 -0.11907119 -0.02598218 -0.111494645 0.11432626 -0.31543496 -0.027158286 0.12367628
-0.021630444 -0.12394632 -0.026529064 -0.14203195 0.15066011 -0.21807948 0.18733174 0.025234975
0.17688152 0.060793743 -0.17629565 0.021439701 -0.17038202 0.07891634 -0.07839289 -0.18603057
-0.028263697 0.021518104 -0.22944047 0.016393578 -0.0011098619 -0.049949836 0.039176494 0.038983554
-0.28062493 0.23929472 0.061020136 0.023314992 -0.1357915 -0.029120801 -0.083148345 0.013448766
0.03909347 -0.054415993 -0.1711097 0.053128287 -0.005749532 -0.03393093 -0.20526429 -0.17302705
0.0049766414 0.17807937 0.057622813 -0.034394614 0.00890776 0.17377527 0.07624459 0.106206514
0.12368639 0.028777046 0.15829132 0.044781957 0.12790589 -0.13140866 -0.056249518 -0.24736868
0.05300281 -0.09119718 0.020616146 -0.07340067 -0.0384705 0.020640448 0.12038395 0.085885935
0.1124706 0.034654263 0.084562436 -0.03734343 -0.018347893 0.11929387 -0.041041538 -0.09263726
0.06718347 0.04042226 0.12389526 0.1311852 0.047858797 -0.23253253 -0.0058047827 -0.22009924
-0.14039966 -0.070114926 0.15678184 -0.049598884 -0.06671617 0.042418938 0.034727924 -0.0981924
0.14128137 0.024059948 -0.07808301 -0.014405191 0.113797836 -0.0037858766 -0.038238414 -0.09086938
0.37327296 -0.06644959 -0.045747425 -0.028365543 0.09183756 0.12734127 -0.040539153 -0.03267434
0.13172592 -0.10395484 -0.047237616 -0.07734086 0.16960828 -0.002771591 -0.16149288 0.16246547
0.23956625 0.10368026 -0.0028198468 0.20977598 -0.049675137 -0.004562187 -0.26297075 0.0924135
-0.06453489 0.028105127 0.09528742 0.21391144 -0.1983575 -0.043663617 -0.019149287 0.116776004
-0.07437591 0.023295505 0.060893603 0.071725465 -0.0795323 -0.053215493 0.12691642 -0.019375388
0.055394 -0.026680453 -0.2097924 0.11338191 -0.09135754 0.0057523013 0.0057127727 -0.043431927

Encoder.rnn.bias_ih_l0 f4 [192]
00000000: ebfe 193e ae5e 9e3d a34f dcbd e6d4 9a3d
00000010: b701 4e3e c96d 32be 2d15 f4bd 34cd f23d
00000020: 648b 533d 8228 59bd 48c9 ecbb 5b1d 95bc
00000030: 86bf e3bd 02e1 a73d 4348 ed3d 90d8 8fbc
00000040: 7d1b 6e3d f0af 1abd d9f0 e9ba 14eb bebd
00000050: 0c18 d0bd 2cba 183e 89b9 da3d ac02 6d3c
00000060: 6117 063c ec5f 383e 39d3 c4bc 0c08 3d3d
00000070: 20c4 4f3e d4e4 4e3e 9ea1 ad3d d233 46bd
00000080: e7ed ca3c 8c17 0e3e e490 ccbb 935d 51bd
00000090: 0a9e 053e daaa 7b3d 460b de39 e389 0b3e
000000a0: 35d5 023e 1d10 053e 3b49 0e3e 5d59 14be
000000b0: e396 523d 30b8 57bd 08b1 09be 217d f6bc
000000c0: 2b77 b3bc 697f 2cbd d2c0 11be 695d d73d
000000d0: 244b e33d 3175 c4bc 9145 743d 3e83 a1bd
000000e0: d5b8 253e 69a9 b9bc bede 1fbd 70e5 663e
000000f0: f15a d23d 6360 ef3d cba2 05be 9727 c9bd
00000100: e9d4 703e 05b6 013d c858 b6bd fee6 e83b
00000110: 76a2 d33d fc13 003d 95da d63a 51c0 a1be
00000120: 926b bfbd fb6d 7fbd 4caa ca3d 1046 f43d
00000130: cf02 483d afd2 733e cabb 0abe bf9f 84bc
00000140: c42c 5a3e f3ef 8ebc 7a44 b8bd ad24 e0bd
00000150: f7fb 913b ed15 2e3e 3f58 74bd c9c5 943e
00000160: 9570 3c3e e526 e3bd cfc2 d0bc b9dc 2c3d
00000170: 7969 1bbe 77f2 633d 9318 dabc b3d9 68bc
00000180: 29a4 603e bc28 1b3e ebe7 77bd a64b 7e3e
00000190: 5659 e43e 732c 863d c306 433e 4261 06bd
000001a0: 82cc 52be af1b 33bd 59e5 2cbe f45d 08be
000001b0: 165f 0b3e 2113 fd3d cd08 8f3d 1fa0 a33d
000001c0: f64c 063e 93b9 803e c9d2 14be be19 443d
000001d0: 1708 29bd fe59 acbe 9e95 7f3c 62e4 01be
000001e0: ef8a 48bc 6ad4 e6bd 6c5e b4bd e33c 123d
000001f0: b48c 5c3d 0c3a b8bd c8a2 b53c 147f 51bd
00000200: b984 4f3d 56b4 de3c f576 703d bdd7 b6bd
00000210: e6d6 d3bc faf1 97bd 2209 ff3b 9c2a 88bc
00000220: 4333 28bd 62ec 893d ccab 5fbd 6389 533c
00000230: 6a0a b2bd a190 533d abcf 3dbc b040 07be
00000240: 6919 c4bc 896d ebbd f354 f6bd c0c0 80bd
00000250: d0cf 0e3e 8b59 cd3d 6d52 30bd 0e5b 24be
00000260: 098e b3bc 7b99 95ba d2d2 9b3d 6493 da3c
00000270: 9377 b53d 1c4c 74bd 32a1 e3bd 9ae9 703d
00000280: 2fb2 b93d 3aa1 54bc ba6f 82bd 1b6d 343e
00000290: 8f12 dcbd 3e20 84bd e234 87bd b03a 843d
000002a0: 9c29 a9bd 6527 d3bd 27f4 95bc 8ffd 84bd
000002b0: 119a 36be a25a 3f3d 9d37 12bd 6c8f 023d
000002c0: e35b aabd 896e 1c3c b3df 003e 8cea 793d
000002d0: 95f9 fabd bca9 57bd 13bb 5e3d 1d27 cdbd
000002e0: ef97 a2bd 4dae 1a3e c7a3 063e 82c8 c1bd
000002f0: f95d bc3d 2911 e9bd 865f 923d f0c8 343c
0.1503865 0.077329025 -0.10757377 0.075601384 0.20117842 -0.17424692 -0.119181015 0.11855546
0.051646605 -0.053017147 -0.007226143 -0.018202474 -0.111205146 0.08197214 0.115860485 -0.01755932
0.058131684 -0.037765443 -0.0017848267 -0.09322181 -0.101608366 0.14914769 0.10679919 0.014465969
0.008184285 0.18005341 -0.0240265 0.046150252 0.2028966 0.20204479 0.08478092 -0.048389263
0.024771644 0.1387617 -0.0062428582 -0.05111463 0.13048568 0.061442234 0.0004235154 0.13626818
0.12776645 0.12994428 0.13895123 -0.14487214 0.051413428 -0.05266589 -0.13446438 -0.030088963
-0.02190741 -0.042113695 -0.14233711 0.105158634 0.11098316 -0.023981662 0.059636656 -0.078863606
0.16183789 -0.022663789 -0.039030783 0.22548461 0.10271252 0.11688306 -0.13050382 -0.09822004
0.23518719 0.031667728 -0.089036524 0.0071076145 0.10333721 0.03126906 0.0016392047 -0.31592038
-0.09346689 -0.062360745 0.09895763 0.11927426 0.048830803 0.23810838 -0.13548198 -0.016189454
0.21306139 -0.017448401 -0.08997436 -0.10944495 0.0044550854 0.17000552 -0.05965447 0.29057148
0.18402322 -0.11091403 -0.025483517 0.042202685 -0.15176953 0.055651154 -0.026623046 -0.01421206
0.21937622 0.15152258 -0.06052391 0.24833545 0.44599408 0.06551447 0.19045548 -0.032807596
-0.20585826 -0.043727573 -0.16884364 -0.1331709 0.13610491 0.12357164 0.069841005 0.07989525
0.13115296 0.25141582 -0.14533533 0.047876112 -0.04126748 -0.3366241 0.015599636 -0.12684777
-0.012240156 -0.112709835 -0.08807072 0.035702597 0.053845122 -0.089954466 0.022172347 -0.05114658
0.050663684 0.0271856 0.058707196 -0.089278676 -0.025859307 -0.074192 0.007783071 -0.01662188
-0.041064512 0.067345396 -0.054607198 0.0129111735 -0.086933926 0.0516516 -0.011585156 -0.1320827
-0.023937898 -0.114955015 -0.120279215 -0.06286764 0.13946462 0.100268446 -0.043047357 -0.1605036
-0.021918314 -0.0011413539 0.0760857 0.02668161 0.088606976 -0.059642896 -0.1111473 0.05881653
0.09067189 -0.0129778925 -0.063689664 0.17619745 -0.10745727 -0.06451462 -0.066018835 0.06456506
-0.082598895 -0.10310248 -0.018304897 -0.06493675 -0.17832209 0.046717294 -0.03569757 0.03187506
-0.08318307 0.009547838 0.12585334 0.061014697 -0.12254635 -0.052652106 0.054377627 -0.10017226
-0.07939135 0.15105553 0.13148414 -0.09462072 0.09197611 -0.11380226 0.07147126 0.011034235

Encoder.rnn.bias_hh_l0 f4 [192]
00000000: 4442 c53d 99b6 853d 284d 883d e379 fc3d
00000010: 39ab 5d3e 08e1 643d 05f6 f6bd b535 4bbd
00000020: 8b37 84bc 12b1 02bd 9231 8d3c 0fba e6bc
00000030: 0885 023d b8ca a43d 6c6e 1d3d d131 c63d
00000040: 4a13 da3d 680e 1c3e 6818 903d 575f 89bd
00000050: cbfc f53c ad2b 3fbd 61ff b03a efef 223e
00000060: 0b92 4dbc 9d59 12bd 796c 4abd ed34 323e
00000070: 8947 433e 5192 3b3d 878d 06bc d4d7 8a3d
00000080: e4c2 efbc 41fc e93d c680 19be 1679 ca3c
00000090: 5719 153d cf37 4d3d 1dd7 7d3d 7a80 183e
000000a0: 3043 063e 5c1b 1e3e 60b9 ed3d a0a7 d9bd
000000b0: 9b93 233e b8e0 f4bb 948d 3d3c 0761 883c
000000c0: de8b 4d3d fe4a e13d bbe0 aebc 15c8 82bc
000000d0: 196d e83d fed0 f6b8 6379 913d 3796 c8bd
000000e0: 80e2 223e bb15 d6bd 4444 d8bd 24b8 1a3e
000000f0: 955c 033d 3f38 80bd 4e54 a43d d820 a2bd
00000100: 1a54 a93d 27e7 e53d c896 10bd c0f3 a13b
00000110: f285 093e d311 7e3c 4398 dd3d d30d 9cbe
00000120: 5b03 c23c 32eb c93d 72b0 1b3e aafa 313e
00000130: 9ea3 e33c a6ad 693e 73d3 bfbc 1ca5 20bd
00000140: 3198 123e fb0b 9d3d aac5 0bbd c231 c6bd
00000150: 8097 33be c77d e43c 9439 ecbd bcc8 b33e
00000160: 2b8e 6b3d bb6c 5f3d 30cd 9e3d de69 25bd
00000170: 536c 863c 57e1 173e 0fdc 493d 3cbb a4bd
00000180: 6078 1f3e ac5f 043e d4df 1ebe 15bc 8a3e
00000190: 7704 963e 1467 953d dd5f 513e b08f d13d
000001a0: d4e7 52be e887 c83c acd6 1dbe 4b3f 16be
000001b0: 2f50 a83d 3e60 ad3d 730b 633d fb4a cb3d
000001c0: 0adb de3d 5c30 f73d 70de 43be 193e 1abd
000001d0: d26a 04be 8e01 59be b3f1 f53d 25b8 bdbd
000001e0: 4533 31be c54d 353d 19ae 1a3d edc4 d1bc
000001f0: ce1e 023d db0b cc3d b330 58bd 9002 e53c
00000200: accf 483d 87ed 1d3e 767a b3bb d775 66bd
00000210: f185 343d 4a15 89bd c067 e9bc da3b f73d
00000220: 5dcf 033e e395 a3bc 8228 4ebd 95bf 993d
00000230: 2fb6 be3d d63c 24bd fbb8 c33d 0cfa d3bc
00000240: 7b67 94bd 3e69 a43d cafa c1bd f814 863c
00000250: 9f09 fd3d 5b1b 793d ce83 c1bd 06c3 6dbd
00000260: 1878 cbbd 465c 973c 0024 15bd f467 92bd
00000270: ce3c fc3b 73f4 603d 8cb0 cebd 1cb7 95bc
00000280: d7b6 dbbd 04a5 d63d 3944 bcbd 9d20 d23b
00000290: 3b7f 033b 9bb5 dcbd df03 0abe 91af 733d
000002a0: d327 893c da13 763d 6c6f 02be 5e73 5f3d
000002b0: 4d8c 4abe 56af d73d 56fb 973c 0969 1e3d
000002c0: 8c63 0fbd 237f b03d 9588 babc acf4 7f3b
000002d0: d000 4c3d 9a75 5fbc ca78 8c3d cdc6 bd3d
000002e0: 9c2b 123e c1ec c6bc 9036 f73d 159b bbbc
000002f0: 4da4 353d 36fd 0dbe 8db1 0cbc 8271 a23d
0.0963178 0.06528968 0.066553414 0.123279355 0.21647348 0.05587867 -0.12058643 -0.049611766
-0.016139766 -0.03190715 0.017235551 -0.028164892 0.03186515 0.08046478 0.038435385 0.096774705
0.1064821 0.1523987 0.07035905 -0.06707638 0.030027768 -0.04667251 0.0013503843 0.1591184
-0.012547026 -0.035729993 -0.049419854 0.17403002 0.19070257 0.045793835 -0.008212454 0.06779447
-0.029267736 0.11425067 -0.1499053 0.024715941 0.03640112 0.05010205 0.061972726 0.1489276
0.13111567 0.15440124 0.11607623 -0.10627675 0.15974276 -0.0074730776 0.011569399 0.016647829
0.050182216 0.11000632 -0.021347394 -0.015964547 0.11348934 -0.00011769122 0.07103231 -0.09794276
0.15906715 -0.104533635 -0.10559896 0.15109307 0.032070715 -0.06260728 0.08023892 -0.07916421
0.08267994 0.112257294 -0.035300046 0.0049423873 0.13430002 0.015507179 0.10820057 -0.30479297
0.02368324 0.09859313 0.15204027 0.17380777 0.02778798 0.22820148 -0.023416257 -0.03921996
0.14315869 0.07668301 -0.034124054 -0.09677459 -0.17538261 0.027892007 -0.1153442 0.35114086
0.05750863 0.054547053 0.0775398 -0.040384166 0.016409075 0.14832054 0.04928213 -0.080435246
0.15573263 0.12927121 -0.15515071 0.2709662 0.2930028 0.07295051 0.20446725 0.10232484
-0.20596248 0.024478868 -0.15413922 -0.14672582 0.08218419 0.08465622 0.05543084 0.09926411
0.10881622 0.12069771 -0.19127822 -0.037656877 -0.12931374 -0.21192 0.12008991 -0.092636384
-0.17304714 0.04426362 0.03776369 -0.025606597 0.03176766 0.09963199 -0.05278082 0.027955323
0.049026176 0.1542264 -0.005477245 -0.056264725 0.04407305 -0.06693514 -0.028491855 0.12071963
0.12872072 -0.019968932 -0.0503316 0.075072445 0.093120925 -0.04009708 0.095567666 -0.025876068
-0.072463 0.08027886 -0.09471662 0.01636742 0.12355351 0.060817104 -0.09448968 -0.058047317
-0.099350154 0.018476617 -0.036411285 -0.07148734 0.007697678 0.054920625 -0.100922674 -0.01827579
-0.10728233 0.10480693 -0.091927 0.006412579 0.002006485 -0.10776826 -0.13478039 0.059493605
0.016742622 0.060077526 -0.12737817 0.054553382 -0.19780083 0.105314896 0.018552464 0.038674388
-0.035007045 0.086179994 -0.022770206 0.0039055748 0.049805462 -0.013638878 0.06858976 0.09266434
0.14274448 -0.024282815 0.12070954 -0.022901097 0.044346143 -0.13866124 -0.008587253 0.07931806

Encoder.rnn.weight_ih_l1 f4 [192, 64]
00000000: 874b 353d f3d5 6bbc dfc3 d63d 74ea a6bd
00000010: 8b3b a4bd ed71 b6bd 9e7e e93d 4c21 243e
00000020: ef49 043e a9d9 bd3d eaed ba3a dd52 453d
00000030: 0264 1a3c 8c34 cabd c19c e13d cceb 44bd
00000040: e0ff a73c 8dd6 02be 3bf8 cbbd faf4 97bd
00000050: a4da 04be 347a f1bd 5ef7 c33c cdc9 673c
00000060: 7ee5 713d 75c0 ac3d 5b8d 663e ad86 b0bd
00000070: 8902 583d b2ce 3bbd 1c2a a4bd 39b9 ec3d
00000080: 1726 a7bc b464 0abe 0986 87be 18ce e63d
00000090: e245 033c d9dd 07bb aa6d 91bd 1a27 89bd
000000a0: 2f5c bbbd 8da0 fa3c 9a69 133e 02d1 b23e
000000b0: 9141 2b3d 5dfd 453d 3372 16bd 9975 2ebd
000000c0: 8f2c ff3d 9921 38bd 9911 bbbd aae6 2a3e
000000d0: 9e5d 17be 5d00 c7bd 9015 093d 8c68 e43d
000000e0: a6ed 433e d6d4 0bbb 0a16 22be 0ea3 71bd
000000f0: db94 75bd b5c3 433c ee0a 973d 3e1b 0dbe
00000100: 6dcc 9dbd 895f 9a3c 962e ebbd 854c 403d
00000110: ea94 853e eaf1 733d ed5b e6bc 569b 78ba
00000120: 6507 89bb 1dc9 98bd 3fad 2b3d ddf6 7bbd
00000130: 4d90 10bd 2c02 fa3c 1818 173d f950 2bbe
00000140: fce6 89be b41b 743e 39e6 00be eee7 fa3d
00000150: 36a7 f93d a33d df3c 1089 86bd 507c 91bd
00000160: 6541 203e 5f5e b1bd 3db0 3c3d 6696 bebd
00000170: 2d14 763e a711 cebd c2c6 a13d 7187 f1bd
00000180: 6d0e 1c3e fd20 613e 9ba0 0d3d f846 9f3d
00000190: ad9f 68be 3789 48bb e5a5 15be 6abc 18be
000001a0: af59 cc3d 8584 ddbd 5507 bbbd 9a2a adbc
000001b0: f799 3f3d f9b3 de3d 05c3 f7bd ea10 d3bc
000001c0: b0b0 253d 0d7f e0bc 99a2 babd 8ba9 45bd
000001d0: d040 73bd e4d2 843d e884 dabd 5cda 1b3d
000001e0: 17e1 76bc b772 97bb 807e 6d3d 6d38 023e
000001f0: 16c0 c33d eeb0 87bd 0d24 813d 853d 8b3c
00000200: d16f 943d a411 80bd 186d 233d e4f6 0cbd
00000210: 9784 9cbe 2fed 1b3d cc7a bbbd 5164 c53d
00000220: f75f 1abe c7a4 b03d 7eb9 8f3d 16df 92bd
00000230: 9f89 0a3d 26a6 9abc 24cb 953d 008d a63d
00000240: 720e 2b3e 0fbb 473e b582 cfb9 cb72 87bd
00000250: a793 fb3c 6773 e3bd 67d2 913d 032e 913d
00000260: 6aba 2bbe c300 57bd 0405 ec3c 72f8 2b3c
00000270: 9a47 6fbd 0e29 8dbd 9417 453e 1675 a23d
00000280: 5278 f8bd 10fb 7b3d f95f 473e ba8a 6cbd
00000290: f48c 003e 8df5 2abe 59af 613d a270 80bd
000002a0: 177e c6bb a042 de3d 85b9 b73d 7357 8cbd
000002b0: ef64 cd3d f433 60be 9c16 9d3e 7749 5e3e
000002c0: 424a 09be 9b02 70be 5c1f 9c3b 070c 41be
000002d0: 9e21 5d3d ad59 44bc 10bf 013e dbfa 85bd
000002e0: 00ec 36be e27f 4fbc 9ab7 acbd f421 283c
000002f0: 6c04 773d 1c65 2fbd 8ae8 54bd 2765 18be
00000300: 8d02 b9bc d4e5 6d3d 0d99 15be 3ba2 833d
00000310: 43e0 e1bd f77b 373b 0510 e53d bb69 d93d
00000320: 1c50 62bd a019 72bd cde6 2bbd b4e4 063e
00000330: 94a2 64be 518b d83c 6c03 0dba fc4d fd3d
00000340: f652 503e bb39 8dbc 9e44 8d3b c614 313e
00000350: 0556 3bbb c270 f63d 40c6 5fbd c11d 843d
00000360: d20d 1d3e 23e0 9dbd 364c 4dbe e7e1 5cbd
00000370: 0978 043d 38e6 083e 6ae6 d23d 26ea f0bd
00000380: e778 1abe db87 32be ffd3 a43c 35f2 9cbc
00000390: b352 8d3b 604b 853b 923b e53d b2d9 3a3e
000003a0: bc32 a4bb 26b6 ffbd 27f6 86bb 4c43 28be
000003b0: 6ff0 8d3d 3847 80bd 6012 b3bc 610a f2bc
000003c0: 08cd 793e 1e44 7ebe 1858 d33b 3ae1 b7bd
000003d0: 7591 2c3d fb2a 643d 64f7 abbc a69f 453d
000003e0: 4021 183d 205a ab3d af5a f43d 021a 0e3e
000003f0: 1c0b d43d 2113 7abd 7c34 223e 4348 d5bd
0.04426148 -0.014394271 0.10486578 -0.08150187 -0.080191694 -0.08908448 0.114011034 0.16028327
0.12918828 0.09270031 0.0014261578 0.048174728 0.009423258 -0.09873304 0.110162266 -0.048076436
0.020507753 -0.12777157 -0.099594556 -0.074197724 -0.1297403 -0.117908865 0.023921665 0.014147234
0.05905675 0.08435146 0.2251486 -0.08619437 0.052736793 -0.045851417 -0.08015844 0.11558766
-0.020403905 -0.13514978 -0.26469448 0.11269778 0.008012267 -0.0020731597 -0.07100995 -0.06696911
-0.09148442 0.030594135 0.14395753 0.34925085 0.041810576 0.04833733 -0.036730003 -0.04259262
0.12459671 -0.044953916 -0.09134216 0.16689554 -0.14781806 -0.09716866 0.03346783 0.11152753
0.19133624 -0.0021336577 -0.1582872 -0.05899339 -0.059956413 0.011948516 0.073751315 -0.13779923
-0.07705007 0.018844383 -0.11483495 0.046947975 0.26090175 0.05955688 -0.028120006 -0.0009483596
-0.0041817897 -0.07460234 0.041913267 -0.061514724 -0.035293866 0.030518614 0.036888212 -0.16730107
-0.2693404 0.23838693 -0.12587823 0.12251268 0.12190096 0.02725107 -0.06569111 -0.07103789
0.15649946 -0.08660578 0.04606651 -0.0930603 0.24031134 -0.10061961 0.07899238 -0.117934115
0.15239878 0.2198524 0.034576993 0.07777208 -0.22717161 -0.0030599365 -0.14614065 -0.14915624
0.09978043 -0.10816292 -0.09132258 -0.021138478 0.04677769 0.10874171 -0.12097744 -0.025764901
0.040451705 -0.027404333 -0.09113044 -0.048257392 -0.059387982 0.06485537 -0.10669881 0.03805004
-0.015068314 -0.0046218294 0.057981968 0.12716837 0.09558122 -0.066255435 0.06305704 0.016997108
0.0724789 -0.06253365 0.03989896 -0.03441514 -0.30569908 0.038067993 -0.09154281 0.096382745
-0.1507567 0.08625179 0.07017802 -0.071714565 0.033822652 -0.018878054 0.073141366 0.08132362
0.16704729 0.19504951 -0.000395795 -0.06613692 0.030710055 -0.111059956 0.07120209 0.07088854
-0.1677033 -0.05249096 0.028810985 0.010496246 -0.058417894 -0.06892596 0.19247276 0.079324886
-0.12132324 0.06151873 0.19470204 -0.057749487 0.1255377 -0.16695233 0.055098865 -0.06271483
-0.0060575115 0.108525515 0.08970932 -0.06852617 0.10029017 -0.21894819 0.30681312 0.21707712
-0.13407233 -0.23438494 0.0047644805 -0.18852244 0.053987138 -0.011984271 0.12670541 -0.065419875
-0.17863464 -0.012664767 -0.08433457 0.010262001 0.06030695 -0.042821035 -0.05197958 -0.14882337
-0.022584224 0.05808051 -0.14609165 0.064274274 -0.11029103 0.0027997473 0.11184696 0.106158696
-0.05525218 -0.05910647 -0.041968156 0.13173181 -0.22327644 0.026433619 -0.0005379233 0.1236839
0.20344147 -0.017239442 0.0043111583 0.1729308 -0.0028585207 0.120332256 -0.054632425 0.064509876
0.15337303 -0.07708766 -0.20048603 -0.053926375 0.032341037 0.13369071 0.10297854 -0.1176341
-0.15085183 -0.17434637 0.020120619 -0.019158462 0.004312837 0.0040678233 0.11193003 0.18247107
-0.005010931 -0.12485914 -0.004118699 -0.16431922 0.06930625 -0.06263584 -0.021859348 -0.029545965
0.2439462 -0.24830672 0.0064497106 -0.089785054 0.042130906 0.055705052 -0.020991988 0.048247956
0.037141085 0.08366799 0.11931359 0.13877109 0.103536814 -0.0610534 0.15840334 -0.104141735

Encoder.rnn.weight_hh_l1 f4 [192, 64]
00000000: 9e00 25be 881f ba3c c2e3 1bbe c13e df3b
00000010: e01c 54bd 32a8 2abc fa87 573e 9eae 233e
00000020: 1c77 e23d ec43 003e dd69 81bd 8b92 1dbc
00000030: 717f 17be d163 dbbb d52b 0d3e d839 993d
00000040: 4d47 7dbd 2c7c efbd 9fa6 f6bd 2c79 533e
00000050: d2dc 873d 282b b93c 32b4 ee3d 2cf1 e1bd
00000060: 2576 4c3d 0103 22be f8f3 88bd 9009 6fbe
00000070: ddf2 b8bd 1ef2 d4bd 4a86 bf3b 3f9c 8dbc
00000080: 52e9 34bd c669 8cbe 948e 7fbd 926a 593c
00000090: fd62 ffbb 630c 093e 7986 903d c2f9 e4bd
000000a0: 3fea 3fbd bdca bd3d c4dd 093e 7475 97bd
000000b0: 2bfb e2bc ed51 a53d 3bc0 013d efda dfbd
000000c0: a599 c1bd 367d 093d ebaa f43d fba6 d1bd
000000d0: 0817 06be dd82 423d ee10 ce3c 7194 28be
000000e0: 8199 32be 62cb 483e 371b 1ebe 603b 763d
000000f0: 1a9c a5bd 7c5c 453d de72 353c ea8c 9fbd
00000100: b844 b93a c912 04be 6ece 2b3d 2a28 893b
00000110: fe67 da3b 0260 01be df7a 1c3e bbb9 e93d
00000120: c028 263d 45ad a43d 5ba8 463e b9fe f1bd
00000130: a2ec 403d 4fa0 813d 856e 97bd 483e 1a3e
00000140: 130a 2dbe a18f 75bd 2b0e 37be f88c c83d
00000150: e618 5fbd 2548 24be fcad 5a3c e224 fbbd
00000160: 0cb3 25bd 3511 2b3d 92d3 cfbd c6e8 2bbe
00000170: b28a 563d 770f 123d e487 bbbc ae4e 263c
00000180: 7f26 223d ac7c 4a3d 88cb 32be fc5a 363c
00000190: 2741 4abc 5cae d33d 071e 28be 4611 00bd
000001a0: df9d e43c 4607 cbbd 304d 81bc 4a36 14be
000001b0: c348 43be 21c6 4dbe ee10 05be 7327 133d
000001c0: 8f63 fd3d f5d0 acbd 81eb 263e 1db8 31bc
000001d0: 4eaf 07bd 5b57 ccba b72e f2bd 22da e83a
000001e0: 2ee7 7f3d a07e 2fbc 625a 34be ec6a 95bb
000001f0: 3b79 a53d dec8 7c3d e9fc c4bd 4cc5 e7bd
00000200: de50 90be 82e1 1fbd ac0b e2bd 7626 2bbe
00000210: 1782 49be 3317 883e 1a57 f5bd de52 66bd
00000220: ad7e bdbd 7d55 debd 727c f5bd 0230 443d
00000230: 6217 963d 92a3 92bd b7ed afbd 2b9a 2ebd
00000240: f794 f13d 94b3 503d 7308 49bd e404 713c
00000250: 350a 643e 94c9 7f3d c752 a83c 3495 95bb
00000260: d89d 0c3e c294 51be ae99 1a3e cc52 8d3c
00000270: 61bf eabd 8a10 f63d 7b77 39be 8f6c b13b
00000280: e160 e93d a5cb 803e f119 99be 0823 1abe
00000290: 864a fbbd 7104 8fbd 8e37 a53e 41b8 aabd
000002a0: 7225 703e 39d3 f23c 8983 9f3d d5d6 ea3d
000002b0: 7bac 853d 948f 803d 4734 083d ab2e bebd
000002c0: db1f f73d 97bb ed3c 45fc a03d 6587 74be
000002d0: b6e3 8cbc 78bd 653e 2c3c 3b3e e08e d9bd
000002e0: d929 973d cd8c cd3d c631 3b3e 46c4 043e
000002f0: 1865 19bd ce57 1abe 39af 633d 4d09 9bbd
00000300: d33d 7ebc 6037 c03d f60d ea3d 75e5 e03d
00000310: 6fa9 eb3c a8a1 4a3c 1042 71be d830 09be
00000320: dfe8 8c3d aba9 b7bd 9b17 e73c 45ae 11be
00000330: c18d 623d 774e 573d 52f0 6dbd 55ec 20be
00000340: 812f b03d 29e0 1abe 95aa f23c dcd2 b6bd
00000350: be66 04be 7e4b 863d 48a0 9ebd 2df2 0d3b
00000360: 88cc d0bd 2339 f7bd dad2 e53c 0934 eb3d
00000370: 6a37 19be fc31 013e 2e98 58bd 25b1 823c
00000380: d02a 483d 9402 cfbc 3290 08bd aee1 c7bd
00000390: 96c4 0cbd aac8 89bd d2bc 583d 10e3 233e
000003a0: e763 3b3d 9455 31be 1a8e b73d c7f6 0d3e
000003b0: 3a39 e63d 64eb 5abe ddb7 463d 3ec2 473d
000003c0: dc64 0bbd 9077 73bc e388 f1bd 8fe4 55bc
000003d0: 8d4b f1bd a8f4 ed3d 1c2d 92bd 4e64 d73c
000003e0: ce0a f0bd 2e77 a0bd 5b41 4d3e d33b f83d
000003f0: b04e d3bb 108c 29bd e028 603e 7045 c43d
-0.16113517 0.022720113 -0.15223601 0.006812901 -0.05178535 -0.010416077 0.21047965 0.1598458
0.110578746 0.1252591 -0.0631902 -0.009617458 -0.14794709 -0.0066952487 0.13786252 0.07481736
-0.061835576 -0.11693606 -0.12043499 0.20651692 0.06633915 0.022603586 0.11655463 -0.11032328
0.04991736 -0.15821458 -0.06687158 -0.23343492 -0.090306975 -0.10397743 0.005844866 -0.017286418
-0.044167824 -0.2742445 -0.062391832 0.013270037 -0.0077937827 0.13383631 0.070568986 -0.1118045
-0.046854254 0.09267185 0.13463503 -0.07395449 -0.027707657 0.08072267 0.031677466 -0.1093043
-0.094531335 0.033566676 0.119466625 -0.10236927 -0.13094723 0.047488082 0.025154557 -0.16462876
-0.1744137 0.19608834 -0.15440069 0.06011522 -0.08086415 0.048183903 0.01107475 -0.07790549
0.001413486 -0.12897791 0.041944914 0.004185696 0.006665229 -0.1263428 0.15281247 0.114123784
0.040566206 0.08040861 0.1940016 -0.118161626 0.04710067 0.063294046 -0.07394127 0.15062821
-0.16898374 -0.05995143 -0.17876498 0.09792513 -0.054467104 -0.16043146 0.013347145 -0.12262894
-0.040453956 0.041764457 -0.10147776 -0.16788015 0.052378364 0.03565928 -0.022891946 0.010150595
0.039587494 0.049435303 -0.17460454 0.011130091 -0.012344635 0.10335991 -0.16417705 -0.031266473
0.02790731 -0.09913497 -0.015783876 -0.14473835 -0.19070725 -0.20095111 -0.1299474 0.035926294
0.12372505 -0.08438293 0.16300775 -0.010847119 -0.033126168 -0.0015589999 -0.118253164 0.0017765204
0.06247633 -0.010711342 -0.17612603 -0.004559865 0.080797635 0.061715 -0.09618551 -0.11316928
-0.28186697 -0.03903342 -0.110373825 -0.1671389 -0.19678532 0.265802 -0.11979504 -0.056231372
-0.09252677 -0.10856149 -0.11986627 0.047897346 0.07328679 -0.07160105 -0.085902624 -0.042627495
0.11795991 0.05095251 -0.049080323 0.014710639 0.22269519 0.0624481 0.020547284 -0.0045649055
0.13732088 -0.20466903 0.15097687 0.017251395 -0.11462284 0.12014873 -0.18111984 0.0054145525
0.11395431 0.25155368 -0.29902604 -0.15052426 -0.122700736 -0.06983269 0.32268947 -0.08335925
0.23451784 0.029641734 0.0778876 0.11466757 0.06527039 0.06277385 0.03325298 -0.09286245
0.12066623 0.029020114 0.078606166 -0.23879774 -0.017198425 0.22435558 0.18284672 -0.10622954
0.07381029 0.10036621 0.18280706 0.12965497 -0.037449926 -0.15072557 0.055587027 -0.07570133
-0.01551767 0.09385562 0.11428444 0.109812655 0.028767316 0.012367643 -0.23560357 -0.13397539
0.06880354 -0.089679085 0.028209498 -0.14226635 0.05531097 0.052565064 -0.058090515 -0.15715154
0.08602811 -0.15124573 0.029622355 -0.08926937 -0.12929818 0.06557368 -0.07745415 0.002165924
-0.10195261 -0.12071445 0.028054643 0.11484534 -0.14962545 0.12616724 -0.052879505 0.01595361
0.048868954 -0.025269784 -0.03334064 -0.09759842 -0.034367166 -0.06727727 0.052914448 0.16004586
0.04574957 -0.17317802 0.089626506 0.1386367 0.11241384 -0.21378857 0.04851519 0.04876923
-0.034031734 -0.014860049 -0.11793687 -0.013054981 -0.11781988 0.1161893 -0.0713751 0.026292946
-0.11720811 -0.07835232 0.20044462 0.121207856 -0.0064485893 -0.04139334 0.21890593 0.09583557

Encoder.rnn.bias_ih_l1 f4 [192]
00000000: 297b 143d fca9 99bc 0852 72be ba89 93bd
00000010: 4c4f 9ebd 399b b8bd 78b8 493d 3278 e53d
00000020: 9340 a33d f4de 3a3d 0fbb ee3d c792 54bd
00000030: a0b9 623c 64b7 483c 6a11 fc3c 2a95 92bd
00000040: c2d3 a9bd 62f4 eabd 398b 323d 3497 6ebd
00000050: 8fc3 19bd ba76 593b 187f 243e e517 9abc
00000060: c271 b5bd 3c13 ecbd 4abe dfbd 35c8 7b3d
00000070: eba7 443d 54b1 6b3d ffdb b33d 9020 d5bd
00000080: 100c 97bc 2a79 b1bc 777b dbbd 8af7 6ebd
00000090: d5de 543d 4416 a5bd 1f77 55bd 37e4 083d
000000a0: c902 d3bd de4b dabd 14b7 34bc 31a5 573c
000000b0: 5851 8bbe f33e 813c b66a d2bc fc27 583d
000000c0: f82f 84bd 3ab0 9b3d 1ec2 0bbd 17d6 163e
000000d0: b2d2 2fbe 9169 0cbd 9485 97bd 0400 89bd
000000e0: d796 86be d36c 973d 1c64 ae3d d32c 66bd
000000f0: 1ea6 f7bc d5b2 19be b7db 0c3e ab9b 8e3d
00000100: aa50 933e eb40 aabe b93e 34b9 84fa 9bbd
00000110: ae4a 4e3e b54b 953e 02b4 553e 9d92 e43e
00000120: e621 9fbd 991f 263e 4ff4 5f3b d108 8cbc
00000130: 7564 92bd c3fb 35be 0fdb 14bd b24d 00be
00000140: 0e09 81be e6a6 1ebd ed93 423e fd99 08be
00000150: 1996 803e 554a 0dbe a7dd 8ebd e99d 31bc
00000160: 9df3 1f3e 4b11 b93e 7061 143e 9d9c b4bd
00000170: cc35 3f3e 0a82 b8bc 181a cc3e fed9 41be
00000180: a075 92bd e04a 923e ffb2 853e a720 0bbe
00000190: 512d 513e 7f2b 5fbd a2c7 cb3e 07c6 683d
000001a0: e798 413e 8853 733d 87d4 be3c b460 9f3e
000001b0: 3461 4bbd 2ea8 ae3d b97e 093e f54f e23c
000001c0: 0ecf ca3d 82db 233b 525b b4bc a1c1 623e
000001d0: db8a 6dbe 1afa c53d 6ce2 88be f1e7 16bc
000001e0: 61d8 403d f6ad d0ba efb1 8abc 3c54 383e
000001f0: 14ed 3fbe 5672 2bbe 6196 0c3e 8b32 953d
00000200: a82a 99bd a7a5 783e 87c5 19be b56e 0abd
00000210: 8bb6 36be bf80 4abd c0d6 d6bd d1d4 0c3e
00000220: 2bf8 fdbd 81ea 503d 4dd0 42bd 7fb1 013e
00000230: 1599 05bd 46ca 503e 52b3 5e3e 2204 d63d
00000240: a1c5 82bd 96b9 fbbd 35ee d8bd e8c5 c53a
00000250: 952a b43d b3cb 693e 6213 eabd 8007 20bd
00000260: 55ae 4e3d 0d6b e9bb f67d 893d 30ce 50bd
00000270: d68f 50bd c6da 743d 4cf3 e93d 6914 473e
00000280: 2b96 01be 121a 833d 0951 f03a f981 083e
00000290: 7057 f93d 5025 3cbd ded9 43bd f38a 26be
000002a0: b340 763d 7843 d9bd 7b26 c5bd 58c2 9d3c
000002b0: 0986 e1bd e84e 013e f096 df3d 5a5c 0e3d
000002c0: 2507 513e 8c3b f9bd 395c fc3d ba40 6c3b
000002d0: dc81 6dbe 92e3 013e 5be0 36be 7eb6 87bd
000002e0: dac8 89bd 4539 4f3e e568 163e b9d3 54bc
000002f0: c217 5ebd 459c f93d 719a 41bd 383a c8bd
0.036250267 -0.018757813 -0.23664105 -0.07204004 -0.077299684 -0.09013981 0.04924819 0.11204566
0.07971301 0.04562278 0.11656772 -0.05189779 0.013838202 0.012250755 0.030770022 -0.07157357
-0.08292343 -0.114723936 0.043589804 -0.058249667 -0.037540015 0.0033182339 0.16064107 -0.018810222
-0.08859588 -0.11527106 -0.10924967 0.06147023 0.0480117 0.05754216 0.08782195 -0.104066014
-0.018438369 -0.02166422 -0.107169084 -0.05834154 0.05197032 -0.080608875 -0.052115556 0.033420768
-0.103032656 -0.10659002 -0.011029977 0.013161943 -0.27210498 0.015777087 -0.02568565 0.052772507
-0.06454462 0.07601972 -0.03412067 0.14730106 -0.17170218 -0.034280363 -0.07398525 -0.06689456
-0.26286957 0.073938034 0.08515188 -0.05619509 -0.030230578 -0.15009625 0.1375569 0.06963285
0.2877248 -0.33252653 -0.00017189504 -0.076161414 0.20145676 0.29159322 0.20869449 0.44643107
-0.077701375 0.16222991 0.003417272 -0.017094048 -0.07148067 -0.1777182 -0.036341723 -0.12529638
-0.2520222 -0.038733386 0.19001742 -0.13339992 0.25114515 -0.13797887 -0.069758706 -0.010840871
0.15620275 0.36146006 0.14490294 -0.08818934 0.18672866 -0.022522945 0.39863658 -0.18930814
-0.071513414 0.2857275 0.26113126 -0.13586675 0.20427443 -0.05448484 0.39800745 0.05682948
0.18905984 0.059405833 0.0232947 0.31128466 -0.049653247 0.085281715 0.13427247 0.027626017
0.09902774 0.0025002663 -0.022016201 0.22144176 -0.231975 0.09666844 -0.26735246 -0.009210573
0.047081355 -0.0015920985 -0.016930548 0.18000883 -0.18742782 -0.16742834 0.1372924 0.07285031
-0.07478839 0.24281941 -0.15016757 -0.033796985 -0.17843072 -0.049439188 -0.10490179 0.13753058
-0.1240085 0.05100489 -0.047561932 0.12665366 -0.032616694 0.20389661 0.21748093 0.10450007
-0.06385351 -0.12291257 -0.105923094 0.0015088888 0.087971844 0.22831611 -0.11429478 -0.039069653
0.050459225 -0.007123357 0.06713478 -0.050977886 -0.050918423 0.05977895 0.11423358 0.1944138
-0.12654941 0.06401457 0.0018334697 0.1333083 0.121748805 -0.04593402 -0.047815196 -0.16263942
0.060120296 -0.10608572 -0.0962648 0.01925771 -0.11011893 0.12627757 0.10917461 0.034756042
0.20412882 -0.12169561 0.123222776 0.0036049322 -0.23194069 0.12684467 -0.17859022 -0.066266045
-0.067277625 0.2023669 0.14688452 -0.012989932 -0.054221876 0.12188009 -0.047266427 -0.09776729

Encoder.rnn.bias_hh_l1 f4 [192]
00000000: b56f db3c 96cb 90bc 052d 3bbe 63ba 433d
00000010: e310 4bbe 3826 6ebd 6c82 333d 1e2c 493d
00000020: 5203 05be 155c 03bd ea60 913d b875 80be
00000030: 1d55 eebb ce1c 24bc 9b0c 883c 27f1 5dbb
00000040: 5de6 37be 38f8 f5bd eede 10be 9947 61be
00000050: 86ed 25bd 717a c3bd 9cf0 c73d 59a4 2ebd
00000060: 823b d6bc 8156 41bd 211c 003e a4e1 ca3d
00000070: 3434 adbd 00b2 03be 1d0b a3bd e3e2 6b3c
00000080: 36b9 eebd cde8 1abe 5c25 5dbc 4474 d0bd
00000090: 28f6 e4bc 5d65 9cbd 96c6 64bd 7bac 27bd
000000a0: a62a e2bd c63d 9b3c 7f49 1dbe 662f b03d
000000b0: 2d37 87be e8bd b6bd dc49 f7bc 771a 9bbc
000000c0: cac1 28be c074 b7bb a76e 2bbe 3ad9 f2bb
000000d0: 7c82 d7bc 8501 343d 8813 10be ea50 2bbe
000000e0: b13e a1bd 40aa 12be c34b 2f3e 6db5 22be
000000f0: fde1 51be 4eaa 63be d909 903d 7b5a 9cbd
00000100: e276 8c3e aeb8 32be 9da8 d4bb 61b6 04be
00000110: 1685 093e 70ca c43e 3055 893d 23e6 ff3e
00000120: 7286 233d 2ea3 cd3d c6c3 853d 382f 31be
00000130: 82ed 423d b7ee 0cbe 8d1d e7bc 1ab4 cc3b
00000140: 4839 0ebe f764 edbd 8c3b 233e d71f f8bd
00000150: 8027 423d 0c45 23be 15c0 b1bd 8b97 ad3d
00000160: 135d a93d db7f 6b3e cc21 363e 49e3 143d
00000170: 8bb8 633e 01c9 843c 79f4 bb3e d95f 01be
00000180: a030 3c3a 9b3b 803e 8cec 9f3d d1b6 05be
00000190: a7d6 123e fcb6 babd fdf5 ff3e 4041 17bd
000001a0: a9c2 483e b711 0e3d 2579 3b3e ade2 083e
000001b0: 46bf 82bc 5dab b33d 5359 42bd f32d 283e
000001c0: 27b4 97bd 23a6 0cbe abe1 2a3d d52d 1f3e
000001d0: 8b0a 3abe 3127 d03d 8e23 4abe 147e 573e
000001e0: 4cd1 c03d 121d 26bd 70f2 143e c6e5 303d
000001f0: c5bb 1cbe 2fd1 39be 7a1e 323e c789 40bd
00000200: 749e 53bd a05c c43d 25a3 39bd 3039 063e
00000210: e112 b2bc e491 85bd 022b 1cbe d60f 353e
00000220: 14ec 6e3d f856 123e d77f c83d 6f36 123d
00000230: 386e 7c3d b4f9 3d3e b44f 093e 3a87 553e
00000240: 7f9f f0bd 1195 27be 6c4c ddbd 816e 9f3d
00000250: b65f 6b3d 9ea8 833c 2c85 583d 39ab 233d
00000260: c8f1 4a3d 5af2 703d 242e a13d 44ac 1abe
00000270: 0245 73bd 8ae7 b33d 7bab 1f3c d85e 133e
00000280: 988c b03c 7029 bbbc 56ad a2bd 7486 ab3d
00000290: de0a bebd 7e46 38be 1da1 bdbd 4fb5 8d3d
000002a0: d1ad 263e 32c7 53bc 02d0 e23d 0841 463c
000002b0: ec73 5dbc ac69 c93d 5869 443b 9376 e53d
000002c0: 851d a63d 3b31 34be 131d 033e 8f78 543d
000002d0: 7b88 27be f7bb e93d c7bd 2bbd 6d3b b53b
000002e0: 3fac 063d 28b5 d4bc be55 55bd 3cc5 9bbc
000002f0: 4f68 38be c532 e13d 2132 aebd 2f16 1cbe
0.026786665 -0.017675202 -0.18278892 0.047785174 -0.1983066 -0.058141917 0.043825552 0.04911434
-0.12989548 -0.03207024 0.07098563 -0.25089812 -0.00727333 -0.010016633 0.016607573 -0.0033865662
-0.1795897 -0.120102346 -0.14147541 -0.21999969 -0.040509723 -0.09544838 0.097626895 -0.042637203
-0.026151422 -0.047201637 0.1251073 0.09906319 -0.084572226 -0.1286087 -0.07961104 0.014397356
-0.1165642 -0.15127869 -0.013497677 -0.10178426 -0.027949408 -0.07636521 -0.05585345 -0.040935975
-0.11043291 0.018950354 -0.15360068 0.086027905 -0.26409283 -0.089229405 -0.030186586 -0.018933518
-0.16480175 -0.0055986345 -0.1674143 -0.0074111493 -0.026307337 0.04394676 -0.1406995 -0.16730085
-0.078732856 -0.14322758 0.17118745 -0.15889521 -0.20496364 -0.22232935 0.07033128 -0.07634445
0.2743445 -0.17453262 -0.006489827 -0.12960197 0.13429675 0.38435698 0.06705701 0.49980268
0.03992314 0.1004089 0.065314814 -0.17303169 0.047589786 -0.13762937 -0.028212333 0.0062470557
-0.13889039 -0.11591523 0.15940684 -0.12115448 0.04740095 -0.15944308 -0.08679215 0.0847617
0.082697056 0.22997992 0.1778633 0.03634957 0.22238366 0.016209127 0.36709955 -0.12634219
0.00071788765 0.25045475 0.078087896 -0.1305802 0.14339696 -0.09116933 0.49992362 -0.03692746
0.19605507 0.034684863 0.18307932 0.1336772 -0.015960347 0.08772919 -0.047448467 0.16423778
-0.07407408 -0.13735251 0.04171912 0.15544827 -0.18168084 0.10163725 -0.19740126 0.21044189
0.0941492 -0.040555067 0.14545608 0.04318788 -0.15306003 -0.18146203 0.17394438 -0.047006395
-0.051664785 0.09587979 -0.045321602 0.13107753 -0.021737518 -0.06521967 -0.15250781 0.17681822
0.05833061 0.14290988 0.097900085 0.035696443 0.06162855 0.18552285 0.1340931 0.20852366
-0.117491715 -0.16365458 -0.10805592 0.07784749 0.057464324 0.016071614 0.052861378 0.039958213
0.049546987 0.058824874 0.07870129 -0.15104777 -0.059391983 0.08784397 0.009745474 0.14391649
0.021551415 -0.022846907 -0.079432175 0.08375254 -0.092794165 -0.1799564 -0.092592455 0.069193475
0.16277243 -0.01292591 0.110748306 0.012100466 -0.013516407 0.098346084 0.0029970016 0.11204257
0.08111099 -0.17596905 0.1280406 0.051872786 -0.16360657 0.114128046 -0.041929033 0.0055307657
0.03287911 -0.025965288 -0.052083723 -0.019014947 -0.1800854 0.10996012 -0.08505655 -0.15242837
