EXPERIMENT_1/model_OpenChem_CLASSIFIER_ENSEMBLE_7.pth (torch, 439933 bytes, 21 tensors)

Embedding.embedding.weight f4 [56, 64]
0	0xbf986395	-1.190539
1	0xbf93be57	-1.1542462
2	0xbde87215	-0.113498844
3	0xbee4f5fd	-0.44718924
4	0x3f5fe03b	0.87451524
5	0x3f2e0802	0.6798097
6	0xbd8d7b30	-0.06908262
7	0xc010b3b9	-2.2609694
8	0x3e912594	0.28348982
9	0xbf721578	-0.9456401
10	0x3ea508d9	0.32233313
11	0x3f017536	0.50569475
12	0xbd2ca0d1	-0.042145554
13	0x3fc99dd8	1.5751295
14	0x3f9ac277	1.2090596
15	0xbe38cc5d	-0.18046708
16	0xbfcdce1e	-1.6078527
17	0xbfe25459	-1.7681991
18	0x3f1cbe56	0.6122793
19	0x3f5ca36e	0.86186874
20	0x3f0e4fc3	0.55590457
21	0xbfbd03ab	-1.4766744
22	0xbd82fb8b	-0.06395634
23	0x3ff2cced	1.8968788
24	0x3f501506	0.8128208
25	0xbf13977d	-0.5765303
26	0x3d1f3b6b	0.038875025
27	0x3e0913e9	0.13386501
28	0x3fb67793	1.4255241
29	0x3fcffefd	1.6249691
30	0x3f84a3e1	1.0362512
31	0xbf7cc9df	-0.9874553
32	0xbef55ed9	-0.47923926
33	0xbd455653	-0.04817803
34	0xbf4163a7	-0.7554268
35	0x3ea48f71	0.32140687
36	0x3f162d8b	0.58663243
37	0xbda0a6c8	-0.07844311
38	0x3f32b883	0.6981279
39	0x3ec77f76	0.38964432
40	0x3b822f6f	0.0039729397
41	0x3f74d297	0.95633835
42	0xbe395017	-0.18096958
43	0x3e477745	0.19479091
44	0x3f50eb3e	0.8160895
45	0x400de25b	2.2169406
46	0xbfc23992	-1.5173819
47	0xbfb864d4	-1.440577
48	0xbf33613f	-0.7007026
49	0x3f81617d	1.0107876
50	0x3f5ecc9e	0.8703097
51	0x3e5a5fbd	0.21325584
52	0xbdf6e8a8	-0.120560944
53	0xbef06e7a	-0.46959287
54	0x3f065454	0.52472425
55	0xbed1bb23	-0.40963086
56	0xbf469d77	-0.7758402
57	0x3f1d3903	0.6141512
58	0x3f884763	1.0646785
59	0x405f9116	3.4932303
60	0xbfd25c93	-1.6434501
61	0xbf9dd22f	-1.2329768
62	0x400452fc	2.067565
63	0xbf2156ee	-0.6302327
64	0xbf11ddc2	-0.56979
65	0x3f721bef	0.94573873
66	0x3f93e5a3	1.1554455
67	0x3f9d7845	1.2302328
68	0xbfb854bb	-1.4400858
69	0x402484d9	2.5706084
70	0xbefb1822	-0.4904185
71	0x3e905c8b	0.28195605
72	0xbfc77507	-1.5582589
73	0xbee7a234	-0.4524094
74	0xbf08fe6e	-0.5351323
75	0xbef20d88	-0.4727595
76	0xbf82417a	-1.0176232
77	0x3f88dc93	1.0692314
78	0xbe5988b7	-0.21243559
79	0x3f55dd09	0.835404
80	0xbd107f49	-0.03527764
81	0x3f2cec8d	0.6754845
82	0xbf35de0a	-0.7104193
83	0x3d354cac	0.044262573
84	0x3f54ca93	0.83121604
85	0xbec5fbf6	-0.38668793
86	0x3f84e4b2	1.0382292
87	0x3eac9147	0.33704588
88	0xbe6700df	-0.22558926
89	0x4016c008	2.3554707
90	0xbfe9ffd2	-1.8281195
91	0x3d46cb1f	0.048533555
92	0xbf8019f8	-1.0007925
93	0xbf6dd0d9	-0.928968
94	0xbbb073d8	-0.0053849034
95	0x3f265189	0.6496816
96	0x3fd1c71b	1.6388887
97	0xbfad84ec	-1.355619
98	0x3eb412d6	0.3517062
99	0x3f13c625	0.5772422
100	0xc02548b8	-2.5825634
101	0xbfdc87fd	-1.7229
102	0xbe4d2059	-0.20031871
103	0x3e58b791	0.21163775
104	0x3e3e078d	0.18557568
105	0x3cd6f158	0.026238129
106	0x3eba1556	0.36344403
107	0x3ee530f7	0.4476392
108	0x3ebdb372	0.37050968
109	0xbf58911e	-0.8459643
110	0x3f5f79d0	0.87295246
111	0xbf6df383	-0.92949694
112	0xbe62e49a	-0.22157517
113	0xc0233118	-2.5498714
114	0xbda7fa00	-0.082019806
115	0xba3ec9c7	-0.0007277992
116	0x3f6ca2d2	0.92435944
117	0x3e9e5d4a	0.3093055
118	0xbf6c06c7	-0.9219784
119	0xbd8ac60e	-0.06776057
120	0xbf3168db	-0.6930062
121	0xbf0206b5	-0.50791484
122	0x3fea2b43	1.8294452
123	0xbecf4cd2	-0.40488297
124	0x3e3bc00b	0.18334977
125	0x3f919d7e	1.1376188
126	0x3f735b16	0.9506086
127	0x3fb9c3db	1.4512895
128	0xbf5e2afe	-0.8678435
129	0xbe9cb4d9	-0.30606726
130	0xbf5e165a	-0.86752856
131	0x3f0ba9cd	0.5455597
132	0x3f387e02	0.7206727
133	0x3eed7d1c	0.46384513
134	0x3ff61a63	1.9226803
135	0xbf8500da	-1.0390885
136	0xbe5cdf57	-0.21569572
137	0x3e3fb5eb	0.1872174
138	0xbf0d3310	-0.5515604
139	0xbf9685a1	-1.175953
140	0xbb9e4713	-0.00483025
141	0xbf5a70d6	-0.85328424
142	0xbe35ffe6	-0.17773399
143	0x3dec1248	0.11526924
144	0xbe9fe01e	-0.31225675
145	0x3cfd1640	0.030894399
146	0x3e847cd4	0.25876486
147	0x3f9bf573	1.218428
148	0x3e8bac2f	0.27279803
149	0x3ebd4623	0.36967573
150	0xbdd817c8	-0.10551411
151	0xbdf9c154	-0.121950775
152	0x3e3d6ac7	0.18497764
153	0xbf4f2196	-0.80910623
154	0xbfe8bd7b	-1.8182825
155	0x3e1ec15d	0.1550345
156	0xbf1b9513	-0.60774344
157	0x3e9ba0c6	0.30396098
158	0x3d7033ab	0.058643024
159	0x3ed617ba	0.41814977
160	0x3f5b5d1c	0.8568895
161	0xbf7e0541	-0.99226767
162	0x3e8cce45	0.2750112
163	0xbe0fe4b9	-0.14052095
164	0x3f91a034	1.1377015
165	0xbee1e85b	-0.44122586
166	0x3f2e54be	0.68098056
167	0x3f2894f1	0.65852267
168	0x3eb976c2	0.36223418
169	0x3e12d3c4	0.14338595
170	0xbd2263b9	-0.039645884
171	0x3f0c29d3	0.5475132
172	0xbe893c63	-0.26803884
173	0xbf7ef6d6	-0.9959539
174	0x3e7bb885	0.24582107
175	0xbfbbf36c	-1.4683661
176	0xbdb76e90	-0.08956635
177	0xbee9fb4e	-0.45699543
178	0xbfd324f7	-1.6495656
179	0xbed3928d	-0.41322747
180	0x3f8c87d8	1.0978956
181	0x3dc8b055	0.09799258
182	0x3fd8e72f	1.6945552
183	0x3f76ea54	0.96451306
184	0xbf7702b2	-0.9648849
185	0xbf464211	-0.7744456
186	0x3fbfd8e8	1.498807
187	0x3e712f40	0.2355318
188	0x3f2c40f0	0.67286587
189	0xbf767530	-0.96272564
190	0xbf8eaace	-1.1145875
191	0xbf9bc48a	-1.2169354
192	0xbf0f43eb	-0.5596301
193	0x3f08919c	0.5334718
194	0x3ed05371	0.4068866
195	0x3eca073f	0.39458653
196	0x3e2fa092	0.17151096
197	0x3f604478	0.87604475
198	0xbe92fd1f	-0.2870874
199	0x3f82c51a	1.0216401
200	0xbd985c5d	-0.07439492
201	0xbf8bcdfc	-1.0922236
202	0x3ec8b7b0	0.39202642
203	0x3f1832dd	0.5945261
204	0x3f298acb	0.66227406
205	0xbf9a681e	-1.2063024
206	0x3f1b812b	0.6074397
207	0xbf0c1278	-0.5471568
208	0x3f95e63e	1.1710889
209	0x3dc7ac0e	0.09749614
210	0x3f769fb7	0.96337456
211	0x3f571f6c	0.8403232
212	0xbfa077c2	-1.2536547
213	0x3f7ca14a	0.9868361
214	0xbefd436d	-0.49465504
215	0xbfa43ac1	-1.283043
216	0x3f74896b	0.95522183
217	0x3fa44c46	1.2835777
218	0xbf2a75e0	-0.6658611
219	0x3f10ac9a	0.5651337
220	0x3e934ddc	0.2877034
221	0xbd08b3ff	-0.033374783
222	0xbf87ebf6	-1.0618885
223	0xbdea5845	-0.11442617
224	0xbeafc9b6	-0.3433358
225	0x3fc91f35	1.5712649
226	0x3e4436b1	0.19161488
227	0x3ec287bd	0.37994185
228	0xbe143b30	-0.14475703
229	0x3f233aec	0.6376178
230	0xbe900546	-0.28129023
231	0xbfaa3959	-1.3298751
232	0xbe116b47	-0.1420108
233	0xbf08bdc7	-0.5341458
234	0xbf05fc2b	-0.523379
235	0x3f5c8b8b	0.86150426
236	0xbf631005	-0.8869632
237	0x3f56b9f0	0.8387747
238	0x3f939211	1.1528951
239	0xbfe16baa	-1.7610981
240	0xbfbd26ad	-1.4777428
241	0xbfe0b9d5	-1.7556711
242	0x3d9bfcf8	0.07616609
243	0xbf8a0fad	-1.0786034
244	0x3fb85d22	1.4403422
245	0xbde27f35	-0.11059419
246	0x3f13ad1d	0.57686025
247	0xbe2d3bf9	-0.16917409
248	0xbd831f79	-0.06402487
249	0x3f84eb21	1.0384256
250	0x3f682596	0.9068235
251	0xbef3768d	-0.47551385
252	0xbf5ee90d	-0.8707436
253	0x3e14377b	0.14474289
254	0x3ff390cd	1.9028565
255	0x3ec7e1f5	0.3903958

Encoder.rnn.weight_ih_l0 f4 [256, 64]
0	0xbdc27b25	-0.09496144
1	0xbd92546f	-0.07145011
2	0xbd8e22b9	-0.069402166
3	0xbe4a07b9	-0.19729508
4	0x3e019f4e	0.12658426
5	0xbc9eff46	-0.019408833
6	0xbc93c3ee	-0.018037762
7	0xbd50e2a8	-0.050997406
8	0x3bd353f7	0.0064492184
9	0xbe07e897	-0.1327232
10	0x3e0883ce	0.1333153
11	0xbc9b5585	-0.018961677
12	0xbdc86733	-0.09785309
13	0x3dc40c69	0.095726795
14	0x3cd7954a	0.026316304
15	0xbe165c16	-0.14683565
16	0xbe1705fa	-0.14748374
17	0xbdb67a46	-0.089100406
18	0xbd9cf772	-0.07664384
19	0x3de56860	0.112015486
20	0x3bd76305	0.0065730833
21	0x3df6c537	0.120493345
22	0x3ddc1331	0.10745848
23	0x3e19163f	0.14949892
24	0xbdb35ab6	-0.08757536
25	0xbd8e9196	-0.06961362
26	0x3c24115b	0.0100139035
27	0xbc08103d	-0.008304653
28	0x3d22c53a	0.03973887
29	0xbda10922	-0.0786307
30	0xbe116ba1	-0.14201213
31	0xbd307fc5	-0.0430906
32	0xbe13d49c	-0.14436573
33	0x3de63cdd	0.112420775
34	0x3cfb21fe	0.030655857
35	0x3dfb0964	0.122576505
36	0xbd4a1add	-0.049342025
37	0x3d640e5a	0.05567775
38	0x3db90d7b	0.09035774
39	0xbe75b07d	-0.23993106
40	0x3e31bfe2	0.17358354
41	0xbaa2c6f7	-0.0012418915
42	0xbe215ec0	-0.157588
43	0xbe16acf2	-0.14714411
44	0xbe4c57a1	-0.19955303
45	0x3c9623e5	0.018327663
46	0xbd62e679	-0.055395577
47	0xbda9567e	-0.0826845
48	0x3e7a9d43	0.24474053
49	0x3ccef2c0	0.025262237
50	0xbba853b1	-0.00513693
51	0xbe0e85ab	-0.13918178
52	0xbdee9405	-0.11649326
53	0xbd182b6d	-0.03715079
54	0xbda5e198	-0.08099669
55	0xbdeae8f6	-0.11470215
56	0x3d41c58b	0.047307532
57	0xbd17557d	-0.036946762
58	0xbdf63b90	-0.120230794
59	0x3d874e14	0.06606689
60	0x3c1dbb1d	0.009627131
61	0xbe65708c	-0.22406214
62	0x3bba6471	0.005688243
63	0x3dc522e0	0.096257925
64	0x3d910a76	0.070820734
65	0xbc16f95f	-0.009214728
66	0xbd453437	-0.0481455
67	0xbe1d25f7	-0.15346514
68	0x3d8a1617	0.067424946
69	0x3c910123	0.017700737
70	0x3d1b9165	0.037980456
71	0xbe39e292	-0.18152836
72	0x3e68c0b5	0.22729762
73	0x3d8347f7	0.064102106
74	0x3dc6d09c	0.09707758
75	0x3c5e3f27	0.013564861
76	0xbe15a0f0	-0.14612174
77	0xbe033769	-0.12814106
78	0xbe3f1677	-0.18660913
79	0x3e09a07f	0.1344013
80	0xbd61e11c	-0.05514632
81	0x3e8ff0d9	0.2811344
82	0x3e1a2a4b	0.15055196
83	0x3c7e0d17	0.015506051
84	0xbe5ff24d	-0.21869774
85	0xbd6467de	-0.055763118
86	0xbe3cc0d0	-0.18432927
87	0x3e9a8973	0.3018299
88	0x3cce3417	0.025171323
89	0x3e1aef81	0.15130426
90	0xbe44cd23	-0.19218878
91	0xbd7f11cb	-0.062272828
92	0x3d4da536	0.050206386
93	0x3dd6990a	0.10478409
94	0x3d91ed72	0.07125367
95	0xbcf7205a	-0.030166794
96	0x3c1a99f8	0.009436123
97	0xbe00bb05	-0.12571342
98	0x3c47a25e	0.012184707
99	0xbe5c9ee4	-0.21544987
100	0x3e4d2018	0.20031774
101	0x3c81e8b9	0.015858041
102	0x3e0deb64	0.13859326
103	0x3e19d9da	0.1502451
104	0xbd4cc882	-0.049995907
105	0xbcc9d7d1	-0.024639042
106	0xbeca3707	-0.39495108
107	0xbe2d870b	-0.16946046
108	0xbe152e84	-0.14568526
109	0xbe0ec62b	-0.13942783
110	0xbdf65b09	-0.12029082
111	0xbddb70e2	-0.1071489
112	0x3d02bb5b	0.031916957
113	0xbc8a26de	-0.016864236
114	0x3b2f32dc	0.0026733195
115	0x3d71f73a	0.059073664
116	0x3d24fd2c	0.040280506
117	0xbe18efbe	-0.14935204
118	0x3dd777e1	0.10520912
119	0x3ca7dac9	0.020490067
120	0x3e835595	0.2565123
121	0xbd9d4b0a	-0.07680328
122	0x3e27138e	0.16316053
123	0x3de252a9	0.110509224
124	0xbe3d970f	-0.18514656
125	0x3cd5f02e	0.026115503
126	0xbd1ea0bd	-0.03872751
127	0x3d6990f9	0.057023022
128	0xbcf4e38d	-0.02989366
129	0xbe8c6e56	-0.2742793
130	0xbc17e012	-0.009269731
131	0x3c29fd48	0.010375328
132	0xbc850339	-0.016236888
133	0x3e946691	0.28984502
134	0x3d641431	0.05568332
135	0xbdd211ff	-0.10257339
136	0x3db772dc	0.089574546
137	0x3d78bdd6	0.060727917
138	0x3e39a554	0.18129474
139	0xbdb8fdc8	-0.0903278
140	0xbd8c18d0	-0.0684067
141	0xbcb66439	-0.022264587
142	0x3de9b8b5	0.11412183
143	0x3ddb4d3e	0.10708092
144	0x3d9300b6	0.0717787
145	0x3d8845f9	0.06653971
146	0x3dd17c3e	0.102287754
147	0xbc3fee2f	-0.011714502
148	0xbd385356	-0.04500135
149	0xbe20e90e	-0.15713903
150	0x3d4fbc88	0.050716907
151	0xba47ca5d	-0.0007621402
152	0x3d576576	0.052586995
153	0x3dccb7a7	0.099959664
154	0x3e44af7c	0.19207567
155	0xbcbd7086	-0.023124944
156	0x3d086573	0.033299875
157	0xbd58571f	-0.05281746
158	0x3bcc05a9	0.0062262607
159	0x3e0d3e32	0.13793257
160	0xbd7e9b4f	-0.062159833
161	0xbe320dc0	-0.17388058
162	0x3de9ee0b	0.11422356
163	0xbe340c60	-0.17582846
164	0x3dfe1939	0.124071546
165	0xbdec1f96	-0.11529462
166	0xbcda4f33	-0.026649093
167	0x3ded8a8b	0.115986906
168	0xbd4c1ecd	-0.04983406
169	0x3e448146	0.19189939
170	0xbe08ac34	-0.1334694
171	0x3d887480	0.066628456
172	0x3cfbbf78	0.030730948
173	0xbc1e92d5	-0.009678562
174	0xbde3b6db	-0.11118861
175	0xbd9e7c0a	-0.07738502
176	0xbe7cbf2a	-0.24682298
177	0x3dc415f2	0.09574498
178	0x3d94bf89	0.07263095
179	0x3e265b69	0.16245808
180	0x3dd5d71c	0.104414195
181	0xbd38d453	-0.045124363
182	0x3dfeeaca	0.12447126
183	0x3e1258f9	0.14291753
184	0x3d370fa1	0.04469264
185	0xbdfcc211	-0.12341703
186	0xbe230dd1	-0.1592324
187	0xbe18563d	-0.14876647
188	0xbd33741d	-0.043811906
189	0xbdcfec79	-0.101525255
190	0x3decd45c	0.11563942
191	0xbe2839b7	-0.16428266
192	0xbdbdf13a	-0.09274526
193	0xbe07c9a8	-0.1326052
194	0xbcbf79bd	-0.023373479
195	0xbd0dcd0d	-0.03461938
196	0xbd6f9911	-0.058495585
197	0x3dad7067	0.08468705
198	0xbd3f421e	-0.046693914
199	0x3e101ffa	0.14074698
200	0xbe932f87	-0.28747198
201	0xbe1ad23d	-0.15119262
202	0x3c778857	0.01510819
203	0xbdd3e601	-0.10346604
204	0x3a808454	0.0009805062
205	0x3e62b939	0.2214097
206	0x3db9e41c	0.090767115
207	0xbdde44c7	-0.10852962
208	0x3e2995a4	0.1656099
209	0x3e42e11a	0.19031182
210	0xbe09ea2f	-0.1346824
211	0xbd1439a8	-0.036187798
212	0x3e510e6d	0.20415659
213	0x3e2c2d6b	0.168142
214	0xbd935f5e	-0.07195924
215	0x3df2d6e5	0.11857394
216	0x3cd944c2	0.026522044
217	0x3cc40f97	0.023933215
218	0xbe3fbb7d	-0.18723865
219	0xbe66611c	-0.22497982
220	0xbdf5b548	-0.11997467
221	0xbe021e22	-0.12706807
222	0x3d0aa85e	0.033851974
223	0x3d3ae6ec	0.04563038
224	0x3e07fd57	0.13280235
225	0x3da4611b	0.08026334
226	0xbe558d50	-0.20854688
227	0xbd0ce721	-0.03440011
228	0xbd4a75a3	-0.049428593
229	0xbd9a6261	-0.075382955
230	0x3e44327e	0.19159886
231	0xbdf1f353	-0.118139885
232	0x3e151760	0.14559698
233	0xbde9e638	-0.11420864
234	0x3d2d5b11	0.042323176
235	0xbd9dccef	-0.077051036
236	0xbd86324d	-0.06552563
237	0x3cbbd085	0.022926578
238	0xbe2537f4	-0.16134626
239	0xbd670aa8	-0.056406647
240	0xbe07b68d	-0.13253231
241	0xbe6bc630	-0.23024821
242	0xbdeeaeb0	-0.11654413
243	0x3dbe6f69	0.092985936
244	0xbe5a9f80	-0.21349907
245	0x3e441604	0.19149023
246	0xbd317944	-0.04332854
247	0xbc2ffb76	-0.010741105
248	0xbdbdec22	-0.092735544
249	0x3d8d3600	0.06895065
250	0xbda86501	-0.0822239
251	0xbdad23d6	-0.08454101
252	0xbd988f96	-0.07449262
253	0x3d5ff251	0.05467445
254	0xbdf5c2ed	-0.1200007
255	0x3cc4b1b9	0.024010526

Encoder.rnn.weight_hh_l0 f4 [256, 64]
0	0x3db6f222	0.08932902
1	0x3d4c2f0d	0.04984956
2	0xbe084699	-0.13308181
3	0xbd46500d	-0.048416186
4	0x3c1e6658	0.009667955
5	0x3d51f240	0.05125642
6	0xbdae6697	-0.08515661
7	0x3e1aba4f	0.15110134
8	0xbcb11d18	-0.021620318
9	0x3de08f37	0.10964816
10	0x3e176960	0.14786291
11	0xbc8d1f5d	-0.01722687
12	0x3dbc21ec	0.091861576
13	0x3e1098ae	0.14120743
14	0x3e442552	0.19154862
15	0x3df8f49b	0.1215603
16	0xbddf32bc	-0.10898349
17	0x3e0af388	0.13569462
18	0xbddd558c	-0.108073324
19	0x3ea0e48c	0.31424367
20	0xbe48467a	-0.19558135
21	0x3eb0650f	0.34452102
22	0x3e7a7f36	0.2446259
23	0xbd9814af	-0.0742582
24	0xbdee3873	-0.116318606
25	0x3ed63168	0.4183457
26	0x3dc75cf3	0.097345255
27	0xbdd52a6d	-0.10408483
28	0xbdb2da9b	-0.08733102
29	0xbc16bd2a	-0.009200374
30	0xbc4fd817	-0.012685797
31	0xbdef109d	-0.116730906
32	0x3e2cc86c	0.1687333
33	0x3cf0852a	0.029360373
34	0xbce49f07	-0.027907861
35	0xbe1bdec8	-0.15221703
36	0x3cbe9314	0.023263492
37	0x3daf9736	0.08573763
38	0x3dcacaa3	0.09901931
39	0x3cb5ea27	0.02220638
40	0xbe2de174	-0.16980535
41	0xbe5adf47	-0.21374236
42	0xbe5faa3c	-0.21842283
43	0x3d689208	0.05677989
44	0x3d8a7cff	0.06762122
45	0x3de4d366	0.111731336
46	0xbcfef38c	-0.031121992
47	0x3d9138ed	0.07090936
48	0x3df76959	0.1208064
49	0xbe39e13f	-0.18152331
50	0x3d7cc1a1	0.061708096
51	0xbe197ebc	-0.14989752
52	0x3d1488cd	0.036263276
53	0x3e03e22c	0.12879246
54	0x3e1e3257	0.1544889
55	0x3e737737	0.23775946
56	0xbe33f841	-0.1757517
57	0xbe887365	-0.2665054
58	0x3cfed8ab	0.031109175
59	0x3ed8d54f	0.42350242
60	0x3d76668e	0.060156398
61	0xbdf376a1	-0.11887861
62	0xbde89895	-0.11357228
63	0x3e0a2d55	0.13493855
64	0xbe5eeb77	-0.2176951
65	0xbe8cb55d	-0.2748212
66	0xbe641b8a	-0.2227613
67	0x3db5138b	0.08841618
68	0xbe7c8c64	-0.2466293
69	0xbd9ca485	-0.07648567
70	0x3ec81ba1	0.3908358
71	0x3f0b1959	0.5433555
72	0xbc0d7162	-0.00863299
73	0x3e632ad8	0.22184312
74	0x3e26be30	0.16283488
75	0xbe06b49f	-0.13154839
76	0x3e659aa5	0.22422273
77	0xbe223504	-0.15840536
78	0xbe155e5e	-0.1458678
79	0xbea8021d	-0.32814112
80	0xbbf3772d	-0.0074299783
81	0xbb691f90	-0.0035571791
82	0x3ea1dd57	0.3161418
83	0xbcc699d8	-0.02424328
84	0xbe6e3cd9	-0.23265399
85	0x3c9c9d8b	0.019118091
86	0x3dc5e1d1	0.09662212
87	0x3db23dfc	0.08703229
88	0xbd322613	-0.04349334
89	0x3e5df99a	0.21677247
90	0xbd203e3a	-0.039121844
91	0xbd9fd4ec	-0.078042835
92	0xbc4c73f7	-0.01247882
93	0xbe8af7e2	-0.27142245
94	0xbd837c9c	-0.06420252
95	0x3d96fa15	0.07371918
96	0xbd8256d1	-0.06364215
97	0xbdd41d6a	-0.10357173
98	0x3ce0445a	0.027376343
99	0x3d8ac415	0.06775681
100	0x3e7931b4	0.24335366
101	0x3e0d0727	0.1377226
102	0x3e031209	0.12799849
103	0x3e72a42c	0.23695439
104	0xbe86256b	-0.26200423
105	0x3ca3162a	0.01990803
106	0xbda2a327	-0.07941275
107	0x3db38405	0.08765415
108	0x3d8d6743	0.06904461
109	0x3dd7f406	0.10544591
110	0xbe443ef6	-0.19164643
111	0x3deb1747	0.11479049
112	0x3d970638	0.07374233
113	0x3d912352	0.07086815
114	0xbd1a0783	-0.03760482
115	0xbe17b4db	-0.14815085
116	0xbd165d5b	-0.036710124
117	0x3dd88668	0.10572511
118	0xbd5029b2	-0.050821014
119	0x3d597a4f	0.05309516
120	0xbdbfd01e	-0.09365867
121	0x3e0a9f9c	0.13537449
122	0x3e31a05d	0.1734633
123	0x3cd8f68c	0.02648475
124	0x3d6fe2b3	0.058565807
125	0x3d206fb8	0.039169043
126	0x3d576e7c	0.0525956
127	0x3e874b09	0.26424435
128	0x3e55301f	0.20819138
129	0x3e651a1b	0.2237324
130	0xbe98c6a5	-0.29839054
131	0x3b268199	0.0025406836
132	0x3e193580	0.14961815
133	0x3dff0353	0.12451806
134	0xbe2e6c08	-0.17033398
135	0x3b1ad12b	0.002362321
136	0x3cb8b426	0.022546839
137	0xbca099f4	-0.01960466
138	0xbe778841	-0.2417307
139	0x3ce513ae	0.027963486
140	0x3e09c2bb	0.1345319
141	0x3e0cb308	0.1374017
142	0x3b3a4baf	0.0028426459
143	0x3df3e712	0.119093075
144	0x3c82affa	0.015953053
145	0xbd64eecf	-0.055891808
146	0xbe5203c2	-0.20509246
147	0x3e1d8093	0.15381078
148	0xbd226019	-0.039642427
149	0xbdc56643	-0.096386455
150	0xbe46b315	-0.19404252
151	0xbce578f8	-0.028011784
152	0x3e234adb	0.15946524
153	0x3d97ab62	0.074057356
154	0x3ead993d	0.33905974
155	0x3ce937bf	0.028468965
156	0xbddc10e8	-0.10745412
157	0x3e0a8ae5	0.13529547
158	0x3d075563	0.033040415
159	0x3d168e62	0.03675688
160	0x3e33b3c7	0.17549048
161	0xbdc9b105	-0.09848217
162	0x3ddd6823	0.10810878
163	0x3cb57a38	0.022153005
164	0xbd75b64c	-0.059988305
165	0x3e5bc622	0.214623
166	0x3c8af9fc	0.016964905
167	0xbe019857	-0.1265577
168	0xbdf34c23	-0.11879756
169	0xbd1b70ba	-0.0379493
170	0x3ecba317	0.39772865
171	0x3e5bf98e	0.21481916
172	0x3d5f6bab	0.05454604
173	0xbd4cdd21	-0.050015572
174	0x3e3576ba	0.17721072
175	0x3e221b59	0.15830745
176	0x3dd4c616	0.103893444
177	0xbdcac34d	-0.09900532
178	0xbd1d0c58	-0.03834185
179	0xbe63421c	-0.22193187
180	0x3ccd31a5	0.025048086
181	0xbd0e0c12	-0.03467948
182	0xbd23c93a	-0.039986826
183	0x3e4ee5d6	0.20204863
184	0xbc87bb5e	-0.016568836
185	0xbe99a62c	-0.30009592
186	0xbd1dc319	-0.038516138
187	0x3e26cc1f	0.16288804
188	0xbca391f3	-0.019967055
189	0xbdd36884	-0.10322669
190	0xbdc59a0e	-0.09648524
191	0x3cf8dcad	0.030378664
192	0xbe064075	-0.13110526
193	0xbdf8aad9	-0.121419616
194	0xbe83b3c2	-0.25723082
195	0xbd86aee9	-0.0657633
196	0x3d0f2234	0.034944728
197	0x3e0c810d	0.13721104
198	0x3aa382ee	0.0012474933
199	0xbdfe9ce6	-0.1243227
200	0xbac31032	-0.0014882146
201	0x3ce8e5c9	0.028429883
202	0x3ea16055	0.31518808
203	0xbd8f5983	-0.06999495
204	0x3d9a8886	0.07545571
205	0xbe057c1f	-0.1303563
206	0xbeb7d0ec	-0.35901582
207	0xbdcf7ab5	-0.101308264
208	0xbebca1b8	-0.36842132
209	0x3d19dfa3	0.037566792
210	0x3e474697	0.19460522
211	0xbcf94271	-0.03042719
212	0x3d947d8b	0.07250508
213	0xbd29402b	-0.04132096
214	0xbd9240ee	-0.071412906
215	0x3e0545f6	0.13014969
216	0xbe603262	-0.2189422
217	0x3df2cc13	0.1185533
218	0xbe703299	-0.23456801
219	0x3db86cee	0.09005152
220	0xbe12787b	-0.14303772
221	0xbe01292c	-0.12613362
222	0x3e29c5d0	0.16579366
223	0x3df4e1a0	0.11957097
224	0xbd489b8f	-0.048976477
225	0xbe0482ea	-0.12940565
226	0xbd4e6f26	-0.05039897
227	0x3a2e7825	0.0006655476
228	0x3d831b7d	0.06401727
229	0x3e1f797f	0.15573691
230	0xbc97e138	-0.01854001
231	0x3e924166	0.2856552
232	0x3ed6971d	0.41912165
233	0xbddb28bc	-0.10701129
234	0xbe7a846f	-0.24464582
235	0x3e7f859d	0.24953313
236	0x3d175787	0.036948707
237	0x3bbb3372	0.00571292
238	0xbd3bbb20	-0.045832753
239	0xbd7d6adb	-0.061869483
240	0xbe048db1	-0.12944676
241	0x3e76667b	0.2406253
242	0xbe908615	-0.28227296
243	0x3df3e1f5	0.11908332
244	0x3e4965de	0.19667765
245	0x3d9ca6ae	0.07648979
246	0x3ed45591	0.41471532
247	0xbdb52442	-0.08844806
248	0xbe569028	-0.20953429
249	0xbc0fcb62	-0.008776518
250	0xbc07b4bf	-0.008282839
251	0xbdbd6e7a	-0.09249587
252	0xbde29cd3	-0.11065068
253	0x3d2e2559	0.042516086
254	0x3e5551d3	0.20831995
255	0xbd26d1c9	-0.04072741

Encoder.rnn.bias_ih_l0 f4 [256]
0	0x3e076e2f	0.13225625
1	0xbe6821da	-0.22669163
2	0xbe1031f9	-0.14081563
3	0x3b886549	0.0041624648
4	0x3e38434a	0.17994419
5	0x3dda4ed1	0.10659564
6	0x3c0c5841	0.008565963
7	0x3af5f8aa	0.0018766124
8	0xbd8ee248	-0.069767535
9	0x3ca68330	0.020326227
10	0xbc13271b	-0.008981491
11	0x3ddc6f20	0.10763383
12	0xbdc26099	-0.09491081
13	0x3cb453b7	0.022012575
14	0xbd62b623	-0.05534948
15	0xbd8b4a1c	-0.068012446
16	0x3d44e42b	0.04806916
17	0x3e1ff5b5	0.15621074
18	0x3d9c68fa	0.0763721
19	0x3e5db201	0.21649934
20	0x3c9e3100	0.019310474
21	0xbe5686e5	-0.20949896
22	0x3c014c25	0.007891689
23	0x3ad517fe	0.001625776
24	0xbd8cef4d	-0.068815805
25	0xbc4c5b1f	-0.012472897
26	0x3dee369c	0.1163151
27	0x3c50e932	0.012750911
28	0xbe4fde6d	-0.20299692
29	0x3e0c3aaa	0.13694254
30	0x3d8c4e40	0.068508625
31	0xbd6732d0	-0.056444943
32	0x3dfbe225	0.12298993
33	0xbdae2c3c	-0.08504531
34	0x3cc8ec82	0.024526838
35	0xbbb7f708	-0.005614165
36	0x3def775e	0.11692689
37	0xbdfe71d8	-0.12424058
38	0x3d0a2baf	0.033733066
39	0x3b0b902c	0.002129565
40	0x3d1726ca	0.036902227
41	0x3decd5a3	0.115641855
42	0xbd8b71b3	-0.06808796
43	0xbd8cebe6	-0.068809316
44	0x3dddd936	0.10832445
45	0xbd5bc85d	-0.05365788
46	0x3e2cf395	0.16889794
47	0x3e28d960	0.16489172
48	0x3de92b2e	0.11385189
49	0x3db4aad7	0.088216476
50	0x3b429766	0.0029692291
51	0xbd4b4bca	-0.049632825
52	0x3e3b3619	0.18282355
53	0x3d8d5bac	0.06902251
54	0x3e2d6d5f	0.16936253
55	0x3d4d0d50	0.050061524
56	0xbc313681	-0.010816217
57	0x3dd124c3	0.1021209
58	0xbdcc12bb	-0.0996451
59	0x3dda5f30	0.10662687
60	0xbde12c83	-0.10994818
61	0x3e7c174f	0.24618267
62	0xbd859548	-0.06522614
63	0x3dd8a21e	0.105777964
64	0x3e30eda4	0.17278153
65	0x3e9b3670	0.3031497
66	0x3dc90d87	0.09817033
67	0x3e67caf6	0.22636017
68	0xbda7e7c5	-0.081985034
69	0xbb7d37d1	-0.0038638005
70	0x3e3460ba	0.17615023
71	0x3e0d919a	0.13825074
72	0x3d9cae7e	0.07650469
73	0x3b475370	0.0030414723
74	0x3d84dada	0.06487055
75	0x3df01256	0.11722247
76	0x3e1f4f13	0.15557508
77	0xbd8b85c0	-0.0681262
78	0x3dea4e31	0.11440695
79	0x3dafd146	0.085848376
80	0x3dfa18df	0.12211775
81	0x3ddbc3d9	0.10730714
82	0x3d9a4bdd	0.07534001
83	0x3d6e2e6f	0.05814975
84	0x3e7563e2	0.23963884
85	0x3daa7e15	0.083248295
86	0x3e2c5f5d	0.16833253
87	0x3c6a0c7b	0.014285202
88	0x3e151dd9	0.14562167
89	0x3c63b66b	0.013898472
90	0x3ceab5d4	0.028651156
91	0x3d9bbac0	0.07603979
92	0x3ea815a1	0.32829002
93	0x3bb0e805	0.0053987526
94	0x3d15d440	0.03657937
95	0x3e4c830e	0.19971868
96	0x3e36a1db	0.1783518
97	0x3e897c73	0.2685276
98	0xba9e6b50	-0.0012086425
99	0x3e17505a	0.14776745
100	0x3e509d83	0.20372586
101	0x3acdf8ef	0.0015714447
102	0xbd9afc2e	-0.07567631
103	0x3dc16c3a	0.09444471
104	0x3d7237e7	0.059135344
105	0x3c9c300b	0.019065877
106	0x3e130550	0.14357495
107	0x3de78d6a	0.113062695
108	0x3d64cdeb	0.05586044
109	0xbd914e4d	-0.07095013
110	0xbd0fb638	-0.035085887
111	0xbe010670	-0.12600112
112	0x3e6a6f89	0.2289411
113	0x3de1e4ab	0.11029943
114	0x3d7e55f4	0.06209369
115	0x3e022770	0.12710357
116	0x3ddd99bf	0.1082034
117	0x3e17c949	0.14822878
118	0x3c902a9f	0.017598448
119	0x3e1470aa	0.14496103
120	0x3ce0551f	0.027384339
121	0x3e48f7c5	0.19625767
122	0x3dcf4234	0.10120049
123	0x3e12b5fc	0.14327234
124	0x3d67512a	0.05647389
125	0x3e0bfb74	0.1367014
126	0x3e106af2	0.14103296
127	0xbcc6e856	-0.024280708
128	0xbd074abf	-0.033030268
129	0xbcdc71c8	-0.026909724
130	0x3d023ae5	0.031794447
131	0xbde262ce	-0.11054002
132	0x3df58fbd	0.119903065
133	0xbc86d50a	-0.016459007
134	0xbd36113d	-0.044450033
135	0x3e0b829e	0.13624045
136	0xbdbc5efa	-0.09197803
137	0x3e0969b6	0.13419232
138	0x3cc4ec08	0.02403833
139	0x3e11c7db	0.14236395
140	0xbd042bd7	-0.03226837
141	0xbd4c59fe	-0.04989051
142	0xbdd7412e	-0.10510479
143	0x3d6449f2	0.055734582
144	0xbcd2e332	-0.0257431
145	0x3d9fb3c3	0.07797959
146	0xbde82707	-0.11335569
147	0xbce9f7bb	-0.02856051
148	0x3c20a537	0.009805015
149	0x3d473de2	0.048643
150	0xbca4c00d	-0.020111108
151	0x3dc6e48b	0.0971156
152	0x3df4a6ee	0.11945902
153	0xbe11b78a	-0.14230171
154	0xbd82b99e	-0.0638306
155	0xbde85f6f	-0.113463275
156	0x3d39fe4d	0.045408536
157	0x3e208707	0.15676509
158	0x3da34d5d	0.0797374
159	0xbdc388cf	-0.095475785
160	0x3d8d16e5	0.068891324
161	0xbe25e8bf	-0.16202067
162	0x3e005401	0.12532045
163	0x3dc69f96	0.09698407
164	0xbdb53fde	-0.08850072
165	0xbd19de15	-0.03756531
166	0xbc0f85b8	-0.008759908
167	0x3d8783f0	0.06616962
168	0xbd603d40	-0.054745913
169	0xbdd50a1b	-0.10402318
170	0xbc9ce98b	-0.01915433
171	0x3cf480d1	0.02984658
172	0xbd081a1a	-0.033228017
173	0x3dc21f7e	0.09478663
174	0x3d64cb6b	0.055858057
175	0xbdc9096a	-0.09816249
176	0x3dd2f91e	0.103014216
177	0xbdd68fa7	-0.10476618
178	0x3dd9fe9b	0.10644265
179	0xbd78938f	-0.060687598
180	0x3df03b1d	0.11730025
181	0xbde1f5b5	-0.11033193
182	0xbc2e9d87	-0.010657675
183	0x3d8a15ea	0.06742461
184	0x3e020e4f	0.12700771
185	0xbd913e06	-0.07091908
186	0x3de02899	0.109452434
187	0xbdbe2a05	-0.09285358
188	0xbcae6ae2	-0.0212912
189	0x3d4385ec	0.04773514
190	0x3d15ad99	0.03654251
191	0x3e06c639	0.13161553
192	0x3d7aa0e5	0.061188597
193	0x3e0d1306	0.13776788
194	0x3d8d1502	0.068887725
195	0x3d8093aa	0.06278165
196	0x3e0b8cda	0.1362795
197	0x3e1c93fd	0.15290828
198	0x3df595d1	0.11991466
199	0x3d56be3c	0.052427515
200	0x3cd4b695	0.025965968
201	0xbdcdd102	-0.10049631
202	0x3ca280b4	0.019836761
203	0x3e25d8e9	0.16196026
204	0x3e049882	0.12948802
205	0xbd20120b	-0.039079707
206	0x3d63aafb	0.05558298
207	0x3baa8bd7	0.0052046585
208	0xbc08c025	-0.008346592
209	0x3da535da	0.08066912
210	0x3d91f870	0.07127464
211	0xbd3b2e7c	-0.045698628
212	0x3e6e97ae	0.23300049
213	0x3db47a09	0.08812339
214	0x3d0f5d0e	0.035000853
215	0x3dc1f23a	0.09470029
216	0x3e140949	0.14456667
217	0xbd958fc3	-0.07302811
218	0x3d838ef5	0.06423751
219	0xbd1da569	-0.038487826
220	0x3e3a4005	0.18188484
221	0x3dbabb31	0.09117735
222	0x3d3bdc6b	0.045864504
223	0x3dafa19e	0.08575748
224	0x3de76109	0.11297805
225	0x3df6410e	0.12024127
226	0xbba26644	-0.0049560387
227	0x3e21dfa0	0.15807962
228	0xbd34f1cf	-0.04417592
229	0xbd571e72	-0.05251927
230	0xbb7928e9	-0.003801877
231	0x3c911455	0.01770989
232	0x3e4b3d8a	0.19847694
233	0x3cb20efb	0.021735659
234	0x3d394cf1	0.045239393
235	0x3ceec1fc	0.029145233
236	0x3d2eecaa	0.04270617
237	0x3d811370	0.063025355
238	0x3d025fb8	0.031829566
239	0x3e30dcfb	0.17271797
240	0x3b266c18	0.0025394019
241	0xbc84354b	-0.016138693
242	0xbdccdd66	-0.10003166
243	0x3cf2de19	0.02964692
244	0xbcccf6d6	-0.025020044
245	0x3e0ecefb	0.13946144
246	0x3e0e71f6	0.1391066
247	0x3e4874be	0.19575784
248	0x3cf8325a	0.030297447
249	0x3d9fe095	0.078065075
250	0xbd1cc18a	-0.03827051
251	0x3e4577d5	0.19283994
252	0x3dbd36f8	0.09239
253	0x3e0ae171	0.13562562
254	0x3d58a413	0.05289085
255	0x3de56bda	0.11202212

Encoder.rnn.bias_hh_l0 f4 [256]
0	0xbc0765f7	-0.008264056
1	0xbddea856	-0.10871951
2	0xbd9e7536	-0.077372
3	0x3dd1d6fc	0.10246083
4	0xbd156d44	-0.036481157
5	0x3ea22f50	0.31676722
6	0x3de7bd02	0.11315347
7	0x3e1be14f	0.15222667
8	0x3d5aa681	0.053381447
9	0x3d257815	0.040397722
10	0xbdcf6e8b	-0.10128506
11	0x3e08fb6a	0.13377157
12	0xbe15b546	-0.14619932
13	0x3e123751	0.14278914
14	0xbd8c533a	-0.06851812
15	0xbd6186b3	-0.0550601
16	0xbdbaa7ae	-0.091140136
17	0x3e0add3e	0.1356096
18	0xbdb0c414	-0.08631149
19	0x3cb7d3cb	0.022439858
20	0xbd01051c	-0.031499013
21	0xbe87e857	-0.2654445
22	0xbe5612cc	-0.20905608
23	0xbde8709b	-0.11349603
24	0x3c77c45c	0.015122499
25	0x3d9b8cc5	0.07595209
26	0x3dc379db	0.095447265
27	0x3d996a76	0.07491009
28	0xbe76e952	-0.24112442
29	0xbdd8f980	-0.10594463
30	0xbc35e752	-0.011102514
31	0xbdae559d	-0.08512423
32	0x3da81a1c	0.08208105
33	0xbe15ff56	-0.14648184
34	0xbdea56ba	-0.11442323
35	0x3d60621e	0.05478107
36	0xbcd93b3b	-0.026517501
37	0x3d97a030	0.074036
38	0x3e20884e	0.15676996
39	0x3d2974ba	0.041371085
40	0x3d9837c9	0.07432515
41	0xbd12eab6	-0.03586837
42	0x3d802b83	0.06258299
43	0xba71882b	-0.0009213711
44	0xbce36634	-0.027758695
45	0x3cce1466	0.025156211
46	0x3c21e23c	0.009880599
47	0x3ec4ee00	0.3846283
48	0x3e358d4c	0.17729682
49	0x3e40d70e	0.18832037
50	0xbdc148bc	-0.09437701
51	0x3e0ce5fb	0.13759606
52	0x3e33a1fe	0.17542264
53	0x3d7e57bf	0.0620954
54	0x3df0282d	0.11726413
55	0x3d91ea00	0.0712471
56	0x3c9d78a4	0.019222565
57	0xbae79afe	-0.0017670093
58	0x3d9d71ed	0.07687745
59	0x3db95c47	0.09050804
60	0xbe0a706c	-0.13519448
61	0x3e02b47a	0.12764159
62	0x3d564773	0.052314233
63	0xbc9f8321	-0.019471707
64	0x3e0aed4f	0.13567089
65	0x3eaae5b4	0.33378375
66	0x3e11426d	0.14185496
67	0x3e31dcb3	0.17369346
68	0x3ca90098	0.020630166
69	0x3adcbea1	0.001684148
70	0x3e2334da	0.1593813
71	0x3e72f43a	0.23725978
72	0x3c68bc8c	0.014205109
73	0x3c6cfd82	0.014464738
74	0x3e3a9ad7	0.18223129
75	0x3d93569c	0.07194254
76	0x3d8983fa	0.06714626
77	0xbc5d6d24	-0.013514791
78	0x3d6ca752	0.057776757
79	0x3e692eaa	0.22771707
80	0x3e11b642	0.14229682
81	0x3c23dd8c	0.010001551
82	0x3db1d3e0	0.0868299
83	0xbd0382c5	-0.032107133
84	0x3e4af56c	0.19820184
85	0x3e78c784	0.24294859
86	0x3e61e37c	0.22059435
87	0x3dde6f74	0.10861102
88	0x3e2e858e	0.17043135
89	0xbc132e39	-0.008983188
90	0xbd8cb2b1	-0.0687002
91	0xbd87c3ca	-0.06629141
92	0x3e88c6f0	0.26714277
93	0xbb895685	-0.004191222
94	0xbd8d9e54	-0.06914964
95	0x3e511aea	0.20420423
96	0x3df78c63	0.120873235
97	0x3e9163f5	0.28396574
98	0xbc122656	-0.008920273
99	0x3e1e0779	0.15432538
100	0x3eb86ee4	0.36022103
101	0x3e50aedc	0.20379204
102	0x3d748d06	0.059704803
103	0xbd121331	-0.035662834
104	0xbe253f75	-0.16137488
105	0xbdce5884	-0.10075477
106	0x3e09567e	0.134119
107	0x3cfa66dc	0.030566625
108	0x3e0268f2	0.12735346
109	0xbd888d7c	-0.06667611
110	0xbdc510f5	-0.09622375
111	0xbe28fe37	-0.16503225
112	0x3cc094ad	0.023508394
113	0x3de93780	0.11387539
114	0x3d2d7afb	0.04235361
115	0xbc07de76	-0.008292785
116	0x3d469396	0.048480593
117	0x3d5a8e9e	0.053358667
118	0xbb67901e	-0.0035333703
119	0x3e1c61d1	0.15271689
120	0x3db29388	0.087195456
121	0xbcd47ab9	-0.025937425
122	0x3e4901b5	0.19629557
123	0x3d1e35f6	0.03862568
124	0x3d1b8b26	0.0379745
125	0x3e79b62d	0.24385901
126	0x3d4f7e8b	0.05065779
127	0x3dd8a17f	0.10577678
128	0xba2185df	-0.0006161611
129	0xbde2dffc	-0.11077878
130	0x3d8e0600	0.06934738
131	0xbdfdbbc4	-0.12389329
132	0x3dbe106a	0.092804745
133	0xbdac4379	-0.08411307
134	0x3d8b867d	0.06812761
135	0xbd935e29	-0.07195694
136	0x3d99d648	0.07511574
137	0xbdc7246a	-0.09723742
138	0x3dacf790	0.08445656
139	0x3d1ce3fc	0.03830336
140	0xbd88ad88	-0.066737235
141	0x3cd908ec	0.026493512
142	0x3db4c2b3	0.088261984
143	0x3daf8dc3	0.08571961
144	0xbc1d5170	-0.009601936
145	0xbd8ac729	-0.06776268
146	0x3d23bc52	0.039974518
147	0xbdaa6f41	-0.08322001
148	0xbd8031e5	-0.062595166
149	0xbcab495a	-0.020909
150	0x3d8e8a93	0.06960025
151	0xbc22a144	-0.009926144
152	0x3c63f449	0.013913223
153	0xbd069bf8	-0.032863587
154	0x3e066ebb	0.13128178
155	0xbddc1dd3	-0.10747876
156	0xbdc08573	-0.094004534
157	0x3dca41ec	0.09875855
158	0xbceb96f8	-0.028758511
159	0xbdb56d1f	-0.08858704
160	0x3d6a7608	0.05724147
161	0x3c9da125	0.019241879
162	0xbd3aa99c	-0.04557191
163	0x3daa426a	0.08313449
164	0xbdf4337a	-0.11923881
165	0xbc29280b	-0.010324488
166	0xbb98993e	-0.00465694
167	0xbd117e51	-0.035520855
168	0x3d1cf860	0.038322806
169	0xbe011bcc	-0.1260826
170	0xbdb36778	-0.087599695
171	0x3cf69b8f	0.030103473
172	0xbd0ef2d4	-0.034899548
173	0x3dabee28	0.08395034
174	0xbd7f38ae	-0.062309913
175	0x3d07bf56	0.033141457
176	0x3d4a36dd	0.049368728
177	0x3d92ab59	0.07161588
178	0xbd60c690	-0.054876864
179	0xbe1ba3fc	-0.15199274
180	0x3da815f9	0.08207316
181	0xbdff7514	-0.12473503
182	0xbc43fc4e	-0.01196201
183	0xbdcf3f3a	-0.101194814
184	0xbdc3392d	-0.0953239
185	0x3d8856f9	0.06657214
186	0xbddb064c	-0.106945604
187	0x3d90860e	0.07056819
188	0xbcc8d22e	-0.024514284
189	0x3cf11173	0.029427266
190	0xbe1d4cba	-0.153613
191	0xbd666d2d	-0.056256462
192	0x3c9e61ae	0.019333687
193	0x3dc791a5	0.09744576
194	0x3d54ee72	0.05198521
195	0x3e6db3e7	0.23213159
196	0x3e1dd6ed	0.15414019
197	0x3e00b5d4	0.12569362
198	0x3dce6c42	0.10079242
199	0x3d57f64e	0.05272513
200	0x3d67e018	0.056610197
201	0xbd637fb0	-0.055541694
202	0x3e5e728e	0.21723387
203	0x3de8edba	0.11373468
204	0x3e741755	0.23837025
205	0x3da2dcf2	0.07952298
206	0x3e45f7e1	0.1933284
207	0x3e0ab77d	0.13546558
208	0x3baf35b7	0.0053469795
209	0x3cff0715	0.031131307
210	0xbd4d687d	-0.050148476
211	0x3cc3c437	0.023897273
212	0x3e1474bd	0.14497657
213	0x3e6374a6	0.22212467
214	0x3e6418c9	0.2227508
215	0xbd609b3e	-0.05483555
216	0x3dca0ba6	0.09865503
217	0x3da48a6a	0.08034213
218	0x3db042fc	0.08606526
219	0x3d721e96	0.0591112
220	0xbc9e7941	-0.019344928
221	0xbd9d95db	-0.07694598
222	0x3d9e4771	0.0772847
223	0xbdb01817	-0.08598345
224	0xbd76a2cf	-0.06021386
225	0xbc681be5	-0.014166807
226	0x3da8e504	0.08246806
227	0xbc1422e8	-0.009041525
228	0x3da1b587	0.07895952
229	0xbd915bab	-0.070975624
230	0x3e1c676f	0.15273832
231	0xbd18c9f0	-0.037301958
232	0x3e2e2ac3	0.170085
233	0x3e27d17a	0.16388503
234	0x3e318087	0.17334186
235	0xbada22ff	-0.001664251
236	0x3de4c72d	0.11170802
237	0x3e295c4f	0.16539119
238	0x3dc8c1e4	0.09802607
239	0x3ea4d43b	0.3219317
240	0x3d9eaade	0.07747434
241	0x3d79326d	0.060839105
242	0xbd8c061a	-0.06837101
243	0x3dc9bebd	0.098508336
244	0x3e366876	0.17813286
245	0xbcda2abd	-0.026631707
246	0x3e8ba1e1	0.2727194
247	0x3eb1d0ac	0.34729517
248	0x3e11ca00	0.14237213
249	0x3c7fa4e9	0.0156032825
250	0x3e134789	0.14382757
251	0x3dc181c1	0.09448577
252	0x3cd0cb78	0.025487646
253	0x3d932d11	0.0718633
254	0x3e2203a9	0.15821709
255	0x3da7dd8f	0.08196556

Encoder.rnn.weight_ih_l1 f4 [256, 64]
0	0x3dd5f6c0	0.104474545
1	0x3df4b3ca	0.119483545
2	0x3c928929	0.017887669
3	0x3eba7ea9	0.3642476
4	0x3d8c98c3	0.068650745
5	0x3d9b078e	0.075698
6	0x3d56547c	0.052326664
7	0x3d8c8fff	0.068634026
8	0xbeb97c89	-0.36227825
9	0xbe8b1ec1	-0.271719
10	0x3e1d0ae6	0.15336189
11	0x3d8ec68e	0.06971465
12	0x3d973ca3	0.073846124
13	0x3ce9e4bc	0.028551452
14	0x3cfab73b	0.03060495
15	0xbdd699d0	-0.10478556
16	0x3e208604	0.15676123
17	0x3dc2d0d8	0.0951249
18	0x3d688ac9	0.05677298
19	0x3d2b0e9e	0.041761987
20	0x3de80449	0.11328942
21	0x3d8dff37	0.06933444
22	0xbe05b308	-0.13056576
23	0xbd2dd291	-0.04243714
24	0x3d69d848	0.057091027
25	0xbe12bbbe	-0.1432943
26	0x3d1a3d8a	0.037656344
27	0x3e638a79	0.22220792
28	0x3d209822	0.039207585
29	0xbe061f75	-0.13097937
30	0xbd91c20d	-0.071170904
31	0x3d95e1d1	0.07318462
32	0xbc88c93f	-0.016697524
33	0x3d9c6a00	0.076374054
34	0xbc8449e4	-0.016148515
35	0xbd61d393	-0.055133414
36	0xbde04561	-0.10950733
37	0xbe434756	-0.19070181
38	0xbe08ad9b	-0.13347475
39	0xbd5cbac5	-0.053889055
40	0x3e24ecda	0.16105977
41	0x3dd04fdf	0.10171484
42	0xbe0d1013	-0.13775663
43	0x3d9f6eed	0.07784829
44	0xbdf46d07	-0.11934858
45	0xbe33997c	-0.17539018
46	0xbd2bfcaa	-0.041989006
47	0xbe37acb0	-0.17936969
48	0x3de57ff4	0.11206046
49	0xbdb67e33	-0.08910789
50	0x3c961a27	0.018323017
51	0x3db6455e	0.088999495
52	0xbd6d3d98	-0.05792007
53	0xbd013d38	-0.031552523
54	0xbdba4fc9	-0.09097249
55	0x3cb196f2	0.021678422
56	0x3d9050a5	0.07046632
57	0x3d0179d0	0.03161031
58	0x3da945d9	0.082652755
59	0x3bd0f63f	0.006377011
60	0xbc45b658	-0.0120674
61	0xbd96db01	-0.073659904
62	0x3e916bc9	0.28402546
63	0x3d8726d6	0.06599204
64	0x3da92997	0.08259886
65	0x3e1f48d5	0.15555127
66	0xbd9050f1	-0.07046688
67	0x3c9feb01	0.019521238
68	0xbd9e6e27	-0.07735854
69	0xbda7de20	-0.08196664
70	0xbc93f286	-0.01805998
71	0xbc14fb40	-0.009093106
72	0x3d39eecd	0.045393754
73	0x3e1e82ef	0.15479635
74	0x3e260bcc	0.16215438
75	0xbd3b2fae	-0.045699768
76	0xbd1c2396	-0.038119875
77	0x3b870640	0.004120618
78	0x3e881b28	0.2658322
79	0x3db39766	0.08769111
80	0x3e3972d4	0.1811021
81	0x3ca9c74b	0.020724913
82	0xbd089f54	-0.033355072
83	0x3d663d66	0.056210898
84	0xbdce7348	-0.10080582
85	0x3bb672e9	0.0055678976
86	0xbdde4000	-0.10852051
87	0x3e5aa25d	0.21350999
88	0xbe43b039	-0.19110192
89	0x3e39da2d	0.18149634
90	0xbe0273c5	-0.12739475
91	0x3ce757fe	0.0282402
92	0x3e3984b6	0.18117031
93	0x3cf3df0e	0.029769447
94	0x3df67c13	0.12035384
95	0x3d2e98f8	0.04262635
96	0xbe472769	-0.19448628
97	0xbc3ddd56	-0.011588415
98	0xbe053c12	-0.13011196
99	0xbe1c8374	-0.1528452
100	0x3e45deee	0.19323322
101	0x3d8a2a4a	0.06746347
102	0x3e491b54	0.19639331
103	0x3c7a25b2	0.015267776
104	0xbd1a2916	-0.03763684
105	0xbdfd89c4	-0.12379792
106	0x3d4e10e8	0.05030909
107	0xbcd7ba0c	-0.026333831
108	0xbd723c37	-0.059139457
109	0x3d4cbda2	0.049985535
110	0xbe1fd032	-0.15606764
111	0x3d4274d1	0.047474686
112	0x3e0623cc	0.13099593
113	0xbd241402	-0.040058143
114	0xbd1b4f5f	-0.03791749
115	0xbe2c1e11	-0.16808344
116	0x3e122a5e	0.14273974
117	0x3db137bc	0.086532086
118	0x3d964682	0.07337667
119	0x3d00466b	0.031317156
120	0x3d65d164	0.056107894
121	0x3d8668d8	0.06562966
122	0xbdf3cbb9	-0.119040914
123	0x38a2841d	7.74937e-05
124	0x3d560d7b	0.05225895
125	0x3e5df258	0.21674478
126	0x3e261542	0.16219047
127	0x3d5a9627	0.053365853
128	0x3c7f6cd0	0.015589908
129	0x3c43fc9b	0.011962081
130	0xbe12f3cf	-0.14350818
131	0x3e25a6f9	0.16176976
132	0xbc0854a3	-0.00832096
133	0xbe3ca6ec	-0.1842305
134	0x3e230f85	0.15923889
135	0x3de1f105	0.11032299
136	0x3dfa707a	0.122284845
137	0xbd03029c	-0.03198491
138	0x3d3b75e6	0.045766734
139	0xbd984529	-0.07435066
140	0x3c814caf	0.015783636
141	0x3daa6e52	0.08321823
142	0x3dfbf1eb	0.123020016
143	0x3e6098a0	0.21933222
144	0xbe0dca1e	-0.13846633
145	0xbd8d80b0	-0.06909311
146	0x3e51e9b0	0.20499301
147	0x3e11d718	0.14242208
148	0xbdf56544	-0.119822055
149	0xbdb28cf1	-0.08718289
150	0xbdc800c0	-0.09765768
151	0x3da42d0c	0.080164045
152	0x3e1c228b	0.15247552
153	0x3d248175	0.040162522
154	0x3dbf957f	0.09354686
155	0x3cbf8e9c	0.023383431
156	0x3c8b20b6	0.016983371
157	0xbcf86cb4	-0.030325271
158	0x3b8e4326	0.004341501
159	0xbe212cf9	-0.15739812
160	0xbdaed867	-0.08537369
161	0x3e44aeb6	0.19207272
162	0xbc9c2fba	-0.019065727
163	0x394ce772	0.00019541176
164	0xbe0ab692	-0.13546208
165	0xbda7716b	-0.0817593
166	0xbe3fe8c3	-0.18741135
167	0xbdbcdda8	-0.09221965
168	0xbe24dc56	-0.16099676
169	0x3dd49bdd	0.10381291
170	0x3ccf9022	0.025337283
171	0xbd33ad83	-0.043866646
172	0xbe511fc8	-0.2042228
173	0xbd8b59c0	-0.06804228
174	0xbba52c9d	-0.0050407187
175	0x3cfc36af	0.030787794
176	0xbe20cef4	-0.15703946
177	0xbd54c6e7	-0.0519475
178	0x3c2f77af	0.010709687
179	0x3dd72de9	0.105068035
180	0xbdccfa33	-0.10008659
181	0xbd682159	-0.056672428
182	0x3e2e149a	0.17000046
183	0x3dd01342	0.10159923
184	0xbd52d5ae	-0.051473312
185	0xbd4c8b28	-0.049937397
186	0xbe695d77	-0.2278956
187	0x3cc1bfaa	0.023650963
188	0x3cbea869	0.023273664
189	0xbde9a1b6	-0.11407797
190	0x3d33d766	0.04390659
191	0x3d832873	0.064041995
192	0x3d897125	0.06711034
193	0x3d89b738	0.06724399
194	0x3d1d629c	0.03842412
195	0x3dc1e4f6	0.09467499
196	0x3d08d721	0.033408288
197	0x3db2dee3	0.087339185
198	0xbdcc543b	-0.09977003
199	0x3c7e9c32	0.01554017
200	0xbe3832e5	-0.17988165
201	0xb951c631	-0.00020005625
202	0x3e914c06	0.28378314
203	0xbd684df5	-0.05671497
204	0x3e81cdfe	0.25352472
205	0x3e056a50	0.13028836
206	0xbdae4b8f	-0.085105054
207	0x3e18d105	0.14923485
208	0xbd85c9e0	-0.06532645
209	0xbcfcec22	-0.030874316
210	0x3e233d19	0.15941276
211	0xbe22eff8	-0.15911853
212	0x3e1ff981	0.15622522
213	0x3d14319a	0.036180116
214	0xbdac5e3f	-0.084164135
215	0x3e04db8b	0.12974374
216	0x3d1a9e1d	0.037748445
217	0x3c0cf9ae	0.00860445
218	0x3d121e64	0.035673514
219	0x3d45c81a	0.048286535
220	0x3cba6481	0.022753002
221	0x3db76885	0.089554824
222	0xbe3c8196	-0.18408808
223	0xbcef04ef	-0.029177157
224	0xbddd871d	-0.108167864
225	0x3b386a9a	0.0028139711
226	0xbd3eaf5f	-0.046553966
227	0x3d7b0097	0.06127986
228	0xbcaad538	-0.020853624
229	0xbdaa3017	-0.08309954
230	0xbca761e8	-0.020432428
231	0x3db033bb	0.08603617
232	0xbce09665	-0.027415464
233	0xbc2a1fa3	-0.010383519
234	0x3e129bc2	0.1431723
235	0xbe2ddd20	-0.16978884
236	0xbd2dab3d	-0.042399634
237	0xbe92fed0	-0.28710032
238	0xbd04b520	-0.032399297
239	0x3e37650f	0.17909645
240	0xbd71763f	-0.05895066
241	0x3e28d680	0.16488075
242	0xbd96ed4d	-0.0736948
243	0x3d0ef8fb	0.034905415
244	0x3d206209	0.039155994
245	0x3e0a55d6	0.13509306
246	0xbe977557	-0.2958171
247	0x3e0ae3bf	0.1356344
248	0xbe1e54cd	-0.15462036
249	0xbb8db1a5	-0.0043241554
250	0x3cc7f240	0.024407506
251	0x3d7818e6	0.06057062
252	0x3e262e97	0.1622871
253	0xbd6ea84d	-0.058265973
254	0x3d3d3794	0.04619558
255	0xbe04b8b2	-0.1296108

Encoder.rnn.weight_hh_l1 f4 [256, 64]
0	0xbe0dadc1	-0.13835813
1	0x3dec9cb4	0.11553326
2	0xbd647209	-0.055772815
3	0x3c27803d	0.0102234455
4	0xbd31a271	-0.043367807
5	0xbd42de3d	-0.047575224
6	0xbd31cacf	-0.043406304
7	0x3d6c0c59	0.057628963
8	0xbd116a60	-0.035501838
9	0xbdae0083	-0.08496191
10	0x3dc991f9	0.09842295
11	0x3d5933a1	0.053027753
12	0x3dc4fc38	0.096184194
13	0x3d81480e	0.063125715
14	0x3e16a947	0.14713012
15	0x3dc347a4	0.09535149
16	0xbcb1afad	-0.021690214
17	0xbce97d95	-0.028502265
18	0xbddd6d98	-0.10811919
19	0xbe4f857e	-0.20265767
20	0x3d944b8d	0.07240973
21	0x3e1664f7	0.14686953
22	0xbe0cecf3	-0.13762264
23	0x3d860de0	0.06545615
24	0x3d88c9f5	0.06679145
25	0x3e0e90c6	0.13922414
26	0xbdd87ed3	-0.10571065
27	0xbcae53d3	-0.021280205
28	0x3c4808ab	0.012209098
29	0xb98349e8	-0.00025041332
30	0x3e0effc4	0.13964754
31	0xbbbccc68	-0.005761672
32	0xbdd4932f	-0.103796355
33	0x3c8acb9f	0.016942797
34	0x3d4478ce	0.04796677
35	0x3e028ba9	0.12748589
36	0x3bae416b	0.005317857
37	0x3d321ddf	0.04348552
38	0xbde7ffb4	-0.113280684
39	0xbdd907b2	-0.10597171
40	0xbca3d3c8	-0.019998446
41	0xbd50dbeb	-0.05099098
42	0xbd9aee4a	-0.07564981
43	0x3d3aad6c	0.045575544
44	0xbc1523b8	-0.009102754
45	0x3d1bb38f	0.038013037
46	0x3db96d4b	0.09054049
47	0xbdbc60c6	-0.091981456
48	0x3dbb7790	0.09153664
49	0xbd696dbe	-0.056989424
50	0x3dca041a	0.098640636
51	0xbd34dc54	-0.044155434
52	0xbe851705	-0.25994125
53	0x3c97cbf3	0.018529868
54	0xbd3d426b	-0.04620592
55	0xbd806a41	-0.06270266
56	0xbdad7965	-0.0847042
57	0x3df0827e	0.117436394
58	0x3d20f1dc	0.039293155
59	0x3c1f6b0e	0.009730114
60	0xbd75dcf8	-0.060025185
61	0x3d4f97ee	0.050682
62	0x3d8b4d74	0.068018824
63	0xbca12d99	-0.019675063
64	0x3cab9f70	0.02095005
65	0x3d720eb1	0.059096042
66	0x3d230650	0.039800942
67	0x3e6c57b7	0.23080336
68	0xbd56d362	-0.052447684
69	0xbd54d0eb	-0.051957052
70	0xbe06f95e	-0.13181064
71	0x3d2479a4	0.040155068
72	0x3d384561	0.04498804
73	0xbd5db158	-0.054124206
74	0x3e1e876a	0.15481344
75	0xbe3946fe	-0.18093488
76	0x3d12d748	0.03584984
77	0xba6058f2	-0.0008558176
78	0x3d69e57a	0.05710361
79	0x3e3d5852	0.18490723
80	0xbe13f1c2	-0.14447692
81	0xbc990c42	-0.018682603
82	0xbe3de854	-0.18545657
83	0xbe1c3b37	-0.15256964
84	0x3d3d9128	0.04628101
85	0x3d980e24	0.07424572
86	0x3cb6aa30	0.022297949
87	0xbd1f8e47	-0.038954046
88	0x3b49c078	0.0030784886
89	0x3dd16b04	0.1022549
90	0x3d69cde6	0.057081126
91	0x3d6a140c	0.057148024
92	0xbd9a99ac	-0.07548842
93	0x3cb64382	0.022248987
94	0x3d324a11	0.043527666
95	0x3d3d8703	0.046271335
96	0xbdd6a06a	-0.10479815
97	0xbde262f5	-0.11054031
98	0x3d818444	0.06324056
99	0xbdaf793a	-0.08568044
100	0xbdb687a2	-0.08912589
101	0xbe19f7bc	-0.1503591
102	0xbe1c1124	-0.15240914
103	0x3ba25771	0.0049542715
104	0xbdaf397b	-0.085558854
105	0xbbe257b0	-0.006907426
106	0xbd2e1425	-0.04249968
107	0xbd2f7eb8	-0.042845458
108	0xbd7fc4df	-0.06244361
109	0xbd674007	-0.056457546
110	0xbd4a4969	-0.049386416
111	0xbdb0ebe2	-0.08638741
112	0xbda3bbab	-0.07994779
113	0xbd90ec07	-0.07076269
114	0xbdca9839	-0.098923154
115	0xbc835f96	-0.01603679
116	0x3c9c36d9	0.019069122
117	0xbe159b52	-0.14610031
118	0x3d6d1f79	0.057891343
119	0xbc621ab4	-0.013800312
120	0x3c611c9d	0.013739732
121	0xbdce6c4a	-0.10079248
122	0xbd5b1f28	-0.05349651
123	0xbde49308	-0.111608565
124	0xbe073f8d	-0.13207836
125	0xbd926bd0	-0.0714947
126	0xbdac97c5	-0.08427385
127	0xbe465050	-0.19366574
128	0xbd8d9656	-0.0691344
129	0xbd9f68f7	-0.07783692
130	0x3da9c484	0.082894355
131	0xbdb11956	-0.086474106
132	0x3e1ab20d	0.15106983
133	0x3db3b6d0	0.08775103
134	0xbe19a1e5	-0.15003164
135	0x3e1349aa	0.1438357
136	0x3c4aa163	0.012367579
137	0xbd58a9b2	-0.05289621
138	0xbe13f663	-0.14449458
139	0xbd8dd3a9	-0.069251366
140	0x3d12ce8f	0.03584152
141	0xbd07da54	-0.0331672
142	0xbdd8c80b	-0.1058503
143	0x3e611484	0.21980482
144	0xbd3ed749	-0.04659203
145	0x3d08f6fb	0.033438664
146	0x3dc0481d	0.093887545
147	0x3dae44af	0.08509194
148	0xbe738430	-0.23780894
149	0xbdefb54e	-0.11704503
150	0xbdcda4ae	-0.10041176
151	0x3d913469	0.070900746
152	0x3ceedf79	0.029159294
153	0xbd43f20d	-0.04783826
154	0xbc8807e9	-0.016605334
155	0x3d1624dd	0.03665625
156	0x3e13ab74	0.14420873
157	0xbd8c63e7	-0.06854992
158	0x3d4d530d	0.05012803
159	0xbdff1624	-0.12455395
160	0xbd796201	-0.06088448
161	0x3e17912d	0.14801474
162	0xbd08997a	-0.03334949
163	0xbd959bcf	-0.07305109
164	0x3c40da53	0.011770803
165	0xbd27231f	-0.04080498
166	0x3d958aca	0.073018625
167	0xbd03caa2	-0.032175668
168	0xbcada4a7	-0.021196676
169	0xbe2b29c3	-0.1671515
170	0x3e0fd845	0.14047344
171	0xbdc0f718	-0.094221294
172	0x3da7542f	0.081703536
173	0x3e742647	0.23842727
174	0xbddd3a44	-0.10802129
175	0x3d27bb2a	0.040949978
176	0xbd8e1371	-0.06937302
177	0xbd6117ce	-0.054954343
178	0x3dc1a9eb	0.094562374
179	0x3a809ab7	0.0009811734
180	0xbcfdefd0	-0.03099814
181	0xbdacbcb9	-0.084344335
182	0xbd0cc06e	-0.034363203
183	0x3df4f785	0.11961273
184	0x3de9cd92	0.114161626
185	0xba5684a6	-0.00081832183
186	0x3e29940d	0.16560383
187	0xbe07fd22	-0.13280156
188	0xbd95b51c	-0.073099345
189	0xbe28c58a	-0.16481605
190	0xba9ce985	-0.001197145
191	0xbe0d24d3	-0.13783579
192	0xbe2fc376	-0.17164406
193	0xbdd3ca16	-0.10341279
194	0x3d44632a	0.047946133
195	0x3d2d35a6	0.04228749
196	0x3de52c61	0.11190105
197	0xbc436705	-0.011926417
198	0xbdcee86e	-0.10102926
199	0x3e57f1df	0.2108836
200	0x3e49f0d4	0.19720775
201	0x3dc9931c	0.09842512
202	0x3d703cb4	0.05865164
203	0x3d4404f3	0.047856282
204	0xbcf29ef0	-0.029616803
205	0x3cf0fe5f	0.029418169
206	0xbe1a211a	-0.1505169
207	0x3e3435f5	0.17598708
208	0xbc53f825	-0.01293758
209	0xbdecd69b	-0.1156437
210	0xbe1b8d1d	-0.15190549
211	0xbcaa180e	-0.020763423
212	0xbce339ef	-0.027737586
213	0xbdd321e7	-0.10309201
214	0x3df577bd	0.11985729
215	0x3df58dea	0.119899586
216	0x3b6fa6ae	0.0036567855
217	0x3e43d046	0.19122419
218	0x3e1eb8ef	0.15500234
219	0xbdc842ae	-0.09778343
220	0x385befe0	5.243707e-05
221	0xbb02d2bc	-0.0019962033
222	0xbcc7fa09	-0.024411218
223	0xbe264421	-0.16236927
224	0x3e0bc621	0.13649799
225	0xbc860a6a	-0.016362388
226	0xbb340d35	-0.0027473692
227	0xbdbd84f9	-0.09253878
228	0xbe04105e	-0.12896869
229	0xbd527c85	-0.051388282
230	0xbe5d0070	-0.21582198
231	0x3e1c0ce0	0.15239286
232	0xbd5a3cb2	-0.05328054
233	0xba5652b9	-0.0008175779
234	0x3e01ede2	0.12688401
235	0x3d6475a6	0.05577626
236	0x3d0d9c2e	0.034572773
237	0xbd752e9c	-0.059858903
238	0x3d400431	0.046878997
239	0xbc1916f5	-0.009343852
240	0xbca58c35	-0.020208457
241	0xbe07de25	-0.13268335
242	0x3dcaa3b9	0.09894509
243	0x3d96b7d4	0.07359281
244	0xbd12b6d7	-0.0358189
245	0x3cad42ad	0.021149958
246	0x3d8c1e0c	0.068416685
247	0x3e28f084	0.16498
248	0x3e08eed3	0.13372354
249	0xbe06aeb6	-0.13152584
250	0xbe9fa107	-0.31177542
251	0x3d9e2d73	0.077235125
252	0xbdd252e0	-0.102697134
253	0x3dbe703f	0.09298753
254	0xbd11c701	-0.035590176
255	0xbe271a81	-0.16318704
