EXPERIMENT_1/model_OpenChem_CLASSIFIER_ENSEMBLE_9.pth (torch, 573437 bytes, 25 tensors)

Embedding.embedding.weight f4 [56, 64]
-1.5665243 -0.999456 -0.21881948 -0.60108 0.86274564 0.66374487 -0.07980852 -1.7952499
0.17346993 -1.0648439 0.29618594 0.25662342 0.061089907 1.1593394 1.0532157 0.030762699
-1.5341831 -1.7697084 0.47337267 0.8595597 0.63702905 -1.4855124 0.06659597 1.8225058
0.8980559 -0.54922056 -0.115137845 0.14736685 1.2654885 1.6702999 0.9324853 -0.8283459
-0.44295442 -0.012958641 -0.84844965 0.29880416 0.44435427 0.19533151 0.6427372 0.20583077
0.1523042 0.964193 -0.006610353 0.25083768 0.62204355 2.3957672 -1.4887908 -1.3599323
-0.68707335 0.8811211 0.73497206 0.20409568 -0.25015867 -0.24701427 0.5179895 -0.24230334
-0.7899735 0.653467 1.4668254 3.5288432 -1.5732177 -1.2629337 1.926134 -0.59837586
-0.56597555 0.9219067 1.1746385 1.2675546 -1.4877695 2.6088254 -0.45557618 0.35332212
-1.6104674 -0.55991423 -0.47528502 -0.39707416 -1.0815364 1.1273962 -0.17198358 0.7152779
-0.14221586 0.70170367 -0.78471154 0.027043687 0.76066536 -0.41328648 1.0956918 0.2611897
-0.20822285 2.3447816 -1.8385013 -0.042345323 -1.0107167 -0.9149695 0.0021545372 0.56721604
1.6136385 -1.3325073 0.2901718 0.54393435 -2.591471 -1.706143 -0.22764203 0.29380625
0.22456506 0.015079354 0.34498718 0.48135102 0.39205292 -0.8585109 0.7427374 -0.8575494
-0.28849903 -2.4532516 0.0066580465 0.018583598 0.9258016 0.36913306 -0.88727444 -0.054667015
-0.6165748 -0.40436217 1.883588 -0.3302839 0.13725257 1.1512792 1.0768838 1.4126904
-0.75722563 -0.47972596 -0.86000305 0.62505543 0.6525908 0.47957847 1.8713279 -1.0545039
-0.14237376 0.0033175768 -0.523623 -1.2412935 -0.1294943 -0.9757852 -0.27432585 0.120118886
-0.3288678 0.076669596 0.22596736 1.1260667 0.22198632 0.43285823 -0.15474996 -0.10261007
0.22100525 -0.7076077 -1.9346279 0.21567975 -0.7148106 0.319181 0.14288016 0.41448295
0.80176824 -0.9862866 0.2646934 -0.20582844 1.0166417 -0.4912184 0.7475557 0.6872683
0.36221242 0.2319632 -0.14289224 0.4207346 -0.21563871 -0.9883762 0.20649654 -1.4403764
-0.12576695 -0.3268626 -1.5672644 -0.38936839 1.0870267 0.16530563 1.6767545 0.90566003
-1.0507803 -0.79492426 1.5681146 0.25332052 0.62617445 -0.9470425 -1.1211993 -1.2259288
-0.5596301 0.5334718 0.4068866 0.39458653 0.17151096 0.87604475 -0.2870874 1.0216401
-0.07439492 -1.0922236 0.39202642 0.5945261 0.66227406 -1.2063024 0.6074397 -0.5471568
1.1710889 0.09749614 0.96337456 0.8403232 -1.2536547 0.9868361 -0.49465504 -1.283043
0.95522183 1.2835777 -0.6658611 0.5651337 0.2877034 -0.033374783 -1.0618885 -0.11442617
-0.3433358 1.5712649 0.19161488 0.37994185 -0.14475703 0.6376178 -0.28129023 -1.3298751
-0.1420108 -0.5341458 -0.523379 0.86150426 -0.8869632 0.8387747 1.1528951 -1.7610981
-1.4777428 -1.7556711 0.07616609 -1.0786034 1.4403422 -0.11059419 0.57686025 -0.16917409
-0.06402487 1.0384256 0.9068235 -0.47551385 -0.8707436 0.14474289 1.9028565 0.3903958
00000000: de83 c8bf 59dc 7fbf 3712 60be 61e0 19bf
00000010: e6dc 5c3f 2feb 293f a672 a3bd c0ca e5bf
00000020: 1aa2 313e ce4c 88bf afa5 973e 2564 833e
00000030: 6939 7a3d 3c65 943f c6cf 863f 0e02 fc3c
00000040: 1d60 c4bf ce85 e2bf e75d f23e 1b0c 5c3f
00000050: 5614 233f 4525 bebf 7863 883d df47 e93f
00000060: fee6 653f b899 0cbf 64cd ebbd 56e7 163e
00000070: 87fb a13f 63cc d53f 5bb7 6e3f 7a0e 54bf
00000080: ecca e2be 7b50 54bc ff33 59bf dcfc 983e
00000090: 6782 e33e fc04 483e 6d8a 243f 4dc5 523e
000000a0: a2f5 1b3e 5ad5 763f a99b d8bb cc6d 803e
000000b0: 3f3e 1f3f 4054 1940 b290 bebf 4312 aebf
000000c0: 0ae4 2fbf 2791 613f 2127 3c3f 75fe 503e
000000d0: cc14 80be 4ff1 7cbe f69a 043f 5e1e 78be
000000e0: b43b 4abf 9d49 273f efc0 bb3f 91d8 6140
000000f0: 335f c9bf d0a7 a1bf 8f8b f63f 292f 19bf
00000100: c6e3 10bf 1402 6c3f 8e5a 963f 3b3f a23f
00000110: 3b6f bebf fff6 2640 4841 e9be a3e6 b43e
00000120: cc23 cebf 8a56 0fbf 8f58 f3be 4e4d cbbe
00000130: c96f 8abf 854e 903f 771c 30be 741c 373f
00000140: 09a1 11be daa2 333f dbe2 48bf b98a dd3c
00000150: f7ba 423f 499a d3be a13f 8c3f a8ba 853e
00000160: 5f38 55be e710 1640 0354 ebbf 4a72 2dbd
00000170: 2a5f 81bf 713b 6abf 2333 0d3b 1235 113f
00000180: b58b ce3f 998f aabf 6691 943e 483f 0b3f
00000190: a9da 25c0 e562 dabf fe1a 69be c66d 963e
000001a0: 62f4 653e 650f 773c 29a2 b03e a473 f63e
000001b0: 29bb c83e 5fc7 5bbf 0a24 3e3f 5c88 5bbf
000001c0: 25b6 93be 1302 1dc0 be2b da3b a13c 983c
000001d0: 5501 6d3f 02ff bc3e 6b24 63bf 85ea 5fbd
000001e0: d9d7 1dbf 8f08 cfbe 6919 f13f f91a a9be
000001f0: f08b 0c3e 1e5d 933f 54d7 893f 0ad3 b43f
00000200: 8ad9 41bf a49e f5be 2929 5cbf a203 203f
00000210: 3110 273f 4f8b f53e ac87 ef3f fcf9 86bf
00000220: 6dca 11be b46b 593b 280c 06bf b5e2 9ebf
00000230: 279a 04be 0fcd 79bf 7074 8cbe e400 f63d
00000240: 5c61 a8be f304 9d3d fd63 673e f422 903f
00000250: 6250 633e 989f dd3e c676 1ebe 3a25 d2bd
00000260: 334f 623e c725 35bf e3a1 f7bf 27db 5c3e
00000270: d4fd 36bf b16b a33e 2d4f 123e 1c37 d43e
00000280: af40 4d3f 477d 7cbf e585 873e b1c4 52be
00000290: 5121 823f fa80 fbbe cf5f 3f3f d1f0 2f3f
000002a0: e873 b93e c387 6d3e 5852 12be 876a d73e
000002b0: 65d0 5cbe 3906 7dbf d473 533e 415e b8bf
000002c0: 0dc9 00be 895a a7be 1f9c c8bf 4b5b c7be
000002d0: b123 8b3f e145 293e e49f d63f 56d9 673f
000002e0: f87f 86bf 2880 4bbf fbb7 c83f 3ab3 813e
000002f0: f84c 203f 6171 72bf 7583 8fbf 3ceb 9cbf
00000300: eb43 0fbf 9c91 083f 7153 d03e 3f07 ca3e
00000310: 92a0 2f3e 7844 603f 1ffd 92be 1ac5 823f
00000320: 5d5c 98bd fccd 8bbf b0b7 c83e dd32 183f
00000330: cb8a 293f 1e68 9abf 2b81 1b3f 7812 0cbf
00000340: 3ee6 953f 0eac c73d b79f 763f 6c1f 573f
00000350: c277 a0bf 4aa1 7c3f 6d43 fdbe c13a a4bf
00000360: 6b89 743f 464c a43f e075 2abf 9aac 103f
00000370: dc4d 933e ffb3 08bd f6eb 87bf 4558 eabd
00000380: b6c9 afbe 351f c93f b136 443e bd87 c23e
00000390: 303b 14be ec3a 233f 4605 90be 5939 aabf
000003a0: 476b 11be c7bd 08bf 2bfc 05bf 8b8b 5c3f
000003b0: 0510 63bf f0b9 563f 1192 933f aa6b e1bf
000003c0: ad26 bdbf d5b9 e0bf f8fc 9b3d ad0f 8abf
000003d0: 225d b83f 357f e2bd 1dad 133f f93b 2dbe
000003e0: 791f 83bd 21eb 843f 9625 683f 8d76 f3be
000003f0: 0de9 5ebf 7b37 143e cd90 f33f f5e1 c73e

Encoder.rnn.weight_ih_l0 f4 [256, 64]
-0.0730079 -0.2622596 0.040782157 -0.12274036 0.09688635 -0.07952782 0.052247465 -0.0906857
-0.023312673 -0.04399743 0.11461032 -0.02185508 -0.22533034 0.028012428 -0.16816628 -0.068366684
-0.10828802 -0.03448348 0.007196105 0.1640222 0.103279844 0.18669675 0.055809703 0.032220684
0.04026458 -0.18463676 -0.10567616 -0.15164225 0.08894164 0.013936076 -0.009250312 -0.05455335
-0.04421992 0.13519351 0.07123355 0.15136993 -0.008195667 -0.009940927 0.10165092 -0.23404355
0.18891309 -0.048597813 0.05216965 -0.095724255 -0.10609268 0.011621619 0.016012711 -0.025996756
0.26520768 0.09964565 -0.099850245 -0.05556062 -0.13170989 0.0015477516 -0.077645004 -0.09250393
-0.058926415 -0.1346553 -0.016470687 0.2098951 0.02505235 -0.17977116 -0.035231136 -0.1366001
-0.040590554 -0.016858473 -0.032125015 -0.07525158 0.107511684 0.04191472 -0.00031988247 -0.16869076
0.11902845 -0.03095283 0.08499341 0.037228886 -0.044734534 -0.042759538 -0.10806217 0.10160638
-0.07305421 0.1854127 -0.0018957802 0.02195867 -0.03903158 -0.091931075 -0.021971418 0.03582694
0.008981458 0.081384234 -0.13718335 -0.2177636 -0.008133893 0.042751316 0.10974955 0.015222959
0.09452739 -0.07713569 -0.031468403 -0.12307401 0.08543402 -0.023181323 0.09785521 0.10885526
0.08510147 0.11437793 -0.21113747 -0.043950304 -0.06076666 -0.077787 -0.17685999 -0.059760496
0.014949265 -0.09284547 -0.02198307 -0.020154586 -0.011671956 -0.031454243 -0.013832834 -0.07258125
0.15649354 -0.09166563 0.16757303 0.086290605 -0.14446531 0.08083587 -0.02855643 0.12769896
0.11488709 -0.17304298 0.00222556 0.00031084887 -0.025022212 0.07512551 -0.050289042 -0.08144625
0.1890035 0.16836102 0.16632846 -0.05531161 -0.07981064 -0.103281036 0.04095274 0.09140645
0.051590428 0.009470322 0.16591695 0.0044535124 -0.092368506 -0.12329672 -0.0044959905 0.058979195
-0.011454406 0.1470851 0.17133008 -0.025337487 0.04893301 0.017276853 -0.10642776 0.07882955
-0.14723374 -0.121474385 0.03588498 -0.18097533 0.09235999 0.04173257 0.05991432 0.02574264
-0.05109182 0.1843811 -0.111943215 0.010012361 0.07441973 0.03465724 -0.088215634 -0.05972974
-0.04564499 0.08665287 0.16026205 0.20544851 0.025469624 -0.090617 0.084572 -0.026932586
0.15540443 -0.13717175 -0.20310803 -0.04430348 -0.12765531 -0.09949035 0.14976972 -0.049850967
-0.19550203 -0.057123642 -0.0022827317 -0.032830738 -0.018404672 0.065736145 -0.03391431 0.10435903
-0.105028525 -0.09470331 0.019960543 -0.14087763 0.11920534 0.09673268 0.18470155 -0.06949763
0.13507462 0.11088085 -0.067869514 0.001970196 0.23046383 0.06336895 -0.08737425 0.06741534
-0.013379787 0.030363187 -0.08094052 -0.13856693 -0.15733156 -0.073312126 -0.12609753 0.09817466
0.050849605 -0.049974754 -0.13487992 -0.06307953 -0.067399904 0.067775376 0.11485682 -0.15793124
0.18225262 -0.0674774 0.0042442153 -0.031393174 -0.05296756 0.0430063 -0.19170766 0.042887136
0.023292955 -0.19369666 -0.092433676 0.08374435 -0.2068538 0.048165668 0.061359107 0.009883394
-0.11990871 0.105572104 -0.1771023 -0.09841179 0.07242855 -0.066063665 -0.07109995 -0.029460527
00000000: 2a85 95bd e446 86be 310b 273d 4c5f fbbd
00000010: 5a6c c63d 7bdf a2bd 7001 563d 6db9 b9bd
00000020: 38fa bebc a636 34bd d1b8 ea3d 6d09 b3bc
00000030: ffbc 66be 527a e53c c833 2cbe d503 8cbd
00000040: 1cc6 ddbd 8d3e 0dbd 4ecd eb3b 70f5 273e
00000050: 6284 d33d 6f2d 3f3e b798 643d d6f9 033d
00000060: 79ec 243d 6b11 3dbe be6c d8bd 1b48 1bbe
00000070: 0927 b63d 2454 643c 9f8e 17bc 5573 5fbd
00000080: f21f 35bd 2b70 0a3e e5e2 913d b800 1b3e
00000090: 1e47 06bc 45df 22bc 5c2e d03d 1da9 6fbe
000000a0: 6f72 413e 800e 47bd d8af 553d 140b c4bd
000000b0: 1e47 d9bd 9a68 3e3c 172d 833c 26f7 d4bc
000000c0: 4dc9 873e 0513 cc3d 497e ccbd 8893 63bd
000000d0: f5de 06be eddd ca3a 5804 9fbd b372 bdbd
000000e0: d35c 71bd 14e3 09be 89ed 86bc beee 563e
000000f0: 963a cd3c ee15 38be 864e 10bd e6e0 0bbe
00000100: 4842 26bd c81a 8abc 8595 03bd 801d 9abd
00000110: 162f dc3d c5ae 2b3d e6b5 a7b9 45bd 2cbe
00000120: 30c5 f33d ca90 fdbc 0611 ae3d 517d 183d
00000130: 8f3b 37bd a024 2fbd b34f ddbd 0117 d03d
00000140: 729d 95bd d4dc 3d3e d47b f8ba abe2 b33c
00000150: 94df 1fbd 5c46 bcbd 67fd b3bc 45bf 123d
00000160: f726 133c c7ac a63d cb79 0cbe 6cfd 5ebe
00000170: 0544 05bc 011c 2f3d 5fc4 e03d b869 793c
00000180: 9497 c13d 51f9 9dbd 03e5 00bd 3a0e fcbd
00000190: 08f8 ae3d c2e6 bdbc 5068 c83d 82ef de3d
000001a0: ae49 ae3d fa3e ea3d 6c34 58be 3c05 34bd
000001b0: 76e6 78bd ca4e 9fbd c91a 35be 6cc7 74bd
000001c0: c3ed 743c c425 bebd d715 b4bc 3b1b a5bc
000001d0: bb3b 3fbc 2ad6 00bd 1ca3 62bc 7aa5 94bd
000001e0: d83f 203e 31bb bbbd 4498 2b3e 21b9 b03d
000001f0: b7ee 13be 478d a53d 2def e9bc 84c3 023e
00000200: ec49 eb3d 2e32 31be b3da 113b 6ef9 a239
00000210: 62fb ccbc 67db 993d e2fb 4dbd 4bcd a6bd
00000220: 228a 413e d566 2c3e 0252 2a3e 6d8e 62bd
00000230: c373 a3bd 0285 d3bd 0fbe 273d 4e33 bb3d
00000240: 7c50 533d 6929 1b3c 22e6 293e c5ee 913b
00000250: b32b bdbd fe82 fcbd 1a53 93bb 2b94 713d
00000260: 43ab 3bbc 7a9d 163e 2771 2f3e 9090 cfbc
00000270: fb6d 483d 3088 8d3c ccf6 d9bd 6371 a13d
00000280: 71c4 16be 90c7 f8bd 21fc 123d 9951 39be
00000290: 3c27 bd3d c5ef 2a3d b868 753d 3be2 d23c
000002a0: a845 51bd 66ce 3c3e 7c42 e5bd e30a 243c
000002b0: 5f69 983d c0f4 0d3d 66aa b4bd 2ca7 74bd
000002c0: 3ef6 3abd 0f77 b13d bc1b 243e 1861 523e
000002d0: aca5 d03c 6895 b9bd 1634 ad3d baa1 dcbc
000002e0: 5722 1f3e c076 0cbe 8dfb 4fbe 9177 35bd
000002f0: 13b8 02be 99c1 cbbd 3c5d 193e 8730 4cbd
00000300: af31 48be 7bfa 69bd e299 15bb 8679 06bd
00000310: 65c5 96bc aca0 863d bbe9 0abd 30ba d53d
00000320: 3219 d7bd cff3 c1bd 4b84 a33c 3a42 10be
00000330: ee21 f43d c91b c63d 6722 3d3e c654 8ebd
00000340: 0051 0a3e 8015 e33d 2cff 8abd 671e 013b
00000350: b6fe 6b3e 94c7 813d 45f1 b2bd 0e11 8a3d
00000360: e536 5bbc 38bc f83c 25c4 a5bd 7de4 0dbe
00000370: 861b 21be ab24 96bd b61f 01be cc0f c93d
00000380: ad47 503d 54b2 4cbd f61d 0abe d72f 81bd
00000390: f608 8abd d1cd 8a3d 0d3a eb3d bab8 21be
000003a0: 6ea0 3a3e 9731 8abd 0f13 8b3b 2196 00bd
000003b0: 83f4 58bd 6027 303d 034f 44be 6caa 2f3d
000003c0: ded0 be3c 6b58 46be de4d bdbd 2882 ab3d
000003d0: 7cd1 53be 5d49 453d b053 7b3d f6ed 213c
000003e0: b392 f5bd 3036 d83d 4e5a 35be 1f8c c9bd
000003f0: 6b55 943d 634c 87bd da9c 91bd 3457 f1bc

Encoder.rnn.weight_hh_l0 f4 [256, 64]
0.22087169 -0.055981338 0.2827327 -0.09163278 0.027812418 0.17406411 0.228941 0.24696217
-0.0801072 -0.037139453 0.04801552 0.274983 0.29460654 -0.037208766 0.13799368 0.19311997
0.06156344 0.21842931 -0.20822786 -0.023861265 0.053519573 0.08433978 0.2861455 -0.063928984
0.061438896 0.058711663 -0.24488197 -0.07889213 -0.08827718 0.14910577 -0.014737202 0.08010691
0.030647755 0.05853512 -0.05854065 0.038006425 0.07342063 0.16583422 0.016745307 -0.21288827
-0.24820562 -0.2747667 0.03916547 0.18624519 0.26974416 -0.085825555 -0.089056134 0.20347893
-0.039476957 -0.17449531 -0.052913126 0.08339899 0.15437138 0.13677755 0.12968993 0.07124855
0.057380803 -0.067790374 0.04421675 0.2235475 0.21974406 -0.02015682 -0.24203278 0.0025074494
-0.015685864 -0.22734796 -0.15924026 0.05094936 -0.26739135 -0.19459184 0.2085218 0.27119413
-0.2906094 0.12176909 -0.18337983 0.15064839 -0.10291183 0.01228519 -0.29359066 -0.09905691
-0.25620273 0.13932972 0.27171233 0.1917973 0.025104158 -0.14857721 -0.1160663 0.14618108
-0.06533568 0.241413 -0.033281367 -0.03253686 0.061802916 -0.032353118 -0.260162 -0.116490014
0.19408366 -0.22433448 0.045204867 0.0868486 0.49268234 0.12780346 0.07371249 -0.12987968
0.060856663 -0.040201783 -0.06534962 0.14270873 0.08925476 -0.021594098 0.036742732 -0.04959744
-0.016027812 -0.1770425 -0.033267282 -0.2642844 0.100563556 -0.092178814 0.025400925 0.03028528
0.16458286 0.07393576 0.17062633 0.3844836 -0.11701758 -0.1918661 -0.24102108 0.14301077
-0.07869041 -0.039241184 -0.3427912 -0.117382996 -0.20210777 0.0038419266 0.13860534 0.02705482
0.051067322 0.20197187 -0.3003587 -0.09528445 -0.03344257 0.03254272 0.15585819 0.25376102
-0.16900258 0.06125481 0.24623689 0.037332762 -0.15113239 -0.28097725 -0.1631095 -0.37938485
0.14262024 0.02783229 0.08944595 -0.08842011 -0.097128846 -0.07330003 0.11931426 0.09819173
0.26381564 0.14402452 -0.020514823 -0.009834844 0.16332865 0.2396391 0.17278078 -0.05131365
0.022787336 -0.26522768 0.04880015 0.17841135 -0.09689092 -0.104825236 0.1859614 0.09860736
-0.24449192 0.011878958 -0.32634458 -0.059234895 -0.19361168 0.04581063 -0.18975098 0.06288641
-0.0069505456 -0.20775394 -0.061706066 0.19273141 -0.0068918015 -0.22322915 -0.15960035 -0.2950062
-0.19802229 -0.087885074 0.09255094 0.1701948 0.096682906 -0.12013047 0.09625403 -0.0572526
-0.2010826 0.33693066 0.17987163 -0.028531538 0.028668132 0.24831906 -0.05222533 -0.023127798
-0.24605396 0.09579614 0.31471807 0.09400572 -0.18707713 -0.054144852 -0.29454044 -0.23636709
-0.09615201 0.036043044 0.14205478 -0.06367133 0.020621132 -0.1992965 -0.031027965 0.32810715
0.14516868 0.15846339 -0.24230333 0.087788805 0.25537658 0.14198452 -0.082616374 0.1323576
0.039698325 -0.19864613 -0.13702242 0.11872617 -0.26919875 -0.18070573 0.030980142 0.0649539
-0.21614018 0.18264022 -0.35481784 -0.102488846 -0.005880657 -0.15399677 -0.32177272 -0.17264411
0.05321495 -0.32201216 -0.090795614 0.0014119238 -0.20965068 0.00862724 0.15627763 -0.29463783
00000000: 302c 623e b04c 65bd 57c2 903e f8a9 bbbd
00000010: ded6 e33c dd3d 323e 826f 6a3e a7e3 7c3e
00000020: 3e0f a4bd 8a1f 18bd ecab 443d 92ca 8c3e
00000030: abd6 963e 3868 18bd 374e 0d3e 3ec1 453e
00000040: f229 7c3d efab 5f3e af39 55be b378 c3bc
00000050: 5737 5b3d 56ba ac3d aa81 923e 33ed 82bd
00000060: 5aa7 7b3d a47b 703d 57c2 7abe 3292 a1bd
00000070: abca b4bd 2faf 183e 4e74 71bc 170f a43d
00000080: 0011 fb3c 86c2 6f3d 52c8 6fbd a0ac 1b3d
00000090: 8e5d 963d 72d0 293e 742d 893c 62ff 59be
000000a0: 9d29 7ebe 39ae 8cbe f96b 203d 0fb7 3e3e
000000b0: e81b 8a3e 4fc5 afbd 1063 b6bd c85c 503e
000000c0: 97b2 21bd e6ae 32be 6fbb 58bd 17cd aa3d
000000d0: 8813 1e3e 6a0f 0c3e 70cd 043e c3ea 913d
000000e0: 2208 6b3d aed5 8abd 9f1c 353d a3e9 643e
000000f0: 9604 613e ea1f a5bc 71d7 77be 0554 243b
00000100: a47f 80bc e7cd 68be e10f 23be 47b0 503d
00000110: 85e7 88be 1543 47be bd86 553e f5d9 8a3e
00000120: c1ca 94be 1362 f93d ecc7 3bbe 9243 1a3e
00000130: 70c3 d2bd d247 493c 8451 96be 59de cabd
00000140: 012d 83be 73ac 0e3e e11d 8b3e 8366 443e
00000150: 3ca7 cd3c a024 18be 2bb4 edbd 7eb0 153e
00000160: b7ce 85bd f834 773e 0b52 08bd 5f45 05bd
00000170: 0e25 7d3d b484 04bd f433 85be 5192 eebd
00000180: debd 463e f0b7 65be bd28 393d aedd b13d
00000190: dc40 fc3e e9de 023e 93f6 963d 2eff 04be
000001a0: d644 793d a0aa 24bd 06d6 85bd 3d22 123e
000001b0: 33cb b63d 1be6 b0bc 8c7f 163d af26 4bbd
000001c0: c24c 83bc a14a 35be 4643 08bd 4950 87be
000001d0: 44f4 cd3d 3fc8 bcbd 9a15 d03c d618 f83c
000001e0: 6988 283e a26b 973d abb8 2e3e 09db c43e
000001f0: eaa6 efbd 8c78 44be 3bce 76be 6a71 123e
00000200: 7028 a1bd 5dbb 20bd 5482 afbe 7f66 f0bd
00000210: 57f5 4ebe d5c8 7b3b 8fee 0d3e 12a2 dd3c
00000220: f82b 513d b7d1 4e3e 9ec8 99be 7e24 c3bd
00000230: 14fb 08bd 844b 053d 4a99 1f3e f7ec 813e
00000240: 030f 2dbe 53e6 7a3d 8625 7c3e 3dea 183d
00000250: 73c2 1abe 40dc 8fbe 2d06 27be bb3e c2be
00000260: 0a0b 123e 8b00 e43c 702f b73d 9a15 b5bd
00000270: 7deb c6bd 531e 96bd 095b f43d bf18 c93d
00000280: d812 873e 2a7b 133e b40e a8bc 5322 21bc
00000290: a03f 273e f463 753e 72ed 303e 432e 52bd
000002a0: 82ac ba3c eccb 87be abe2 473d 77b1 363e
000002b0: bf6e c6bd 9dae d6bd aa6c 3e3e a8f2 c93d
000002c0: 175c 7abe f69f 423c a316 a7be 4aa0 72bd
000002d0: 2442 46be eda3 3b3d 154e 42be 97ca 803d
000002e0: 67c1 e3bb 73bd 54be 80bf 7cbd 625b 453e
000002f0: 9fd4 e1bb 2f96 64be 466e 23be 0d0b 97be
00000300: 5bc6 4abe 17fd b3bd 598b bd3d 8c47 2e3e
00000310: b001 c63d f706 f6bd d520 c53d b481 6abd
00000320: 99e8 4dbe 2d82 ac3e 4530 383e f9ba e9bc
00000330: 6ed9 ea3c 5a47 7e3e 3aea 55bd 8276 bdbc
00000340: 92f5 7bbe c430 c43d ba22 a13e 1286 c03d
00000350: 2691 3fbe fec6 5dbd 01ce 96be 370a 72be
00000360: 58eb c4bd dfa1 133d cf76 113e 1d66 82bd
00000370: a6ed a83c 6214 4cbe 5c2e febc a9fd a73e
00000380: 19a7 143e 3a44 223e 5d1e 78be 9eca b33d
00000390: b8c0 823e 6464 113e c632 a9bd c088 073e
000003a0: b69a 223d e469 4bbe 9b4f 0cbe b526 f33d
000003b0: 6bd4 89be ec0a 39be 11ca fd3c 8d06 853d
000003c0: da53 5dbe 0a06 3b3e afaa b5be ace5 d1bd
000003d0: 87b2 c0bb 54b1 1dbe 65bf a4be 9ec9 30be
000003e0: ebf7 593d c7de a4be 0df3 b9bd 4d10 b93a
000003f0: abae 56be 4459 0d3c 3e07 203e c5da 96be

Encoder.rnn.bias_ih_l0 f4 [256]
0.14241447 -0.06591694 -0.19341585 -0.08789269 0.12768494 -0.082884334 0.0001257611 0.0016466115
-0.14166684 0.118438736 0.24556409 0.14510125 -0.04256795 0.013718786 -0.102307126 0.084624015
0.112417825 0.07689537 0.050661553 0.14053246 -0.076120615 -0.009071961 0.0781888 -0.003126565
-0.113476105 -0.052768204 0.16254863 0.011057398 -0.0702932 0.18208557 0.15308696 -0.06392359
-0.039863303 -0.037652012 0.0853465 0.022011822 0.08994341 -0.0737776 0.10990986 0.15272279
0.014907987 0.28845364 -0.20299077 -0.04892975 0.073675945 -0.031883944 0.17108741 -0.14528187
0.044502247 0.14441662 0.14592916 0.026684899 0.23692144 0.16392565 -0.05111289 0.029584166
-0.09435127 -0.05649644 -0.045861393 0.13574177 0.024660915 0.17804268 0.07694318 -0.023196539
0.30196458 0.27657276 0.25147802 0.19662784 -0.026250616 -0.008287366 0.0004557596 0.064813375
0.16405977 0.0862969 0.03324701 0.14869514 0.059591778 -0.06691953 0.12257881 0.0109157255
0.11332317 0.016281543 0.1339842 -0.057653084 0.15047435 -0.0966743 -0.0066564986 0.08761664
0.04651428 0.041930944 0.07734219 0.16051196 0.19410661 0.004702518 0.12795588 0.12548278
0.09681765 0.17601399 -0.05240292 0.053601038 0.00077328057 -0.081335425 -0.09846978 0.025230618
0.17362148 0.0641635 0.20986821 0.054154843 0.10246824 -0.034451306 0.103824355 -0.028378995
0.12423207 0.029743528 -0.16249654 0.16627964 0.11613179 -0.026188402 0.21816488 0.08600853
0.24380136 0.19365871 -0.10384484 0.19914693 0.018058386 0.042177927 0.020601477 0.14611594
0.005706967 -0.05566721 -0.0032608472 -0.13785394 0.12599817 0.013818374 -0.08514664 0.16235974
-0.10652577 0.11457292 -0.01675735 0.10094736 -0.041877095 -0.013292341 -0.114235364 0.03693437
-0.028757358 0.07277382 -0.05924351 -0.045522455 0.05793695 -0.0071949507 -0.017021751 0.08820142
0.0770946 -0.07772772 -0.08156428 -0.091149084 0.05263245 0.06827603 0.11587703 -0.13994594
0.08282758 -0.14555964 0.15929642 0.1202647 -0.08412223 -0.06343111 -0.016696466 0.062098276
-0.035968333 -0.10267255 -0.07028276 0.018337771 -0.009310192 0.10546752 -0.026914673 -0.07820318
0.08171729 -0.07738144 0.08931492 -0.03123248 0.12521717 -0.101055 -0.0027231153 0.14923035
0.099634364 0.008529969 0.07422773 -0.13272896 0.02324309 0.063041136 0.08369029 0.14011733
-0.04151861 0.1058335 0.013422614 0.023981543 0.11104939 0.12251358 0.052268777 0.04488887
0.12025783 -0.06395012 0.11386655 0.2659252 0.08702228 -0.014130887 0.012716932 0.07426796
0.04024296 0.011789171 0.15706931 -0.023685774 0.14687762 0.03453693 -0.022137605 0.23746723
0.05495433 -0.055813227 0.12906043 -0.036200743 0.10081186 0.09540176 0.072031 0.13767639
0.079275794 0.12653951 0.0015756726 0.08704952 0.026931783 -0.0012963535 -0.08743971 0.042419918
0.063345514 0.025581984 -0.03765783 0.008210147 0.13258195 0.12833297 -0.057596236 -0.039366063
-0.06994742 -0.008764028 0.06901849 0.03185729 -0.011435523 0.14187698 0.056923855 -0.0066049043
-0.048297998 0.08560949 -0.055478513 0.035132892 0.16715316 0.046171978 0.07171522 -0.028369796
00000000: 19d5 113e 76ff 86bd ce0e 46be 1501 b4bd
00000010: d7bf 023e 43bf a9bd bdde 0339 1dd3 d73a
00000020: 1d11 11be 0290 f23d 2775 7b3e 6c95 143e
00000030: bb5b 2ebd c2c4 603c 6686 d1bd 5b4f ad3d
00000040: 513b e63d 527b 9d3d 7d82 4f3d bee7 0f3e
00000050: 20e5 9bbd 90a2 14bc 7321 a03d 0ee7 4cbb
00000060: 2966 e8bd 7923 58bd 2673 263e 172a 353c
00000070: e2f5 8fbd a474 3a3e d4c2 1c3e 5fea 82bd
00000080: b447 23bd ff38 1abd 25ca ae3d 2352 b43c
00000090: 4034 b83d b618 97bd 6c18 e13d 5d63 1c3e
000000a0: a140 743c 32b0 933e d0dc 4fbe 906a 48bd
000000b0: 6ae3 963d bd98 02bd 8a31 2f3e c5c4 14be
000000c0: fd47 363d f3e1 133e 746e 153e 4a9a da3c
000000d0: 899b 723e 20dc 273e c05b 51bd 7e5a f23c
000000e0: 3d3b c1bd d068 67bd 28d9 3bbd e4ff 0a3e
000000f0: b005 ca3c d250 363e 6394 9d3d ab06 bebc
00000100: 1a9b 9a3e f29a 8d3e bac1 803e cf58 493e
00000110: 880b d7bc bbc7 07bc 05f3 ee39 e0bc 843d
00000120: 49ff 273e 6ebc b03d 042e 083d 8a43 183e
00000130: 8216 743d 1b0d 89bd 990a fb3d dfd7 323c
00000140: fa15 e83d df60 853c 2733 093e a425 6cbd
00000150: f315 1a3e 2dfd c5bd c21e dabb 5a70 b33d
00000160: c285 3e3d c8bf 2b3d 9565 9e3d 3f5d 243e
00000170: e2c3 463e 9517 9a3b de06 033e 8f7e 003e
00000180: 5548 c63d 033d 343e 72a4 56bd c38c 5b3d
00000190: fbb5 4a3a 3093 a6bd 86aa c9bd 71b0 ce3c
000001a0: d4c9 313e 2768 833d b1e7 563e 78d1 5d3d
000001b0: deda d13d d01c 0dbd dda1 d43d 117b e8bc
000001c0: 626d fe3d b3a8 f33c 7e65 26be 3645 2a3e
000001d0: 81d6 ed3d 0f89 d6bc 9d66 5f3e 3d25 b03d
000001e0: 10a7 793e 784e 463e 9aac d4bd 2ced 4b3e
000001f0: 2eef 933c c3c2 2c3d 6ec4 a83c 6b9f 153e
00000200: 8201 bb3b 4d03 64bd f0b3 55bb 9529 0dbe
00000210: aa05 013e 7666 623c 5d61 aebd a241 263e
00000220: 2f2a dabd 35a5 ea3d b646 89bc 7dbd ce3d
00000230: 5187 2bbd 1ec8 59bc 3bf4 e9bd 7e48 173d
00000240: 8d94 ebbc 710a 953d 53a9 72bd c175 3abd
00000250: 4c4f 6d3d 9fc3 ebbb 3371 8bbc f2a2 b43d
00000260: c6e3 9d3d b62f 9fbd 2c0b a7bd 5fac babd
00000270: 2095 573d 4ed4 8b3d f050 ed3d fd4d 0fbe
00000280: 82a1 a93d 960d 15be 9a1e 233e 574d f63d
00000290: 4748 acbd 2be8 81bd 07c7 88bc c35a 7e3d
000002a0: 8853 13bd fc45 d2bd 68f0 8fbd 1839 963c
000002b0: c789 18bc 5bff d73d 297c dcbc fd28 a0bd
000002c0: 655b a73d 297a 9ebd beea b63d 42db ffbc
000002d0: ee38 003e edf5 cebd 4b76 32bb d7cf 183e
000002e0: 1a0d cc3d 48c1 0b3c b504 983d 1aea 07be
000002f0: 4b68 be3c b61b 813d d165 ab3d eb7a 0f3e
00000300: 6b0f 2abd 3cbf d83d 86ea 5b3c f174 c43c
00000310: dd6d e33d 66e8 fa3d c917 563d 64dd 373d
00000320: bd49 f63d 48f8 82bd de32 e93d 5927 883e
00000330: bd38 b23d 3c85 67bc ae5a 503c cd19 983d
00000340: cdd5 243d 5e27 413c c7d6 203e ab08 c2bc
00000350: 1667 163e 9976 0d3d ec59 b5bc 9c2a 733e
00000360: cb17 613d 699c 64bd 6b28 043e 3b47 14bd
00000370: 7376 ce3d ff61 c33d fd84 933d 0afb 0c3e
00000380: 595b a23d 9393 013e cd86 ce3a 0547 b23d
00000390: 0ba0 dc3c 68ea a9ba 9713 b3bd 82c0 2d3d
000003a0: 4bbb 813d 4f91 d13c 193f 1abd da83 063c
000003b0: 90c3 073e b869 033e 08ea 6bbd 4f3e 21bd
000003c0: 9840 8fbd ff96 0fbc 9159 8d3d ca7c 023d
000003d0: 0f5c 3bbc 3348 113e fd28 693d f46d d8bb
000003e0: 1fd4 45bd 0754 af3d 703d 63bd 82e7 0f3d
000003f0: 332a 2b3e d41e 3d3d 6edf 923d c667 e8bc

Encoder.rnn.bias_hh_l0 f4 [256]
0.0018941606 0.052055098 -0.12997231 0.010406003 -0.08874053 0.12728706 0.10471316 0.15199691
-0.018518506 0.13851011 0.15326004 0.17123877 -0.09385654 0.13449574 -0.11547565 0.097576186
-0.026791232 0.05629439 -0.112021945 -0.053527392 -0.12693012 -0.065017655 -0.13875921 -0.11824847
-0.02953806 0.035656717 0.14168057 0.073216245 -0.10842088 -0.06080121 0.07347598 -0.09260264
-0.08077202 -0.09908859 -0.053603876 0.08240727 -0.05350156 0.12449853 0.2329462 0.19196431
0.05233106 0.13694349 -0.07231948 0.018958446 -0.062407248 0.046930116 0.0120700905 0.07445468
0.10794767 0.24452075 0.048583 0.2139134 0.22952046 0.15699857 -0.10321099 0.050769806
-0.06431251 -0.1603845 0.1306608 0.11962295 -0.00058544776 0.05950126 0.19448349 -0.14844647
0.26485333 0.30720675 0.29516283 0.14396147 0.07636441 -0.0027394022 -0.016313093 0.1638226
0.10175994 0.09772044 0.15060742 0.10341572 -0.028837174 -0.012308139 0.06594874 0.15278383
0.13350272 -0.08102376 0.14547436 -0.14791068 0.10903697 0.06302649 0.045605592 0.18194266
0.07132384 0.019049305 -0.02000931 0.018180516 0.13295883 -0.0048876423 0.022227075 0.1299684
0.03933853 0.1914523 -0.06011435 0.06015915 0.15726943 0.120885566 0.036910996 -0.10487657
-0.046888642 -0.055657204 0.20041229 -0.028341258 0.1739614 -0.03017722 0.042686664 -0.06741019
-0.08120058 0.033319514 -0.18223685 0.030882765 0.056408998 -0.121057965 0.19703308 0.09376439
0.30361283 -0.028536668 -0.008750012 0.094500154 -0.00044102516 0.14933524 -0.0697738 0.2761746
0.038120985 -0.13953625 0.03429219 -0.15120716 0.09889997 -0.053835865 0.027431218 -0.04583795
0.060568195 -0.11685587 0.043660775 -0.0031130016 -0.076346055 0.06309156 0.0791314 0.06691931
-0.0126161175 -0.07296877 0.094087146 -0.10018186 -0.014462935 -0.0767469 0.072689764 -0.018840505
-0.028451126 0.03171046 0.1135482 -0.085164525 -0.08678003 0.010269144 0.0073812865 -0.1330572
0.07117778 0.03570328 -0.011596657 0.106414944 -0.114860386 -0.036190182 -0.01259349 -0.0395924
0.05710037 -0.12473218 -0.13872938 0.01859466 -0.010981746 0.09463124 -0.1450825 0.053100653
0.028071778 0.099000536 -0.072004795 -0.12253795 0.08999008 -0.11545822 -0.0040274537 -0.019389324
-0.12269718 0.14602143 -0.14216974 0.030693037 0.02001999 0.044733103 -0.106465414 -0.04775454
-0.08337341 0.065511666 -0.0034798465 0.19333184 0.1289098 0.095299035 0.033146687 0.045186467
0.15090191 -0.018995143 0.3112638 0.21770081 0.19590518 0.10447146 0.15046184 0.20452893
0.053936604 -0.03774856 0.035646092 0.045909625 0.058853555 0.16853926 0.16561246 0.08793118
0.00904268 0.09755684 0.15088813 0.06139835 -0.100417234 -0.07272241 0.103451155 -0.034064803
-0.0939163 -0.007868696 0.08899985 -0.08007151 0.15006743 -0.019752672 0.06910073 -0.012591766
0.0349534 0.16773148 0.09044477 -0.022599628 0.20158285 0.23069888 0.008600173 0.109848335
0.0049875937 0.068213955 0.10067919 0.10071872 0.19171658 -0.0242163 0.19053727 0.14493118
0.06377644 0.023147741 0.12661943 -0.06322155 0.10025086 -0.01759048 0.17704178 -0.058426082
00000000: 7c45 f83a ba37 553d 7617 05be f17d 2a3c
00000010: 98bd b5bd 8a57 023e da73 d63d 14a5 1b3e
00000020: 1fb4 97bc 98d5 0d3e 33f0 1c3e 3759 2f3e
00000030: dc37 c0bd 40b9 093e 7f7e ecbd 06d6 c73d
00000040: 4979 dbbc f294 663d c36b e5bd 8a3f 5bbd
00000050: f8f9 01be fa27 85bd e516 0ebe 412c f2bd
00000060: cdf9 f1bc c70c 123d b614 113e 66f2 953d
00000070: c40b debd b10a 79bd 937a 963d 74a6 bdbd
00000080: cd6b a5bd f5ee cabd bd8f 5bbd 25c5 a83d
00000090: 7424 5bbd 16f9 fe3d 7389 6e3e 4b92 443e
000000a0: 1859 563d ea3a 0c3e 3c1c 94bd be4e 9b3c
000000b0: be9e 7fbd cb39 403d a1c1 453c b27b 983d
000000c0: ab13 dd3d a663 7a3e f8fe 463d 1d0c 5b3e
000000d0: 6907 6b3e 3cc4 203e 4960 d3bd 00f4 4f3d
000000e0: 47b6 83bd d63b 24be f2cb 053e e1fc f43d
000000f0: bc78 19ba 98b7 733d ae26 473e 5a02 18be
00000100: db9a 873e 344a 9d3e 951f 973e a36a 133e
00000110: f264 9c3d 8b87 33bb 09a3 85bc 1dc1 273e
00000120: 8467 d03d a721 c83d d538 1a3e 9fcb d33d
00000130: f03b ecbc 14a8 49bc 2210 873d 5d73 1c3e
00000140: f0b4 083e c9ef a5bd 3bf7 143e e675 17be
00000150: c64e df3d 0814 813d eecc 3a3d 2d4f 3a3e
00000160: 3c12 923d 4a0d 9c3c 91ea a3bc 4eef 943c
00000170: 5c26 083e 8428 a0bb 8e15 b63c 7016 053e
00000180: 7021 213d 120c 443e 773a 76bd 7169 763d
00000190: 3d0b 213e da92 f73d fc2f 173d 87c9 d6bd
000001a0: 4e0e 40bd cff8 63bd e138 4d3e ed2b e8bc
000001b0: f022 323e 3836 f7bc 36d8 2e3d 5b0e 8abd
000001c0: 7d4c a6bd 0b7a 083d 4c9c 3abe dafd fc3c
000001d0: 1f0d 673d 3ded f7bd 0ac3 493e 8b07 c03d
000001e0: 2473 9b3e bbc5 e9bc 365c 0fbc 4c89 c13d
000001f0: 6539 e7b9 56eb 183e 91e5 8ebd c266 8d3e
00000200: c024 1c3d 97e2 0ebe f875 0c3d 0dd6 1abe
00000210: 118c ca3d ff82 5cbd 6fb7 e03c 93c0 3bbd
00000220: 5b16 783d 2152 efbd a4d5 323d 8003 4cbb
00000230: 525b 9cbd 2636 813d a50f a23d fe0c 893d
00000240: d5b3 4ebc a770 95bd c3b0 c03d 262c cdbd
00000250: f2f5 6cbc 7b2d 9dbd 5fde 943d 6757 9abc
00000260: 5612 e9bc d4e2 013d f58b e83d bd6a aebd
00000270: bab9 b1bd e93f 283c b8de f13b 2640 08be
00000280: a8c5 913d 9a3d 123d e8ff 3dbc 14f0 d93d
00000290: ec3b ebbd 283c 14bd ed54 4ebc a42b 22bd
000002a0: 14e2 693d 9673 ffbd 130f 0ebe d453 983c
000002b0: c8ec 33bc 06ce c13d 8290 14be 1280 593d
000002c0: c9f6 e53c cbc0 ca3d 4077 93bd 2df5 fabd
000002d0: b84c b83d 5c75 ecbd bbf8 83bb 5cd6 9ebc
000002e0: a948 fbbd a486 153e f294 11be f76f fb3c
000002f0: f600 a43c 0f3a 373d 8a0a dabd 449a 43bd
00000300: aebf aabd fb2a 863d 230e 64bb c8f8 453e
00000310: ee00 043e 242c c33d d2c4 073d 7215 393d
00000320: 0886 1a3e b49b 9bbc f85d 9f3e f6ec 5e3e
00000330: 5e9b 483e 22f5 d53d ab12 1a3e 0870 513e
00000340: a1ec 5c3d 3c9e 1abd a301 123d bb0b 3c3d
00000350: 6d10 713d 8e95 2c3e 5096 293e 4315 b43d
00000360: c027 143c e1cb c73d 6b82 1a3e d67c 7b3d
00000370: 8da7 cdbd 7def 94bd 33de d33d 8987 0bbd
00000380: 3057 c0bd b4eb 00bc 8e45 b63d 88fc a3bd
00000390: 47ab 193e 5bd0 a1bc af84 8d3d b24d 4ebc
000003a0: 4c2b 0f3d cdc1 2b3e 1c3b b93d db22 b9bc
000003b0: bc6b 4e3e 543c 6c3e bde7 0c3c 2af8 e03d
000003c0: f86e a33b c2b3 8b3d e430 ce3d 9e45 ce3d
000003d0: 5a51 443e 4361 c6bc 341c 433e d768 143e
000003e0: 399d 823d 55a0 bd3c 86a8 013e 4d7a 81bd
000003f0: 5350 cd3d e919 90bc 714a 353e 3050 6fbd

Encoder.rnn.weight_ih_l1 f4 [256, 64]
-0.045655683 -0.06898314 0.12701248 0.12510596 0.122129984 -0.08848563 -0.06738296 0.03035721
-0.09514373 -0.29217237 0.055639897 -0.14312567 -0.07090175 -0.056726202 -0.12414994 -0.045625918
0.20503284 0.05151351 -0.13696748 0.045345172 0.04672737 -0.04898366 -0.04855681 -0.10576894
0.003857375 -0.019173753 -0.057693534 0.1394364 0.11283727 -0.21929422 -0.13842943 0.085388
-0.098186016 -0.07225391 0.065619074 -0.13773715 -0.32237205 -0.25413573 -0.00030067665 -0.021183925
0.21146569 0.047867686 0.044100843 0.09468091 -0.042063907 -0.13514818 -0.04518946 -0.19388613
0.38023195 -0.058763415 0.2406813 -0.089492135 -0.15575197 -0.04400785 -0.121313326 -0.0040944726
-0.0061948635 0.055778235 0.176784 -0.057230044 -0.16604507 -0.08304958 0.118294865 -0.09173824
-0.0036957548 0.055926654 -0.013490688 0.034278166 -0.027633086 -0.07597157 0.24950527 -0.13017522
0.07184208 -0.061430816 0.10311568 -0.02293438 -0.11721014 -0.0032569275 0.00936096 0.25440252
0.22043863 0.109579 -0.15470405 -0.026365709 -0.16594566 -0.23106171 -0.06849255 0.025845295
-0.014396292 0.04205105 -0.14048882 0.07333357 0.15654583 -0.12533794 -0.024501998 -0.033976197
-0.09105558 -0.14149633 -0.020479683 -0.056017015 0.0213643 -0.020147704 0.055641282 -0.029262172
0.19963233 -0.22592884 0.13625044 0.11176136 0.017922323 0.20556124 0.09018063 -0.23314804
0.16854061 -0.024572719 0.08155942 -0.13153267 0.030734852 0.16256627 0.016528483 0.07574836
-0.027075093 -0.0009992104 0.033029582 0.05585087 -0.26356733 0.027950753 0.16012383 0.026496813
-0.0006510641 -0.21220502 -0.1229432 0.0050771125 0.14357148 -0.17986457 0.07226571 0.086333975
0.06622257 -0.14160545 -0.030133892 -0.17499849 -0.09970892 -0.0031217681 -0.0065376 0.1980122
-0.16823198 -0.0036057823 0.041186657 0.24803448 0.029520292 0.07920121 -0.06679819 -0.0057142675
0.023757381 0.016479753 0.004306891 0.030005597 0.09114671 0.06726176 0.06919725 -0.28060907
0.037756145 0.06638896 0.032659106 0.11527556 -0.12747373 -0.049480546 -0.04227821 -0.15025389
0.16684455 0.12470669 0.01944908 -0.14526848 -0.22348867 0.08661721 -0.013163045 -0.11978235
0.12544632 0.16152523 0.28452328 -0.044101726 -0.038619515 -0.013426242 0.1298696 0.093651965
0.07031876 0.08041558 -0.0120170945 0.17025857 0.008687745 -0.08517105 -0.17041066 0.044190295
-0.024507947 0.0077118035 0.18838345 0.104783125 -0.1612139 -0.08264629 -0.15548041 -0.04040857
-0.054589838 -0.033382237 0.011028176 -0.16622767 0.03146521 0.29702333 0.2191844 0.07435487
-0.017513096 -0.09067079 0.046064883 0.024590401 0.049376953 0.057891585 -0.049060322 -0.11875949
0.09983217 -0.038216293 0.06169024 -0.12596872 0.09575977 0.104228355 0.011434323 -0.09385106
-0.013267972 0.06518238 -0.0037476164 -0.17547517 -0.24458922 0.039112996 -0.014412989 0.17230701
0.053509966 0.17898992 -0.008827328 -0.3556982 0.08601086 0.10242214 0.08514557 0.095929734
0.06917054 0.24401027 0.22875945 0.07304724 -0.09487012 0.13060546 -0.21898423 -0.026966859
-0.043580785 -0.15427332 0.14091527 -0.18420154 0.0066259266 -0.15597983 0.005554999 -0.19044527
00000000: 7401 3bbd 0847 8dbd 8f0f 023e c71b 003e
00000010: 491f fa3d f437 b5bd 1400 8abd afaf f83c
00000020: b7da c2bd 9e97 95be a9e6 633d 898f 12be
00000030: f034 91bd bc59 68bd 5342 febd 3ee2 3abd
00000040: 21f4 513e d5ff 523d 3441 0cbe dcbb 393d
00000050: 3365 3f3d 17a3 48bd 81e3 46bd 639d d8bd
00000060: 03cc 7c3b 4612 9dbc 0e50 6cbd 6ac8 0e3e
00000070: 3a17 e73d aa8e 60be 72c0 0dbe e7df ae3d
00000080: c015 c9bd dcf9 93bd 4b63 863d f80a 0dbe
00000090: f30d a5be 141e 82be 23a4 9db9 e989 adbc
000000a0: 768a 583e e810 443d 16a3 343d 11e8 c13d
000000b0: 344b 2cbd 4964 0abe 9518 39bd 168a 46be
000000c0: c3ad c23e e8b1 70bd 2975 763e a747 b7bd
000000d0: 727d 1fbe 9341 34bd 1f73 f8bd ed2a 86bb
000000e0: 48fe cabb b877 643d dd06 353e 0d6a 6abd
000000f0: b807 2abe e615 aabd 9444 f23d 42e1 bbbd
00000100: 7a34 72bb 5913 653d 0c08 5dbc 4367 0c3d
00000110: c85e e2bc fc96 9bbd 4f7e 7f3e a74c 05be
00000120: f121 933d e19e 7bbd 502e d33d e2e0 bbbc
00000130: df0b f0bd 2d72 55bb b65e 193c 0c41 823e
00000140: aaba 613e f46a e03d bd6a 1ebe e6fc d7bc
00000150: a9ed 29be 719b 6cbe d245 8cbd 83b9 d33c
00000160: 6dde 6bbc b93d 2c3d 4ddc 0fbe e92f 963d
00000170: 8d4d 203e 9758 00be 6ab8 c8bc a02a 0bbd
00000180: 597b babd 6ae4 10be 02c5 a7bc 1972 65bd
00000190: 2f04 af3c cc0c a5bc 1de8 633d 39b7 efbc
000001a0: 6b6c 4c3e e459 67be 3c85 0b3e 24e3 e43d
000001b0: d6d1 923c a57e 523e 9fb0 b83d 5cbe 6ebe
000001c0: e995 2c3e ba4c c9bc a008 a73d 80b0 06be
000001d0: a8c7 fb3c c677 263e be66 873c f521 9b3d
000001e0: 96cc ddbc f0f7 82ba 074a 073d e2c3 643d
000001f0: 4cf2 86be faf8 e43c 80f7 233e d80f d93c
00000200: 2cac 2aba 464c 59be a5c9 fbbd e85d a63b
00000210: 6704 133e 6b2e 38be 0b00 943d decf b03d
00000220: b39f 873d 0501 11be 5adb f6bc ce32 33be
00000230: 3134 ccbd 9496 4cbb 5d39 d6bb b6c3 4a3e
00000240: 0145 2cbe fd4e 6cbb 57b3 283d c0fc 7d3e
00000250: 8ad4 f13c 3e34 a23d 7dcd 88bd c03e bbbb
00000260: d79e c23c 8c00 873c d220 8d3b 4cce f53c
00000270: 20ab ba3d 89c0 893d 4ab7 8d3d feab 8fbe
00000280: 30a6 1a3d eff6 873d 8ec5 053d 9815 ec3d
00000290: 7988 02be 1dac 4abd eb2b 2dbd 28dc 19be
000002a0: 4cd9 2a3e 3966 ff3d ad53 9f3c 43c1 14be
000002b0: 37da 64be 5d64 b13d d0a9 57bc 7350 f5bd
000002c0: 0075 003e df66 253e 09ad 913e 03a4 34bd
000002d0: 7f2f 1ebd bef9 5bbc 89fc 043e 9acc bf3d
000002e0: 4803 903d ecb0 a43d 59e3 44bc 4358 2e3e
000002f0: 0b57 0e3c 296e aebd 2280 2ebe e200 353d
00000300: e4c4 c8bc 4cb3 fc3b 97e7 403e 8998 d63d
00000310: 4215 25be 7542 a9bd 4236 1fbe 7583 25bd
00000320: 9899 5fbd d0bb 08bd 86af 343c 9637 2abe
00000330: aae1 003d 7113 983e e071 603e 5e47 983d
00000340: a077 8fbc 9bb1 b9bd 88ae 3c3d cf71 c93c
00000350: 7d3f 4a3d ba1f 6d3d 7af3 48bd 2d38 f3bd
00000360: cf74 cc3d b088 1cbd e8ae 7c3d f2fd 00be
00000370: b31d c43d ad75 d53d 0757 3b3c fc34 c0bd
00000380: e861 59bc 577e 853d 929a 75bb c3af 33be
00000390: 9975 7abe f334 203d 7524 6cbc 4071 303e
000003a0: 442d 5b3d 2249 373e 7fa0 10bc 131e b6be
000003b0: 7626 b03d b3c2 d13d cd60 ae3d cf76 c43d
000003c0: 49a9 8d3d d4dd 793e eb3f 6a3e cb99 953d
000003d0: 444b c2bd 70bd 053e 673d 60be 9ae9 dcbc
000003e0: c481 32bd d3f9 1dbe 184c 103e 549f 3cbe
000003f0: 4d1e d93b 2db9 1fbe b606 b63b 1604 43be

Encoder.rnn.weight_hh_l1 f4 [256, 64]
0.039168824 0.19674727 -0.18577424 -0.10077137 -0.20741956 -0.06133996 -0.0417883 0.013301608
-0.11122468 0.049499206 0.023302637 0.20368849 -0.062241815 0.10245639 0.22385128 -0.05522891
0.052183747 -0.08385134 -0.0360966 -0.13202555 0.010863211 0.122797444 -0.075765446 0.012044868
0.056831412 0.057179067 0.014498674 -0.08496899 0.074572906 -0.034109708 -0.022615975 0.029866505
-0.15535662 -0.0021997706 -0.035386484 0.055868357 0.031261146 0.029413018 0.008260113 -0.18798247
0.033451375 -0.03381447 -0.11544935 0.13364941 0.042349294 0.1448391 -0.06212964 -0.12935796
0.083375216 -0.11095164 0.060758762 0.14015457 -0.10151333 0.01601913 -0.019710613 -0.07904917
-0.059821483 0.10697933 0.13190879 -0.02741823 -0.17272857 0.082560256 0.06712228 -0.042005606
-0.043462448 0.00067179755 -0.04206861 0.10817095 -0.10966375 -0.084635645 -0.004839413 0.085240014
-0.16268751 -0.082970016 0.109311596 -0.15639031 0.033454962 0.0083177 0.17667574 0.012550983
0.030343715 -0.13594504 -0.14661938 -0.1734661 -0.02857536 -0.026684184 -0.11655013 0.08392446
-0.041907676 0.1452008 0.11781885 0.13956344 -0.063361935 -0.07605406 -0.034658995 -0.081540026
-0.07278793 -0.0710673 0.020801865 -0.036120463 0.19554926 -0.1986629 -0.09438917 0.005232917
-0.058601856 -0.0191699 0.008174808 -0.031917293 -0.15456972 -0.082615964 -0.088100746 -0.03369371
0.0031704393 -0.11678713 -0.14156798 -0.01373444 0.12701225 -0.042472158 0.0061254236 -0.07946114
0.033850223 -0.23722816 0.09862863 -0.17713743 -0.15244056 -0.104211055 0.08769629 -0.012000552
0.14035788 0.14795467 0.009670705 0.08319655 0.034043975 0.050155744 -0.07727687 0.074549645
0.09648495 -0.017541436 -0.017893707 -0.12967649 0.09240043 0.051877383 0.06291587 0.051070552
0.10338958 0.08857439 -0.03176685 -0.10644254 -0.07730079 -0.11188057 -0.03785431 -0.00056282885
-0.08430607 -0.0108544165 0.07762054 0.047436066 0.12882662 -0.18364592 0.046361018 -0.10652815
0.012670054 0.06902184 -0.10450125 -0.11420407 -0.026493175 -0.06720561 0.10995108 -0.046017732
0.12939762 -0.12490972 0.060955886 0.027954215 0.0045596706 0.12789825 -0.14628442 0.0628624
-0.05069932 -0.1339224 -0.018872201 -0.015383618 0.009406008 -0.033557154 0.023845859 0.09839841
0.013685423 -0.09191376 0.15739137 -0.14150013 -0.10112881 -0.07507386 0.15832438 -0.2270972
0.124433994 0.06395916 -0.13849361 0.11582755 0.034219466 -0.25979054 -0.25221187 0.09858299
0.21006219 0.19433898 0.181956 0.14175186 0.063898176 0.20777577 0.1913173 -0.021652764
-0.0820804 -0.2010129 0.069221266 -0.0006319072 0.19507186 -0.15024294 0.05033017 0.04483101
0.21942653 -0.056594003 0.04360156 -0.24635643 0.13425201 -0.2879187 -0.14072771 0.18366161
0.005247382 -0.1734317 -0.15020782 -0.0742666 -0.13335347 -0.13833396 -0.052743167 0.046472073
0.08509426 0.050372027 0.045749694 0.19379345 0.17518133 0.06566163 -0.113436714 0.03351188
-0.2467535 -0.07655662 0.08519002 0.15394588 0.1289084 -0.05716027 0.08345818 0.091013126
0.14672017 -0.1392823 -0.015961634 0.05169309 -0.16491382 -0.03772767 -0.062576964 -0.11356397
00000000: 7d6f 203d 1e78 493e 9a3b 3ebe 3861 cebd
00000010: cb65 54be 9c3f 7bbd 352a 2bbd fdee 593c
00000020: c4c9 e3bd aebf 4a3d 2ce5 be3c b793 503e
00000030: 46f1 7ebd a8d4 d13d 4539 653e b637 62bd
00000040: a0be 553d 40ba abbd 07da 13bd b531 07be
00000050: 9cfb 313c 3a7d fb3d ea2a 9bbd d757 453c
00000060: 0ec8 683d 9934 6a3d d98b 6d3c 3904 aebd
00000070: aeb9 983d 9fb6 0bbd 2345 b9bc 9aaa f43c
00000080: ce15 1fbe 072a 10bb 6bf1 10bd 38d6 643d
00000090: b00b 003d 92f3 f03c 6d55 073c 7a7e 40be
000000a0: 4f04 093d 0b81 0abd b570 ecbd 64db 083e
000000b0: 7476 2d3d b350 143e a67b 7ebd 6a76 04be
000000c0: a0c0 aa3d 9d3a e3bd 2ede 783d ae84 0f3e
000000d0: 39e6 cfbd 8d3a 833c 2778 a1bc 88e4 a1bd
000000e0: 5f07 75bd fb17 db3d 1913 073e 329c e0bc
000000f0: c2df 30be 5a15 a93d 6877 893d 120e 2cbd
00000100: ae05 32bd 921b 303a 2350 2cbd bb88 dd3d
00000110: 6397 e0bd 7455 adbd f093 9ebb 5192 ae3d
00000120: 8e97 26be 2fec a9bd c2de df3d c824 20be
00000130: 1208 093d f646 083c 7cea 343e a3a2 4d3c
00000140: 6293 f83c 2d35 0bbe 6423 16be 19a1 31be
00000150: e016 eabc ca98 dabc d6b1 eebd 96e0 ab3d
00000160: 62a7 2bbd 85af 143e 024b f13d b8e9 0e3e
00000170: e7c3 81bd 3bc2 9bbd 97f6 0dbd 75fe a6bd
00000180: d711 95bd bc8b 91bd ac68 aa3c 0df3 13bd
00000190: 113e 483e 4a6e 4bbe 1c4f c1bd e478 ab3b
000001a0: 8008 70bd 320a 9dbc a1ef 053c b5bb 02bd
000001b0: 8647 1ebe 8f32 a9bd 2a6e b4bd 6a02 0abd
000001c0: 25c7 4f3b 172e efbd 32f7 10be 6b06 61bc
000001d0: 800f 023e 49f7 2dbd c7b7 c83b 86bc a2bd
000001e0: 88a6 0a3d f0eb 72be cffd c93d 8463 35be
000001f0: 6119 1cbe 9b6c d5bd 1d9a b33d f79d 44bc
00000200: fab9 0f3e 6e81 173e e071 1e3c f462 aa3d
00000210: b271 0b3d 1c70 4d3d 5643 9ebd 7cad 983d
00000220: e799 c53d 0fb3 8fbc d395 92bc eac9 04be
00000230: 703c bd3d 617d 543d 09da 803d 5b2f 513d
00000240: ebbd d33d 7d66 b53d f51d 02bd 8cfe d9bd
00000250: e04f 9ebd a421 e5bd 1f0d 1bbd ce8a 13ba
00000260: a9a8 acbd b9d6 31bc 85f7 9e3d 524c 423d
00000270: 20eb 033e ad0d 3cbe 0de5 3d3d 6e2b dabd
00000280: 0f96 4f3c 535b 8d3d c004 d6bd d3e3 e9bd
00000290: 3708 d9bc 18a3 89bd 082e e13d 177d 3cbd
000002a0: cf80 043e abd0 ffbd e1ac 793d 3d00 e53c
000002b0: 4a69 953b c2f7 023e 95cb 15be 01be 803d
000002c0: 17aa 4fbd f422 09be e099 9abc 920b 7cbc
000002d0: a81b 1a3c 3a73 09bd 6458 c33c 1b85 c93d
000002e0: d338 603c 483d bcbd 342b 213e 69e5 10be
000002f0: 9f1c cfbd 53c0 99bd c91f 223e 2b8c 68be
00000300: 40d7 fe3d 05fd 823d 45d1 0dbe ff36 ed3d
00000310: b629 0c3d 4403 85be ea21 81be e1e5 c93d
00000320: 8b1a 573e cc00 473e ac52 3a3e 6627 113e
00000330: 0cdd 823d 2cc3 543e afe8 433e 2361 b1bc
00000340: c519 a8bd 53d6 4dbe e1c3 8d3d 93a6 25ba
00000350: ebc0 473e 49d9 19be 0227 4e3d b9a0 373d
00000360: 59b1 603e 1dcf 67bd 8d97 323d dc44 7cbe
00000370: 5c79 093e 146a 93be ed1a 10be ca11 3c3e
00000380: 3bf2 ab3b 1498 31be 14d0 19be 1619 98bd
00000390: d08d 08be 6ba7 0dbe 3809 58bd 8059 3e3d
000003a0: e645 ae3d e652 4e3d 0864 3b3d ca71 463e
000003b0: bc62 333e 9b79 863d 8251 e8bd c143 093d
000003c0: f3ac 7cbe b8c9 9cbd 1b78 ae3d fda3 1d3e
000003d0: 9000 043e e320 6abd 1fec aa3d 1765 ba3d
000003e0: d03d 163e 05a0 0ebe f9c1 82bc 22bc 533d
000003f0: 2bdf 28be 5488 1abd 5a28 80bd 3a94 e8bd

Encoder.rnn.bias_ih_l1 f4 [256]
-0.14119028 -0.016557598 -0.018336432 -0.049575992 -0.14030585 -0.11819267 0.1258396 -0.06322282
0.15395772 -0.03633282 -0.04731758 -0.0013662381 0.023678616 -0.22895688 0.1345961 -0.058498554
-0.14104249 -0.07745715 -0.050535172 0.037190773 0.061684575 -0.118246794 0.11308648 0.09271743
-0.07971508 0.02401311 -0.0077103307 -0.052378964 0.0020905156 -0.09302354 0.020173242 -0.17527425
-0.122493915 -0.11007721 0.13659523 -0.18077208 -0.069940716 -0.040556315 0.0075678574 0.012085052
-0.08472516 -0.04922906 0.05617584 0.007657988 0.07078703 0.14416488 -0.045156658 -0.031339753
-0.03999162 0.03119962 0.12517834 0.12721702 -0.0010768406 0.08144432 0.0951723 -0.10474011
-0.07840317 -0.0013937515 -0.029124837 -0.06494445 0.042221054 -0.13682123 -0.07762461 0.083384775
-0.26215574 -0.2054542 0.083763815 -0.17205726 0.11786893 0.07038674 0.06086055 0.07879464
0.18585654 -0.03363851 0.06167073 -0.112077914 0.15699455 -0.14204551 -0.106982335 -0.057848446
0.050850708 -0.068219125 0.051708464 0.20266742 -0.0034121508 0.18288171 -0.07706181 -0.016377453
0.24999687 -0.019566039 -0.06634346 0.027227618 -0.03861336 -0.09390741 -0.050501484 0.026274562
0.12162388 0.18067126 -0.1040204 -0.14738466 0.042810205 0.09401338 0.17483948 0.078964666
-0.1595761 0.0024958625 -0.023777936 0.20800692 -0.0709781 0.10398217 -0.03922986 0.030366462
0.12647092 0.038041078 0.17105064 -0.05519273 0.012449753 0.109900616 -0.045561384 0.09440946
-0.030840237 0.09624868 0.12818429 -0.012044474 0.1089336 0.025979934 0.05635725 0.07640558
0.038091972 0.05900196 0.07339442 -0.03738152 -0.045921367 0.033229712 0.13532943 -0.09416895
-0.1242635 -0.10536242 -0.13964221 -0.13830863 0.10632263 0.006105934 -0.10214212 -0.07836302
0.017945176 -0.051558394 0.04597967 -0.09580212 0.07864716 0.08139868 0.041626725 0.18383896
0.0027342346 0.06921919 -0.117407255 0.14848775 -0.04860215 -0.002530121 0.011301381 0.0070235664
-0.041126557 0.10055724 0.12438449 -0.03319917 0.004607102 0.038526043 -0.0133002065 0.020872427
-0.08913933 -0.118548006 0.15040448 -0.017422874 -0.07126878 -0.15504184 -0.011965713 0.11733437
0.03620034 -0.041990697 -0.066588506 -0.12654498 -0.020542527 0.002716148 -0.13342288 0.07647399
-0.021733237 0.020153193 -0.08243216 0.09205227 0.08116612 0.03349942 -0.069726616 0.05379145
-0.15378982 0.09085391 -0.029544381 0.045384012 0.15496151 -0.08456129 0.02211719 -0.010594858
0.16428882 0.058642916 -0.028695492 -0.09255949 -0.11321751 -0.2573604 -0.029950056 -0.03412944
-0.1500499 0.058449306 -0.067369506 0.0839202 -0.06919872 0.08644467 -0.019920668 0.14544535
-0.038731683 0.078967266 -0.017574256 0.04611175 -0.076430015 -0.09463386 0.11285743 -0.015587609
-0.19194177 -0.09633234 0.03738372 -0.03315703 -0.054227285 0.044557273 0.049413227 -0.019235428
-0.10473047 -0.14083731 0.13456401 -0.09635838 -0.062871546 -0.0044287 0.16204861 0.117137484
0.059793334 -0.16349673 -0.06257367 -0.046932515 0.03993479 -0.099719256 -0.11556373 0.013412318
-0.17483865 -0.0158918 0.15231887 -0.061708506 0.11689389 -0.04445605 0.046091955 0.005194521
00000000: 2f94 10be cda3 87bc 4936 96bc 3210 4bbd
00000010: 56ac 0fbe 000f f2bd 19dc 003e f77a 81bd
00000020: 18a7 1d3e b9d1 14bd 14d0 41bd 5813 b3ba
00000030: a8f9 c13c ac73 6abe 8fd3 093e 2e9c 6fbd
00000040: 716d 10be dba1 9ebd f8fd 4ebd 5a55 183d
00000050: f7a8 7c3d 602b f2bd e299 e73d a3e2 bd3d
00000060: a941 a3bd 24b7 c43c f1a6 fcbb 538b 56bd
00000070: 0801 093b 2083 bebd 5b42 a53c 187b 33be
00000080: 17de fabd 2970 e1bd 9fdf 0b3e 511c 39be
00000090: 143d 8fbd 611e 26bd cafb f73b 6200 463c
000000a0: 6284 adbd 69a4 49bd a318 663d dcef fa3b
000000b0: caf8 903d f59f 133e 30f6 38bd 1d5e 00bd
000000c0: 41ce 23bd 5896 ff3c c02e 003e 2e45 023e
000000d0: c624 8dba 48cc a63d b2e9 c23d fc81 d6bd
000000e0: d791 a0bd 8aae b6ba 3697 eebc 9901 85bd
000000f0: fcef 2c3d dd1a 0cbe a7f9 9ebd a3c5 aa3d
00000100: 4739 86be 9662 52be 5d8c ab3d c72f 30be
00000110: 4465 f13d ec26 903d e948 793d 165f a13d
00000120: 2d51 3e3e 89c8 09bd 739a 7c3d 1b89 e5bd
00000130: 2ec3 203e 6174 11be 8e19 dbbd 7ef2 6cbd
00000140: d548 503d 78b6 8bbd 41cc 533d 0c88 4f3e
00000150: 649e 5fbb 5845 3b3e 95d2 9dbd 022a 86bc
00000160: 2eff 7f3e f548 a0bc 14df 87bd 740c df3c
00000170: 0b29 1ebd 8752 c0bd a5da 4ebd c03d d73c
00000180: f115 f93d e301 393e a608 d5bd 01ec 16be
00000190: c159 2f3d 168a c03d 1f09 333e 3ab8 a13d
000001a0: eb67 23be a091 233b f2c9 c2bc c4ff 543e
000001b0: f75c 91bd 9bf4 d43d 7daf 20bd 16c3 f83c
000001c0: 9881 013e f6d0 1b3d e627 2f3e c611 62bd
000001d0: 0cfa 4b3c 9313 e13d 939e 3abd bf59 c13d
000001e0: aaa4 fcbc 071e c53d be42 033e 2f56 45bc
000001f0: 9418 df3d dfd3 d43c dcd6 663d 877a 9c3d
00000200: 5406 1c3d 0aac 713d d04f 963d 5d1d 19bd
00000210: 0b18 3cbd e11b 083d cc93 0a3e a7db c0bd
00000220: dd7d febd 41c8 d7bd 5efe 0ebe c7a0 0dbe
00000230: aebf d93d 4914 c83b e32f d1bd cb7c a0bd
00000240: c301 933c e52e 53bd 2e55 3c3d e733 c4bd
00000250: c311 a13d 5ab4 a63d c980 2a3d 4840 3c3e
00000260: d830 333b cac2 8d3d 3773 f0bd 2c0d 183e
00000270: 0c13 47bd 63d0 25bb 6d29 393c f225 e63b
00000280: 5274 28bd f4f0 cd3d 4cbd fe3d dafb 07bd
00000290: 2cf7 963b 7ccd 1d3d 1ce9 59bc a7fc aa3c
000002a0: ae8e b6bd 4cc9 f2bd a203 1a3e 6aba 8ebc
000002b0: 5ef5 91bd 4ac3 1ebe d70b 44bc 014d f03d
000002c0: cf46 143d 70fe 2bbd 8e5f 88bd 0295 01be
000002d0: cd48 a8bc 6701 323b 02a0 08be 659e 9c3d
000002e0: e709 b2bc 4f18 a53c 31d2 a8bd e785 bc3d
000002f0: 6c3a a63d b036 093d d4cc 8ebd 6c54 5c3d
00000300: 147b 1dbe 9d11 ba3d 0f07 f2bc 96e4 393d
00000310: 3bae 1e3e 782e adbd 1c2f b53c 0e96 2dbc
00000320: 543b 283e 8e33 703d cf12 ebbc d48f bdbd
00000330: 95de e7bd bec4 83be d259 f5bc 50cb 0bbd
00000340: aea6 19be 8a68 6f3d 06f9 89bd 5bde ab3d
00000350: 0fb8 8dbd e709 b13d ab30 a3bc a0ef 143e
00000360: 1da5 1ebd 97b9 a13d e3f7 8fbc addf 3c3d
00000370: 5787 9cbd 66cf c1bd cc21 e73d 2c63 7fbc
00000380: 628c 44be e449 c5bd ac1f 193d aacf 07bd
00000390: 6e1d 5ebd b081 363d 8665 4a3d 9e93 9dbc
000003a0: ee7c d6bd a837 10be 26cb 093e 8b57 c5bd
000003b0: ccc2 80bd a11e 91bb 12f0 253e c7e5 ef3d
000003c0: dbe9 743d b06b 27be a026 80bd 4f3c 40bd
000003d0: aa92 233d 9c39 ccbd adac ecbd 57bf 5b3c
000003e0: e708 33be 852f 82bc 7af9 1b3e 0fc2 7cbd
000003f0: 1066 ef3d 8c17 36bd ebca 3c3d cd36 aa3b
