model_OpenChem_REGRESSION.pth (torch, 442875 bytes, 39 tensors)

Encoder.graph_convolutions.0.weight f4 [33, 128]
0	0xbd8cedb7	-0.06881278
1	0xbdbe5207	-0.09292989
2	0x3d9601fb	0.073245965
3	0x3d343533	0.043996047
4	0xbd3c7b2e	-0.04601591
5	0x3beb231a	0.0071758153
6	0x3da3399f	0.07969975
7	0xbd9fbb59	-0.077994056
8	0xbca87962	-0.020565692
9	0xbba2de1a	-0.004970324
10	0xbd5b5db2	-0.05355615
11	0xbd220114	-0.03955181
12	0x3d52fe93	0.051512312
13	0x3d9c348c	0.0762721
14	0x3ba51d6c	0.0050389078
15	0x3ce0c763	0.027438825
16	0x3ddad9b5	0.106860556
17	0xbcac66b8	-0.021045074
18	0xbbbc0e34	-0.005738998
19	0x3d931b2c	0.07182917
20	0xbbcfcb37	-0.006341364
21	0x3d86320d	0.06552515
22	0x3d0e0ab8	0.03467819
23	0xbcdf7744	-0.02727855
24	0x3d30dce3	0.043179404
25	0xbda59eb9	-0.080869146
26	0xbc611b5f	-0.013739436
27	0x3c40553c	0.011739071
28	0xbca529d4	-0.020161547
29	0x3d9334a7	0.07187777
30	0x3bcaa982	0.0061847577
31	0xbdc80793	-0.0976707
32	0xbc13c4f5	-0.009019126
33	0xbc792c59	-0.015208327
34	0xbca9e903	-0.020740991
35	0xbcdce1ee	-0.0269632
36	0xbd3ddcbd	-0.04635309
37	0x3dee7ddc	0.116450995
38	0x3c74c5d3	0.014939743
39	0x3d9b8f17	0.075956516
40	0x3d9fcff6	0.07803337
41	0xbd924d77	-0.071436815
42	0x3d402c86	0.04691746
43	0xbddfc665	-0.10926513
44	0x3a065190	0.0005123848
45	0x3c3895ce	0.011266185
46	0xbd432b90	-0.047648966
47	0x3b882fda	0.004156095
48	0xbd9aba1c	-0.07555029
49	0x3cbd4ce3	0.023107952
50	0x3d999ba2	0.07500388
51	0xbd540c24	-0.05176939
52	0xbc0bc0c3	-0.008529845
53	0xbd4f8146	-0.050660394
54	0x3d8ca704	0.06867793
55	0x3d24cf30	0.040236652
56	0xbc4c55e7	-0.012471653
57	0x3ca278f1	0.01983306
58	0xbd75b8d1	-0.059990708
59	0x3d251546	0.04030349
60	0x3b695b51	0.0035607407
61	0xbd1a9c2c	-0.037746593
62	0xbd9c937f	-0.0764532
63	0x3d21706d	0.03941386
64	0xbcdf2cf7	-0.02724312
65	0x3cf3f495	0.029779712
66	0xbd8312f7	-0.06400102
67	0x3cc85952	0.024456654
68	0xbcb73f2f	-0.022368995
69	0x3d57fdd7	0.052732315
70	0x3d7a160e	0.06105619
71	0x3c7e711e	0.015529899
72	0xbdb5210b	-0.08844193
73	0xbccaf615	-0.024775544
74	0xbd36ccb2	-0.044628806
75	0xbc20cb6f	-0.009814127
76	0x3c482e3c	0.012218054
77	0x3d8d880f	0.06910717
78	0xbc2867d0	-0.010278657
79	0x3cdcb3fb	0.02694129
80	0xbd2603b9	-0.040530894
81	0x3c8a7cf4	0.016905285
82	0xbc3d5cef	-0.011557802
83	0x3d97fe9d	0.074216105
84	0xbd9173bb	-0.07102152
85	0xbd887d47	-0.0666452
86	0xbc335bfd	-0.010947225
87	0x3d403e9e	0.046934716
88	0x3cf16890	0.029468805
89	0x3d8c6bd3	0.06856503
90	0x3cdc1d25	0.026869366
91	0x3d9d3b04	0.07677272
92	0x3b831c44	0.0040011723
93	0xbd78023e	-0.060549013
94	0xbcc4959a	-0.023997117
95	0x3d02465e	0.03180539
96	0x3c80649a	0.01567297
97	0xbc1454ac	-0.0090533905
98	0x3db59498	0.08866233
99	0x3d6801b1	0.056642238
100	0xbda80fe9	-0.082061596
101	0xbc8c1936	-0.017101865
102	0x3dbf0270	0.09326637
103	0xbc9cab3b	-0.019124618
104	0x3d9ff526	0.0781043
105	0x3d90c224	0.070682794
106	0xbdb65e68	-0.08904725
107	0xbb6e0abf	-0.0036322323
108	0x3d541052	0.051773377
109	0x3c8bf86f	0.017086236
110	0x3d834925	0.064104356
111	0xbca8c602	-0.02060223
112	0x3d81a8d1	0.06331027
113	0x3d48f127	0.049058106
114	0xbcaedd3b	-0.021345725
115	0x3d2e4d2b	0.04255406
116	0xbc68b9ef	-0.014204486
117	0xbc63fb4d	-0.013914895
118	0xbd58b1c5	-0.05290391
119	0x3d9e0dd6	0.07717483
120	0x3c9f7386	0.019464266
121	0xbc47cfac	-0.012195509
122	0xbceda97a	-0.029011477
123	0x3d8b8e68	0.06814271
124	0xbbff230a	-0.0077861594
125	0xbc3cda2c	-0.011526626
126	0xbd581541	-0.052754644
127	0x3d9ff254	0.07809892
128	0x3e164efb	0.14678566
129	0x3da8cc79	0.08242125
130	0xbd443498	-0.04790172
131	0x3db08721	0.08619524
132	0x3df53794	0.11973491
133	0xbac7009b	-0.0015182676
134	0xbde68228	-0.11255294
135	0xbd3147a8	-0.043281227
136	0xbde04adf	-0.109517805
137	0xbdd9b89d	-0.10630915
138	0xbd3b25cd	-0.045690347
139	0xbc50b1bb	-0.012737687
140	0xbdf71158	-0.12063855
141	0x3d8d0464	0.06885603
142	0x3d62906c	0.055313513
143	0x3e0d52aa	0.13801065
144	0x3d8c4a34	0.068500906
145	0x3c99ff3b	0.018798461
146	0xbdbe23e7	-0.092841916
147	0x3cc49bd1	0.02400008
148	0x3daae539	0.08344502
149	0x3c90d74c	0.017680787
150	0xbc285312	-0.010273712
151	0x3de4186f	0.11137473
152	0x3aac99cd	0.0013168395
153	0xbcbb3973	-0.022854542
154	0x3daef3d5	0.08542601
155	0xbcbd2a30	-0.023091406
156	0x3d475017	0.048660364
157	0x3ca048a5	0.01956589
158	0x3c899138	0.016792879
159	0xbdb8c8a4	-0.09022644
160	0xbc5ed8a7	-0.013601459
161	0x3d7c69f9	0.0616245
162	0xbd46a0f1	-0.04849333
163	0xbc9b5d6e	-0.01896545
164	0xbd440da1	-0.04786456
165	0x3d684e12	0.05671508
166	0x3d963260	0.07333827
167	0x3ccdfdc7	0.025145425
168	0xbcc7fd28	-0.024412706
169	0xbd0e9aa7	-0.034815457
170	0xbdb6017d	-0.088870026
171	0x3d25073c	0.040290102
172	0x3dd49f0d	0.10381899
173	0x3d448d31	0.047986213
174	0xbdcb117f	-0.099154465
175	0x3d364612	0.044500418
176	0xbde4db57	-0.11174648
177	0xbd999bc4	-0.07500413
178	0x3dd95c1a	0.1061327
179	0x3d3d0566	0.046147726
180	0xbde793ec	-0.11307511
181	0x3d1fa908	0.03897956
182	0x3d325130	0.043534458
183	0x3cf9a05b	0.030471971
184	0x399d99df	0.00030060016
185	0x3dd1bc6f	0.10241019
186	0x3d0ecca1	0.034863118
187	0x3c3373b4	0.010952879
188	0x3d7af837	0.061271872
189	0xbd40b442	-0.047046907
190	0xbc45f8b4	-0.012083221
191	0xbdc9dafa	-0.098562196
192	0x3d4b4ae1	0.049631957
193	0xbdbf126e	-0.09329687
194	0xbda16c9f	-0.07882046
195	0x3d8b990d	0.068163015
196	0xbc28116e	-0.010258062
197	0xbe0707ec	-0.13186616
198	0xbd14efd7	-0.03636154
199	0xbd892e43	-0.06698277
200	0xbd99bc86	-0.07506661
201	0xbd4ce6d8	-0.050024837
202	0xbdb4f8fa	-0.08836551
203	0xbd39103c	-0.045181498
204	0xbcc3243c	-0.023820989
205	0x3cdc1e36	0.026869874
206	0x3a7d0db1	0.0009653224
207	0xbb6d0b72	-0.0036170152
208	0x3bdba757	0.006703298
209	0xbcef29e4	-0.02919478
210	0xbc82de5d	-0.015975172
211	0x3d865bc5	0.065604724
212	0x3c17851f	0.009248047
213	0x3d002faa	0.031295456
214	0x3cf09cda	0.029371668
215	0x3d0dcb05	0.034617443
216	0x3d8b7d12	0.06810965
217	0xbd5ae965	-0.05344524
218	0x3ce62608	0.028094307
219	0xbcdeb580	-0.027186155
220	0x3d6cb4e4	0.0577897
221	0x3cc00649	0.023440497
222	0x3c48e531	0.012261675
223	0xbd4120f5	-0.04715057
224	0xbd38d59c	-0.04512559
225	0x3c4554d3	0.012044149
226	0x3de371a2	0.11105658
227	0xbd50fd43	-0.05102278
228	0x3ae8957c	0.0017744745
229	0x3c1b1704	0.009465937
230	0x3d158c27	0.036510613
231	0xbb98e645	-0.004666122
232	0x3d547dee	0.05187791
233	0x3e32b5a8	0.17452109
234	0x3d716430	0.058933437
235	0xbd9feee6	-0.07809238
236	0x3d989e3e	0.07452057
237	0xbdde9bb9	-0.108695455
238	0xbbd667a9	-0.006543119
239	0xbd9cea79	-0.076619096
240	0xbd1ebb88	-0.038753062
241	0xbca3d963	-0.020001119
242	0x3d9b2ee7	0.07577305
243	0x3c8a2329	0.016862469
244	0x3b15af82	0.0022840207
245	0xbd357894	-0.044304445
246	0xbd6c0758	-0.05762419
247	0xbcfb3dd4	-0.03066913
248	0x3cf4f298	0.029900834
249	0x3d15e5a1	0.036595944
250	0x3e2d2814	0.1690982
251	0x3dc74faf	0.09731995
252	0x3c675583	0.014119509
253	0xbd03e388	-0.032199413
254	0xbd591edd	-0.05300795
255	0x3cd4230d	0.02589562

Encoder.graph_convolutions.0.bias f4 [128]
0	0xbdee51ce	-0.11636697
1	0x3dab943e	0.08377884
2	0x3dc39fcf	0.095519654
3	0xbb8517f1	-0.004061692
4	0xbcb5fad4	-0.02221433
5	0x3cfca575	0.030840615
6	0x3d5d1948	0.05397919
7	0xbd75b786	-0.059989475
8	0xbe0a2687	-0.1349126
9	0xbc98ad9d	-0.018637473
10	0x3c92685d	0.01787203
11	0x3d67ff82	0.056640156
12	0xbd4fa7c5	-0.050697107
13	0xbda88894	-0.08229175
14	0xbc17133b	-0.0092208935
15	0x3c1fe372	0.009758817
16	0xbd736b4b	-0.059428494
17	0xbd248ee1	-0.040175322
18	0xbd33a222	-0.043855794
19	0xbd429200	-0.047502518
20	0xbdaab4c9	-0.08335263
21	0xbd1c19aa	-0.038110413
22	0xbd996373	-0.074896716
23	0xbde08fd3	-0.10964932
24	0x3d832731	0.064039595
25	0x3d9d3779	0.07676596
26	0x3d9d2d5b	0.076746665
27	0xbcd59f34	-0.02607689
28	0xbd2f2c84	-0.042767063
29	0x3d8318ba	0.064012006
30	0x3d921ce8	0.0713442
31	0xbdd05aba	-0.10173555
32	0xbcb09d5f	-0.021559415
33	0xbb5b37a8	-0.0033449922
34	0xbd3023b1	-0.043002788
35	0x3d8045fd	0.06263349
36	0x3b97a624	0.00462796
37	0xba804700	-0.0009786785
38	0x3dddd7fb	0.10832211
39	0x3d18bce9	0.037289534
40	0x3b9808ab	0.004639705
41	0x3d1e6bdd	0.038677085
42	0x3dd98bf5	0.10622398
43	0xbd7187bd	-0.05896734
44	0xba81495b	-0.000986378
45	0xbdda00f4	-0.10644713
46	0x3d3cad45	0.04606368
47	0x3d7f1fe8	0.062286288
48	0x3db9477e	0.09046839
49	0x3db8a241	0.090153225
50	0x3d0931cf	0.033494767
51	0x3dcbc5fa	0.099498704
52	0x3d797eb4	0.06091185
53	0xbd13b770	-0.03606361
54	0xbd55f505	-0.052235622
55	0xbd0dd709	-0.0346289
56	0x3dcea5fe	0.10090254
57	0x3ced2d3e	0.028952237
58	0xbd1e64cd	-0.03867035
59	0xbde1c31d	-0.11023543
60	0x3dacc57b	0.08436104
61	0xbca493ca	-0.020090003
62	0xbd6479f8	-0.05578038
63	0x3d5b8fad	0.053603817
64	0xbd98b5b6	-0.074565336
65	0xbd3c9f1c	-0.046050176
66	0xbdbe9cc2	-0.09307243
67	0xbd6c5fe2	-0.05770863
68	0xbd4fd508	-0.05074027
69	0xbcada3ee	-0.021196332
70	0x3d007adc	0.031367168
71	0xbc1b0b93	-0.009463209
72	0xbd810b1b	-0.06300946
73	0x3c43520f	0.01192142
74	0x3d7cf98e	0.06176143
75	0x3ce2aaa1	0.027669253
76	0xbd9d5a20	-0.076832056
77	0x3d4ee68d	0.05051284
78	0xbcabf1e1	-0.02098936
79	0x3d1a87c8	0.037727147
80	0xbc1dba45	-0.00962693
81	0x3d74029e	0.05957281
82	0x3aa9c4ec	0.0012952364
83	0x3d063a30	0.032770336
84	0xbd2c8799	-0.042121504
85	0x3cd8cd20	0.026464999
86	0x3d8efb40	0.06981516
87	0xbd64f022	-0.05589307
88	0x3d4c0834	0.04981251
89	0xbb84c1ab	-0.0040514073
90	0x3cc75132	0.02433071
91	0xbd69ae9b	-0.057051282
92	0xbd8eaa66	-0.06966095
93	0x3d7a22a8	0.061068207
94	0xbd1ab19a	-0.03776703
95	0xba46823f	-0.0007572509
96	0xbd90d5c3	-0.07072022
97	0xbc882292	-0.016618047
98	0xbd83eb75	-0.06441394
99	0x3c9eaf6f	0.019370763
100	0x3d121f6f	0.03567451
101	0xbc35ed53	-0.011103946
102	0xbcc24b91	-0.023717673
103	0x3bfd3812	0.0077276314
104	0xbcb76421	-0.022386612
105	0x3dd2d6d7	0.10294884
106	0x3cf8b6dc	0.030360632
107	0xbd2f2fff	-0.042770382
108	0xbcfeb04d	-0.031089926
109	0x3ccd22b5	0.025040964
110	0xbc9c64b5	-0.01909099
111	0x3bb2c256	0.0054552956
112	0xbd48df33	-0.049040984
113	0x3d8ade1f	0.067806475
114	0xbdf03327	-0.117285065
115	0x3da73d42	0.08165981
116	0xbd0cdb6e	-0.034388952
117	0xbd99a1bf	-0.07501554
118	0x3cb2214f	0.021744398
119	0xbdcdffc1	-0.10058547
120	0x3d28b233	0.04118557
121	0x3cf8e97b	0.03038477
122	0x3b7c9b6a	0.0038544782
123	0xbbcef25f	-0.006315514
124	0x3d16ca13	0.036813807
125	0xbd9b0327	-0.07568961
126	0x3b8039c6	0.003913137
127	0x3d231672	0.039816327

Encoder.graph_convolutions.0.bn.weight f4 [128]
0	0x3f7213e8	0.94561625
1	0x3f8282ca	1.0196164
2	0x3fa6d772	1.3034499
3	0x3f96802d	1.1757866
4	0x3f6c93ac	0.9241283
5	0x3f9a2bc3	1.2044605
6	0x3fb17057	1.3862408
7	0x3f8e67be	1.112541
8	0x3f9df200	1.2339478
9	0x3f842706	1.0324409
10	0x3f8df73b	1.1091074
11	0x3f82491c	1.0178561
12	0x3f7dbdcc	0.9911773
13	0x3f8e5d49	1.1122218
14	0x3f962d2d	1.1732537
15	0x3f87ee93	1.0619682
16	0x3fa40978	1.281539
17	0x3f99a990	1.2004871
18	0x3f805611	1.0026265
19	0x3f93f372	1.1558669
20	0x3f9f83e9	1.2462131
21	0x3f7765b5	0.9663957
22	0x3f84d472	1.0377333
23	0x3f931d95	1.1493403
24	0x3f7b8331	0.9824706
25	0x3f724d16	0.94648874
26	0x3f8d9bd4	1.106318
27	0x3f82dd5e	1.0223806
28	0x3f8f6559	1.1202804
29	0x3f7f9d10	0.99849033
30	0x3f9f252a	1.2433217
31	0x3f83c38b	1.029405
32	0x3f8e72fa	1.1128838
33	0x3f9238c7	1.1423577
34	0x3f8777e1	1.0583459
35	0x3f845334	1.0337892
36	0x3f94010c	1.156282
37	0x3f88fe93	1.070269
38	0x3f82bb94	1.0213494
39	0x3f7ddf96	0.9916929
40	0x3f84ec1e	1.0384557
41	0x3f74606d	0.95459634
42	0x3f8b34e2	1.0875514
43	0x3f8343ab	1.0255026
44	0x3f92c867	1.1467408
45	0x3f8be4d5	1.0929209
46	0x3f89a7a4	1.0754285
47	0x3f8f086c	1.1174445
48	0x3f92f727	1.1481675
49	0x3f83b786	1.0290382
50	0x3f8301ba	1.0234902
51	0x3f85219a	1.0400879
52	0x3f8dac64	1.1068234
53	0x3f8f14b3	1.1178192
54	0x3f8a93c4	1.0826344
55	0x3f887d02	1.0663149
56	0x3f82196e	1.016401
57	0x3f7e3168	0.9929414
58	0x3f80bc47	1.0057458
59	0x3fb21dac	1.3915305
60	0x3f91040d	1.1329361
61	0x3f8761d7	1.0576733
62	0x3f8dcd75	1.1078326
63	0x3f8d98d1	1.1062261
64	0x3f8267c1	1.0187913
65	0x3f8132a8	1.0093584
66	0x3f8a40b5	1.0800997
67	0x3f9749e8	1.1819429
68	0x3f7898a5	0.9710792
69	0x3f92fd37	1.1483525
70	0x3f654a1f	0.89566225
71	0x3f70c14f	0.94044966
72	0x3f956704	1.1672063
73	0x3f88cf32	1.0688231
74	0x3f9386fe	1.1525571
75	0x3f95eaa5	1.1712233
76	0x3f9e960d	1.2389542
77	0x3f89940b	1.0748304
78	0x3f91f47a	1.1402733
79	0x3f8bd4e5	1.0924345
80	0x3f800000	1.0
81	0x3f91e1b7	1.1397008
82	0x3f89020a	1.0703747
83	0x3f7888dd	0.97083837
84	0x3f816e6c	1.0111823
85	0x3f90dccc	1.1317382
86	0x3f949b26	1.1609848
87	0x3f7b81a3	0.98244685
88	0x3f84d09f	1.0376166
89	0x3f9f7b80	1.2459564
90	0x3f92566d	1.1432625
91	0x3fa27246	1.2691123
92	0x3fa2175b	1.2663378
93	0x3f7e4d8f	0.99337095
94	0x3f8c7160	1.0972099
95	0x3fb27f40	1.3945084
96	0x3f7e3f9b	0.99315804
97	0x3f93b155	1.1538492
98	0x3f9ea8bc	1.2395244
99	0x3f928da2	1.1449473
100	0x3f8236ab	1.0172933
101	0x3f8f80ba	1.1211159
102	0x3f962822	1.1730998
103	0x3f6ffafa	0.93742335
104	0x3f8f9c73	1.121962
105	0x3f7ea541	0.9947091
106	0x3f8ae3c0	1.0850754
107	0x3f7c5c66	0.9857849
108	0x3f6ac8fb	0.9171292
109	0x3f78190f	0.96913236
110	0x3f780913	0.96888846
111	0x3f7ae5a7	0.9800667
112	0x3f8b8b7c	1.0901942
113	0x3f8705c7	1.0548638
114	0x3f95d828	1.1706591
115	0x3f949001	1.1606447
116	0x3f7617b1	0.961299
117	0x3f8a43f3	1.0801986
118	0x3f7d843b	0.9902989
119	0x3f8d2ba8	1.1028948
120	0x3f9771c5	1.1831595
121	0x3f862470	1.047987
122	0x3f732588	0.94979143
123	0x3f6176f4	0.88072133
124	0x3f828c31	1.0199033
125	0x3f800000	1.0
126	0x3f8ad084	1.0844884
127	0x3f854799	1.0412475

Encoder.graph_convolutions.0.bn.bias f4 [128]
0	0xbda3884c	-0.07984981
1	0xbc175e85	-0.009238844
2	0x3d84ea2b	0.064899765
3	0xba95baf2	-0.0011423512
4	0xbda9d84c	-0.082932085
5	0x3dd43905	0.10362438
6	0x3deb683e	0.11494492
7	0x3cccfcad	0.025022829
8	0x3dc2dbe7	0.09514599
9	0xbdcd5fad	-0.10028014
10	0x3d5a823c	0.053346857
11	0x3ceeacf4	0.029135205
12	0xbc5f4d99	-0.013629341
13	0x3bc3c8ee	0.0059748804
14	0x3d1eb3e3	0.038745772
15	0x3d3a2907	0.045449283
16	0x3e2e8da1	0.17046215
17	0x3df28f66	0.11843757
18	0x3ca0ec99	0.019644069
19	0x3db6e07c	0.08929536
20	0x3e0bebcc	0.13664168
21	0xbd67e18b	-0.05661158
22	0xbc926b72	-0.0178735
23	0x3cb2aa56	0.021809738
24	0xbc2dc47f	-0.01060593
25	0xbd93a09a	-0.07208367
26	0xbc2b8133	-0.010467815
27	0xbc64336d	-0.0139282765
28	0xbd035fff	-0.03207397
29	0xbadf1f91	-0.0017022957
30	0xbe689d90	-0.22716355
31	0x3cee403a	0.02908336
32	0x3d9d8748	0.076918185
33	0x3d0895e6	0.03334608
34	0x3d4395af	0.04775017
35	0xbc9ee22f	-0.019394962
36	0x3e669446	0.225175
37	0x3ce142e2	0.027497713
38	0xbd158618	-0.036504835
39	0xbc555efa	-0.013023132
40	0x3bba2d81	0.005681694
41	0xbd24faf9	-0.04027841
42	0xbd591d8f	-0.053006705
43	0xbd0cc8da	-0.034371234
44	0x3cc201a8	0.02368243
45	0x3cd1a530	0.025591463
46	0xbc2e6976	-0.010645261
47	0x3c6fb3c6	0.014630264
48	0x3e2f380c	0.17111224
49	0xbc65fba9	-0.014037051
50	0xbd6ed648	-0.058309823
51	0xbdf2a0d8	-0.11847085
52	0x3d0baf71	0.03410286
53	0x3de19264	0.1101425
54	0x3c84ce31	0.016211601
55	0xba117f96	-0.0005550323
56	0xbd0aac90	-0.033855975
57	0x3c4e6b17	0.012598774
58	0x3c2e139d	0.010624793
59	0x3e0dcf46	0.138486
60	0x3d7e57a1	0.06209529
61	0xbb0d1cb3	-0.0021531999
62	0x3d4b1785	0.049582977
63	0xbd28b73f	-0.041190382
64	0xbd83f50a	-0.06443222
65	0xbc081a15	-0.008307
66	0x3cb23427	0.021753384
67	0x3ded58b7	0.11589187
68	0xbcf913e9	-0.030405002
69	0x3e18cf16	0.14922747
70	0xbdc13ed4	-0.09435812
71	0xbd8df18a	-0.069308355
72	0x3d5c3b02	0.05376721
73	0xbe0aa9c6	-0.13541326
74	0xbcb783fb	-0.0224018
75	0x3e3de3fc	0.18544
76	0x3d9353c8	0.071937144
77	0x3bff087a	0.007782993
78	0x3e215a92	0.15757206
79	0x3d5ff26c	0.05467455
80	0x00000000	0.0
81	0x3d2448e4	0.040108576
82	0x3d094f20	0.033522725
83	0xbbc13ee7	-0.005897391
84	0xbc9c14a3	-0.01905281
85	0xbba068ac	-0.0048952904
86	0x3d3f1327	0.046649124
87	0xbc005a93	-0.007834095
88	0x3d00b9d9	0.031427238
89	0x3e0a2d95	0.1349395
90	0x3b775864	0.0037741894
91	0x3dd4e4fa	0.10395236
92	0x3e05099c	0.12991947
93	0xbc31f961	-0.010862679
94	0x3def8685	0.116955794
95	0x3df4cdb2	0.11953296
96	0x3cc1769d	0.02361613
97	0x3bef1107	0.007295731
98	0x3dd3a84d	0.10334835
99	0x3d0679c3	0.032830965
100	0x3c904c95	0.017614642
101	0x3cd84b55	0.026403109
102	0xbd1ad94f	-0.037804898
103	0xbd66ec1c	-0.056377515
104	0x3d660729	0.056159172
105	0xbc74f7b0	-0.014951631
106	0xbe206974	-0.15665227
107	0xbc1254b6	-0.0089313295
108	0xbda4e4e8	-0.08051473
109	0xbc9f53f7	-0.019449217
110	0xbd3e05e0	-0.04639232
111	0xbc896e76	-0.016776305
112	0xbc8561c4	-0.01628197
113	0xbccbb5fd	-0.024867052
114	0x3dc41dbe	0.09575985
115	0x3e147a05	0.14499672
116	0xbdb6a1f3	-0.08917608
117	0xbbbfb21e	-0.0058500906
118	0xbc8983a5	-0.016786406
119	0x3d1287bd	0.03577398
120	0x3dfeffeb	0.12451156
121	0xbccb2a6f	-0.024800507
122	0xbd993f96	-0.07482831
123	0xbdd414e4	-0.10355547
124	0x3d0bd299	0.03413639
125	0x00000000	0.0
126	0xbd29f362	-0.041491874
127	0xbc28b6da	-0.010297501

Encoder.graph_convolutions.0.bn.running_mean f4 [128]
0	0xbc7ecd51	-0.015551881
1	0x3c99244d	0.018694067
2	0x3e16415d	0.14673372
3	0xbca2064d	-0.019778395
4	0x3d8fe247	0.07025581
5	0xbb4a7b90	-0.0030896403
6	0x3cceecc6	0.025259387
7	0xbdf93f25	-0.12170247
8	0xbdd97143	-0.10617306
9	0x3cf81b0e	0.030286338
10	0xbca657eb	-0.020305594
11	0x3d644934	0.055733874
12	0x3d5ce9c4	0.053933874
13	0xbe293483	-0.16523938
14	0xbd726ce8	-0.059185892
15	0xbc2314a3	-0.009953651
16	0xbe09e9de	-0.1346812
17	0xbe5cf6e8	-0.21578562
18	0xbdf4281e	-0.11921714
19	0xbe103c8e	-0.140856
20	0xbd9a4a49	-0.075337
21	0x3cef789f	0.029232321
22	0xbdc901ce	-0.09814797
23	0xbdd04638	-0.10169643
24	0xbc7b43cd	-0.015335989
25	0x3e46b1a9	0.1940371
26	0x3dc24d2c	0.094873756
27	0xbbef7663	-0.007307814
28	0xbdcfebc5	-0.10152391
29	0xbcb4e0c8	-0.02207984
30	0x3c7fd340	0.015614331
31	0xbd508fb9	-0.050918315
32	0xbd977241	-0.07394839
33	0x3ba71114	0.0050984714
34	0x3c444085	0.011978273
35	0x3d8c50a9	0.06851322
36	0xbdbc13fa	-0.09183498
37	0xbd01a546	-0.031651758
38	0x3dc9f822	0.09861781
39	0xbd93dd61	-0.07219959
40	0xbd2d2279	-0.042269204
41	0x3d60a8ab	0.054848354
42	0x3e411658	0.1885618
43	0xbd715648	-0.058920175
44	0xbd866f4c	-0.06564197
45	0xbd932163	-0.071841024
46	0x3cb10262	0.021607582
47	0x3d8cf934	0.06883469
48	0xbcd88b20	-0.026433527
49	0x3d8c8357	0.068609886
50	0x3d92d63f	0.071697704
51	0x3de0017d	0.10937784
52	0x3e316bc9	0.17326273
53	0xbd8c8233	-0.06860771
54	0xbda5f3c9	-0.08103139
55	0xbcf09778	-0.0293691
56	0x3dd22775	0.10261432
57	0xbc8b9429	-0.017038422
58	0x3dc21882	0.09477331
59	0xbdc1a16e	-0.094546184
60	0x3d69db76	0.05709406
61	0xbe031998	-0.12802732
62	0xbd5d89d1	-0.05408651
63	0x3d93db1f	0.072195284
64	0xbdc5d979	-0.0966062
65	0xbd8e2aaf	-0.06941735
66	0xbe125b8d	-0.14292736
67	0xba4b582f	-0.0007756976
68	0xbd98df34	-0.074644476
69	0xbe03a4a7	-0.12855779
70	0x3e1dc309	0.15406431
71	0x3c5b2309	0.013375052
72	0xbdacda98	-0.08440131
73	0xbd204832	-0.03913135
74	0x3c82a68f	0.015948562
75	0xbda1ab11	-0.078939565
76	0xbd59f57d	-0.05321263
77	0x3ddac9f2	0.10683049
78	0xbdcd855e	-0.100352034
79	0x3b5d46b9	0.0033764078
80	0xbda74f2e	-0.08169399
81	0x3d8c5647	0.068523936
82	0xbb51053a	-0.0031893984
83	0x3dcac164	0.099001676
84	0xbd07ab03	-0.033122074
85	0xbca05f1b	-0.0195766
86	0xbd5b4b06	-0.053538345
87	0x3d0486ce	0.032355122
88	0x3d6a52d7	0.05720791
89	0x3d2ec972	0.042672582
90	0x3a702f39	0.000916231
91	0xbd3c16d5	-0.04592021
92	0xbd64531c	-0.05574332
93	0xbd7caad0	-0.061686337
94	0xbd9dad75	-0.076991
95	0x3d93d360	0.07218051
96	0xbe20c359	-0.15699519
97	0x3bc12d81	0.005895317
98	0xbe0fdb3b	-0.14048474
99	0x3d440e2d	0.04786508
100	0x3e0b1ffe	0.13586423
101	0xbd1e8146	-0.038697504
102	0x3a125b6e	0.0005583082
103	0x3deedf37	0.116636686
104	0xbd20abaa	-0.03922621
105	0x3e020508	0.12697232
106	0xbc9e8fac	-0.019355617
107	0xbda04e0f	-0.078273885
108	0x3d59f1c5	0.053209085
109	0x3c23d698	0.009999894
110	0x3d165e12	0.036710806
111	0x3dbe6987	0.092974715
112	0xbde2e4bd	-0.110787846
113	0x3d8c0764	0.06837347
114	0xbe4c4546	-0.199483
115	0x3d870d6b	0.06594356
116	0x3dd2be69	0.10290224
117	0xbcfbeb84	-0.030751951
118	0xbda36a75	-0.079792894
119	0xbe6e9a8c	-0.23301142
120	0xbd8788a2	-0.066178575
121	0xbd984cad	-0.074365
122	0x3cddcaa7	0.027074171
123	0x3de67163	0.112520956
124	0x3e0a4bca	0.13505474
125	0xbe570229	-0.20996918
126	0xbd350724	-0.044196263
127	0xbdceabcf	-0.10091364

Encoder.graph_convolutions.0.bn.running_var f4 [128]
0	0x3d666a22	0.05625356
1	0x3d039a0d	0.032129336
2	0x3c8ab13e	0.016930219
3	0x3b548819	0.0032429753
4	0x3d4eb0be	0.050461523
5	0x3c1793a8	0.009251513
6	0x3c97a003	0.018508917
7	0x3c9ffc18	0.019529387
8	0x3c618fc0	0.013767183
9	0x3c8b590b	0.017010232
10	0x3c8d47c8	0.017246142
11	0x3b65d444	0.0035069147
12	0x3d4f0e06	0.050550483
13	0x3d2ec2c8	0.042666227
14	0x3c3e3dc2	0.011611404
15	0x3c0529d6	0.00812765
16	0x3cef496d	0.029209817
17	0x3e27c35b	0.16383116
18	0x3cf8d696	0.03037576
19	0x3d49f9ec	0.04931061
20	0x3c08e961	0.008356423
21	0x3cf74858	0.030185863
22	0x3c1c239d	0.009529975
23	0x3d6b7efa	0.05749414
24	0x3cdbb923	0.026821679
25	0x3d851606	0.06498341
26	0x3b86bb2e	0.004111669
27	0x3c112bcc	0.00886054
28	0x3ce44f25	0.02786977
29	0x3d0ef437	0.03490087
30	0x3cb7c674	0.022433497
31	0x3d3272e3	0.043566596
32	0x3c5a7e4b	0.013335775
33	0x3bf3b42a	0.0074372487
34	0x3cdcbe14	0.026946105
35	0x3c1aea28	0.009455241
36	0x3d5bb708	0.05364135
37	0x3ca35852	0.019939575
38	0x3bb5780c	0.0055379923
39	0x3d55d8ab	0.052208584
40	0x3c7ea381	0.015541912
41	0x3b8a436d	0.0042194636
42	0x3d8d088a	0.06886394
43	0x3cc12b4e	0.02358022
44	0x3cc71516	0.024302047
45	0x3c6fe4ff	0.014641999
46	0x3c899a63	0.01679725
47	0x3c0d830a	0.008637199
48	0x3d908f4c	0.07058582
49	0x3c711a11	0.014715687
50	0x3c9ba26c	0.018998347
51	0x3c3312fa	0.010929817
52	0x3d7f95a7	0.06239858
53	0x3c2b42a3	0.010452899
54	0x3baa6121	0.005199567
55	0x3c531c54	0.012885172
56	0x3a8b9723	0.0010649901
57	0x3d251d11	0.040310923
58	0x3d9f91c7	0.07791477
59	0x3c8cc93b	0.017185798
60	0x3c7d7c43	0.015471521
61	0x3d4d5142	0.05012632
62	0x3c8665f7	0.016406043
63	0x3be7a7eb	0.007069578
64	0x3c66039a	0.014038945
65	0x3c6053f4	0.013691891
66	0x3c813b47	0.015775336
67	0x3c91ca93	0.01779679
68	0x3d073e51	0.033018414
69	0x3d6a757d	0.05724095
70	0x3d915344	0.0709596
71	0x3c634f89	0.013873943
72	0x3bea68f3	0.007153624
73	0x3c65cbee	0.014025671
74	0x3c5386d3	0.012910563
75	0x3d66c14b	0.056336682
76	0x3c3867b3	0.011255193
77	0x3ca7bcc9	0.020475762
78	0x3d15e6bc	0.036597
79	0x3c0228f3	0.007944333
80	0x3cc365d9	0.023852276
81	0x3b4db5e1	0.0031388926
82	0x3b001e7e	0.0019549425
83	0x3cbc80f7	0.023010714
84	0x3c3016da	0.010747636
85	0x3c24ba64	0.010054205
86	0x3d958e1a	0.07302494
87	0x3d26941d	0.040668596
88	0x3bd0921b	0.0063650734
89	0x3c91edcb	0.017813584
90	0x3bb18539	0.0054174927
91	0x3b836bcc	0.004010653
92	0x3c640c92	0.013919013
93	0x3d83e674	0.0644044
94	0x3c90241f	0.017595349
95	0x3d06d4bb	0.03291772
96	0x3d652dfb	0.055952054
97	0x3c3d1545	0.011540716
98	0x3cf0e9ef	0.029408423
99	0x3c4f31d5	0.012646158
100	0x3d3234cf	0.043507393
101	0x3bccbf2a	0.0062483745
102	0x3c1a240e	0.00940801
103	0x3d8cc4e4	0.068734914
104	0x3c03930e	0.008030666
105	0x3c80bb6b	0.015714368
106	0x3c72b666	0.014813995
107	0x3c9d90c8	0.019234076
108	0x3d161856	0.036644302
109	0x3c44945a	0.01199826
110	0x3ccc0b45	0.024907717
111	0x3d155b61	0.0364641
112	0x3cb24d5d	0.021765405
113	0x3bd229ea	0.006413688
114	0x3d2994f9	0.041401837
115	0x3c2086a9	0.0097977305
116	0x3dc3c87d	0.095597245
117	0x3c99a304	0.01875449
118	0x3d46ac4d	0.048504163
119	0x3d9fb7c2	0.07798721
120	0x3d7faf64	0.062423125
121	0x3d53f8e9	0.05175105
122	0x3c1b0503	0.009461644
123	0x3da6a66b	0.081372105
124	0x3d320958	0.043465942
125	0x3d9f9312	0.07791723
126	0x3c80c533	0.015719032
127	0x3db9cd71	0.09072388

Encoder.graph_convolutions.1.weight f4 [128, 128]
0	0x3c89173a	0.016734708
1	0xbd8ce532	-0.06879653
2	0xbc4b2e50	-0.0124011785
3	0xbd9fbb27	-0.07799368
4	0xbcaaba9b	-0.020840934
5	0xbd8d4f8f	-0.0689994
6	0x3d1c3016	0.038131796
7	0x3dcdf6d8	0.10056847
8	0xbd85668c	-0.065137
9	0xbd1a1496	-0.03761729
10	0x3d88e47e	0.066842064
11	0x3d84a69a	0.06477089
12	0xbc6f87a4	-0.014619742
13	0x3d516014	0.051117018
14	0xbcce4ce9	-0.025183158
15	0x3d50888a	0.050911464
16	0xbd54c9ba	-0.051950194
17	0xbdab0049	-0.08349664
18	0x3d246652	0.040136643
19	0xbd0931f7	-0.033494916
20	0x3da4412b	0.08020242
21	0x3db08766	0.08619575
22	0xbd89b004	-0.067230254
23	0x3d2bd530	0.04195136
24	0xbd74a1f8	-0.059724778
25	0x3c4211db	0.011845077
26	0xbdda976a	-0.10673411
27	0x3c23a6a7	0.0099884635
28	0x3d3a7a9b	0.045527082
29	0x3d494f9b	0.049148183
30	0xbc696663	-0.014245602
31	0xbd86414a	-0.06555422
32	0xbd4afb3f	-0.049556013
33	0x3d7fc7a2	0.062446244
34	0xbca0f56c	-0.019648276
35	0x3dcb7431	0.09934271
36	0xb82a43cd	-4.0594303e-05
37	0xbda8cc8a	-0.08242138
38	0x3d6eb8b0	0.0582816
39	0xbd2b2ead	-0.04179256
40	0x3d3c2b98	0.04594001
41	0xbc909f72	-0.017654154
42	0xbd52d1ed	-0.051469732
43	0x3db22986	0.08699326
44	0x3c08c341	0.008347333
45	0xbdc65531	-0.09684218
46	0x3d95e335	0.07318727
47	0x3da54686	0.08070092
48	0xbdb0aef1	-0.086271174
49	0x3ce987ac	0.028507076
50	0xbbfcd50d	-0.0077158273
51	0xbc97b066	-0.01851673
52	0xbd1f80ba	-0.038941123
53	0xbdc8e35e	-0.09808992
54	0xbdc5ce22	-0.09658457
55	0x3d5362e1	0.05160797
56	0xbd2730f7	-0.04081818
57	0xbbd99cd4	-0.00664101
58	0x3c3a6281	0.011376024
59	0x3d33eb12	0.043925352
60	0xbd0f4812	-0.03498084
61	0xbcfc341a	-0.030786563
62	0xbd2d80ae	-0.042359047
63	0x3c54a3a6	0.01297847
64	0xbc450745	-0.012025659
65	0x3d8d421d	0.06897376
66	0x38d9885e	0.00010372767
67	0xbd9604d9	-0.07325143
68	0x3dce7edb	0.100827895
69	0x3d77afda	0.06047044
70	0x3c508479	0.012726896
71	0xbcfde5ee	-0.030993428
72	0x3d470ca9	0.048596058
73	0x3af4cc8f	0.0018676686
74	0x3c2d766c	0.010587316
75	0x3dbe738a	0.09299381
76	0x3d8576a9	0.06516773
77	0x3b29f1b2	0.0025931415
78	0x3d20231c	0.039095983
79	0xbb6a4330	-0.0035745613
80	0xbcb612e7	-0.02222581
81	0x3d965524	0.07340458
82	0x3d7784ae	0.060429268
83	0x3d3f173f	0.04665303
84	0xbce89b1a	-0.02839427
85	0x3cb4bc7f	0.022062538
86	0xbd7f1477	-0.062275376
87	0x3cec06bc	0.028811805
88	0x3cee53d3	0.029092705
89	0xbd66379c	-0.056205377
90	0xbdf0c2bb	-0.11755892
91	0xbc2b7e10	-0.010467067
92	0x3d4230f9	0.047409985
93	0xbd64e155	-0.055878956
94	0x3d8b020a	0.06787498
95	0xbd0219cc	-0.031762883
96	0xbcf5f9c1	-0.030026319
97	0x3dbaf5a8	0.091288865
98	0xbd6e9d52	-0.0582555
99	0x3db788b2	0.089616194
100	0x3d9b1af1	0.07573498
101	0x3bd4317b	0.006475625
102	0xbd0145e4	-0.031560794
103	0xbd07dd70	-0.033170164
104	0x3d68c9e1	0.05683315
105	0xbda6a604	-0.08137134
106	0x3daa993f	0.083300106
107	0x3d1db0b5	0.0384986
108	0xbd9c9738	-0.0764603
109	0x3d48775d	0.04894196
110	0x3c78bba2	0.015181454
111	0xbcb998ad	-0.02265581
112	0xbd9437d3	-0.0723721
113	0x3d9caa9b	0.07649728
114	0xbd8951a7	-0.06705027
115	0xbd5be369	-0.053683672
116	0xbc9101b4	-0.017701007
117	0xbc12f55d	-0.008969632
118	0xbda5ded7	-0.08099144
119	0x3d347f93	0.044066977
120	0xbd15e039	-0.03659079
121	0xbc2c8cce	-0.010531617
122	0xbb78b45b	-0.0037949297
123	0xbcb3d7b6	-0.021953445
124	0xbdb0a28a	-0.08624752
125	0x3d8fe052	0.070252076
126	0x3ca6aad1	0.020345123
127	0x3d83fcbf	0.06444692
128	0xbd55bc3e	-0.052181475
129	0xbd21ef49	-0.03953484
130	0xbc7da4a2	-0.015481146
131	0xbd69caed	-0.05707829
132	0xbc73fe86	-0.014892226
133	0x3cb9a494	0.022661485
134	0x3d629ad5	0.05532344
135	0xbcf03b7e	-0.029325243
136	0xbd990c88	-0.07473093
137	0x3defe511	0.11713613
138	0x3cea2e1c	0.02858644
139	0xbb54082b	-0.0032353501
140	0x3e02b901	0.12765886
141	0xbd375269	-0.044756327
142	0x3d05df12	0.03268344
143	0x3b2ede54	0.002668281
144	0xbe0345f3	-0.12819652
145	0x3db075bf	0.08616208
146	0x3e338190	0.17529893
147	0xbdd351b4	-0.10318318
148	0xbb6a834b	-0.0035783823
149	0x3aacda16	0.0013187553
150	0x3c18f5fb	0.00933599
151	0xbd367125	-0.044541497
152	0xbcfb8dd7	-0.030707283
153	0xbc1f40af	-0.009720012
154	0x3cbc3fa6	0.022979569
155	0xbd2c16fd	-0.04201411
156	0x3d871755	0.06596247
157	0xbd3d4bd2	-0.046214886
158	0x3d6a65cb	0.057225984
159	0x3be23e8f	0.00690443
160	0xbd311f09	-0.043242488
161	0xbc2e6a59	-0.010645472
162	0x3d860dc6	0.06545596
163	0x3c681e7b	0.014167423
164	0x3da04354	0.07825342
165	0x3c953a7f	0.01821637
166	0xbd9f5192	-0.0777923
167	0x3d53b7b2	0.051688857
168	0xbd4f23e8	-0.050571352
169	0x3d10dee4	0.035368815
170	0xbdb8d380	-0.090247154
171	0x3d66015a	0.056153633
172	0x3c5330b5	0.012890031
173	0x3d947782	0.07249357
174	0x3de85a90	0.113453984
175	0xbd22b2de	-0.039721362
176	0xbdae9883	-0.08525183
177	0xbd60fd50	-0.054929078
178	0x3a43515f	0.0007450785
179	0xbc1b47fc	-0.009477612
180	0x3c99c44f	0.018770365
181	0xbdeab39a	-0.114600375
182	0x3d6d700d	0.057968188
183	0xbcce27d7	-0.025165481
184	0xbca6df54	-0.020370163
185	0x3d4e7502	0.050404556
186	0x3e169b69	0.14707722
187	0xbcc8e0fd	-0.024521345
188	0xbd99c655	-0.07508532
189	0x3da5e6cd	0.081006624
190	0x3d44d64b	0.04805593
191	0x3da8a4a2	0.08234526
192	0xbd9c516b	-0.07632717
193	0xbcd3201a	-0.025772143
194	0xbd8b9c85	-0.06816963
195	0x3d98bbdd	0.07457707
196	0xbd1bcb67	-0.038035776
197	0x3de0ebc1	0.109824665
198	0x3d0373ec	0.032092974
199	0x3d42957c	0.04750584
200	0xbcaf6041	-0.021408202
201	0xbd5aa573	-0.05338044
202	0x3db863aa	0.090033844
203	0xbd7372d1	-0.05943567
204	0x3b891ea3	0.0041845604
205	0x3d8f7fd0	0.070068
206	0xbd3185d6	-0.043340527
207	0x3b58e1c6	0.0033093556
208	0xbcdd59e7	-0.027020408
209	0x3ddee51c	0.10883543
210	0xbd4b18f3	-0.04958434
211	0xbe08c7c6	-0.13357458
212	0x3ce02de5	0.027365634
213	0xbdf4d8d4	-0.11955419
214	0xbc7fa44d	-0.015603137
215	0x3d097b85	0.033565063
216	0xbc5621e4	-0.013069604
217	0x3d977479	0.07395262
218	0x3c66607a	0.014061088
219	0x3d320e2b	0.043470543
220	0xbd3d6ae7	-0.04624453
221	0x3dcfd4ae	0.10147987
222	0x3cfb4d0c	0.030676387
223	0xbca4add4	-0.020102419
224	0xbd342ce1	-0.043988112
225	0x3d0e5b84	0.034755245
226	0x3d8c6e4b	0.06856974
227	0x3dc4b887	0.09605508
228	0x3db031b4	0.0860323
229	0x3c9e8497	0.019350333
230	0x3ceec609	0.029147165
231	0xbc5afedb	-0.013366426
232	0xbdd83c48	-0.10558373
233	0xbdb31be4	-0.08745554
234	0x3de15c00	0.11003876
235	0x3ce1405b	0.027496507
236	0x3d9832d2	0.07431568
237	0x3c886dcd	0.01665392
238	0x3ca825ed	0.020525897
239	0x3ba86793	0.0051393
240	0xbdd332a7	-0.103123955
241	0x3dc749c2	0.09730865
242	0xbc3b0c71	-0.0114165405
243	0xbd7d7f73	-0.061889123
244	0x3d0eb655	0.034841854
245	0x3dc32c9d	0.09529994
246	0xbd421a6a	-0.04738847
247	0xbcf50838	-0.029911146
248	0x3b477cf1	0.003043946
249	0xbdf0946f	-0.117470615
250	0xbcea61dd	-0.028611118
251	0xbc5be10a	-0.013420353
252	0xbd236359	-0.039889667
253	0xbdfa6dae	-0.12227951
254	0x3dced24d	0.100987054
255	0x3d723de0	0.05914104

Encoder.graph_convolutions.1.bias f4 [128]
0	0x3db73ed4	0.089475304
1	0xbd20df16	-0.03927525
2	0xbd6ea852	-0.05826599
3	0x3d9b37ab	0.07578977
4	0xbdc50679	-0.09620375
5	0xbd3a72f8	-0.0455198
6	0x3d686260	0.056734443
7	0x3d52d1af	0.0514695
8	0x3d32f17a	0.04368732
9	0xbcc3c2a6	-0.023896527
10	0xbbb49559	-0.0055109677
11	0xbd899fac	-0.06719908
12	0xbcc7e940	-0.024403214
13	0xbd8f2e05	-0.069911994
14	0x3dcf6891	0.10127366
15	0x3d96dde6	0.073665425
16	0xbc145aea	-0.009054879
17	0x3d8366be	0.06416081
18	0x3c9077c3	0.017635232
19	0xbcebdce4	-0.028791852
20	0xbc2f9189	-0.010715851
21	0xbdaf407b	-0.085572205
22	0xbd0128ed	-0.03153317
23	0xbc993378	-0.0187013
24	0xbc65bf2b	-0.014022629
25	0xbc16c731	-0.009202764
26	0x3d000704	0.03125669
27	0xbd9ad030	-0.0755924
28	0xbccf038b	-0.025270244
29	0xbd63d769	-0.055625353
30	0x3c3acb02	0.01140094
31	0x3d3e1afa	0.046412446
32	0xbdbdd7ca	-0.09269674
33	0xbd23daf5	-0.040003736
34	0xbc79d463	-0.015248391
35	0xbce7a6d2	-0.028277788
36	0xbc4c741e	-0.012478856
37	0xbd102c20	-0.03519833
38	0xbd411821	-0.04714215
39	0x3c380613	0.011231917
40	0xbcc9f6ab	-0.024653753
41	0x3d99ea48	0.07515389
42	0x3d9f6020	0.07782006
43	0xbbbd98f2	-0.005786055
44	0xbdc601d0	-0.096683145
45	0x3d9499e3	0.07255914
46	0x3cb0fb8e	0.021604326
47	0xbd603e34	-0.05474682
48	0x3ce15f09	0.027511137
49	0xbc37a28a	-0.011208186
50	0x3d8841af	0.06653153
51	0x3c4002f4	0.011719454
52	0x3d8d9508	0.06913191
53	0x3d03ceee	0.032179765
54	0xbcccaf96	-0.02498607
55	0x3953e59a	0.00020208061
56	0x3d818133	0.06323471
57	0xbda95e1f	-0.08269905
58	0xbd383468	-0.044971853
59	0xbc0796a0	-0.008275658
60	0x3d8ba457	0.06818455
61	0x3ce82eeb	0.028342685
62	0x3bd11039	0.0063801077
63	0xbd40c046	-0.047058366
64	0xbe1c9981	-0.15292932
65	0xbd45f5a0	-0.04832995
66	0xbd3a124c	-0.045427606
67	0x3dca3c8d	0.098748304
68	0x3d695c77	0.056972947
69	0x3da2a3c1	0.0794139
70	0xbd27cd2e	-0.04096716
71	0xbc991721	-0.018687787
72	0xbd877cfa	-0.06615634
73	0x3c11e1ce	0.008903934
74	0xbd2c49be	-0.042062514
75	0x3cf02a3f	0.02931702
76	0x3c3449c4	0.011003915
77	0xbd878b07	-0.06618314
78	0x39baaf25	0.00035607177
79	0x3c872833	0.01649866
80	0x3db2caa4	0.08730057
81	0xbdbea404	-0.09308627
82	0xbdd411e2	-0.103549734
83	0x3db62a4f	0.088947885
84	0xbd7a6205	-0.061128635
85	0xbc762197	-0.015022657
86	0x3d310c8a	0.04322485
87	0x3d43f50b	0.047841113
88	0x3d88aa56	0.06673114
89	0x3cfff17e	0.031243082
90	0xbcc078e8	-0.023495153
91	0xbda3ef4a	-0.08004625
92	0xbcf9ad03	-0.030478006
93	0xbda7014a	-0.08154543
94	0x3d8c9864	0.06865004
95	0x3d5bde29	0.053678665
96	0x3d1bed2e	0.03806799
97	0xbca74fd6	-0.02042381
98	0xbd4cf00f	-0.050033625
99	0x3c21b8aa	0.0098706875
100	0xbd8e9a18	-0.06962985
101	0x3d8e20a4	0.069398195
102	0x3be4ee1d	0.006986393
103	0x3d18bd08	0.03728965
104	0xbd70f3f9	-0.05882642
105	0x3d544b71	0.05182976
106	0xbd9b9c9e	-0.07598232
107	0xbd8ec08f	-0.069703214
108	0xbd631409	-0.05543903
109	0x3c9ff614	0.019526519
110	0xbcc3f640	-0.023921132
111	0x3d2bd870	0.041954458
112	0xbc3332b5	-0.0109373825
113	0xbcab97c7	-0.020946397
114	0x3d054b5f	0.032542583
115	0xbd8ebdc5	-0.069697894
116	0xbcf70cf4	-0.030157544
117	0x3c542a7c	0.012949582
118	0x3dc962f6	0.098333284
119	0x3d188890	0.03723961
120	0x3ce61585	0.028086433
121	0xbd49f1a0	-0.049302697
122	0xbb826d27	-0.003980297
123	0xbd93d27a	-0.072178796
124	0x3d8b2133	0.067934416
125	0x3b8c9f3e	0.004291444
126	0x3bd76c84	0.0065742154
127	0xbc376d58	-0.011195503

Encoder.graph_convolutions.1.bn.weight f4 [128]
0	0x3f883512	1.0641196
1	0x3f8d5ddb	1.1044267
2	0x3f8792fe	1.0591733
3	0x3f940e37	1.1566838
4	0x3f7fd1ee	0.999297
5	0x3f7c451f	0.9854297
6	0x3f895551	1.0729162
7	0x3f892d2f	1.0716914
8	0x3f7d1971	0.98866946
9	0x3f773ec2	0.96580136
10	0x3f7e98d9	0.99451977
11	0x3f88b85b	1.0681261
12	0x3f835c1c	1.0262485
13	0x3f7da53b	0.99080247
14	0x3f80eee5	1.0072905
15	0x3f86a835	1.0520083
16	0x3f9e92e3	1.2388576
17	0x3f860f05	1.0473334
18	0x3f71fb65	0.9452422
19	0x3f8aa8b0	1.0832729
20	0x3f8622c7	1.0479363
21	0x3f6f3eee	0.934554
22	0x3f95f508	1.1715403
23	0x3f7d80e1	0.9902478
24	0x3f808979	1.0041953
25	0x3f82cddc	1.0219073
26	0x3f98b80e	1.1931169
27	0x3f879237	1.0591496
28	0x3f6dc627	0.9288048
29	0x3f85acce	1.0443361
30	0x3f847840	1.0349197
31	0x3f84e973	1.0383743
32	0x3f73339f	0.9500064
33	0x3f7ecf86	0.99535406
34	0x3f7e8996	0.9942869
35	0x3f81cdab	1.014089
36	0x3f78c5e1	0.9717694
37	0x3f815911	1.0105306
38	0x3f7d847c	0.9903028
39	0x3f7996cd	0.9749573
40	0x3f7b7383	0.9822313
41	0x3f982501	1.1886293
42	0x3f807bbc	1.0037761
43	0x3f83ac80	1.0287018
44	0x3f8339e3	1.0252041
45	0x3f800b37	1.0003422
46	0x3f75f2e6	0.9607376
47	0x3f93d3c9	1.1549007
48	0x3f7e4d69	0.9933687
49	0x3f8ab7e9	1.0837375
50	0x3f8ccc8a	1.099992
51	0x3f80eeb0	1.0072842
52	0x3f870d70	1.0550976
53	0x3f92c5ab	1.1466573
54	0x3f85f73a	1.0466073
55	0x3f8dd9ad	1.1082054
56	0x3f7c1664	0.98471665
57	0x3f8ac748	1.0842066
58	0x3f8b1ee3	1.0868801
59	0x3f813e50	1.0097141
60	0x3f9fb174	1.2476029
61	0x3f8287a6	1.0197647
62	0x3f86d159	1.0532638
63	0x3f9988d3	1.199488
64	0x3f75cee0	0.9601879
65	0x3f90d47a	1.1314843
66	0x3f8260ba	1.0185769
67	0x3f984891	1.1897146
68	0x3f817892	1.011492
69	0x3f799559	0.9749351
70	0x3f7d19e5	0.98867637
71	0x3f8e433d	1.111427
72	0x3f91195e	1.1335866
73	0x3f8ac4bd	1.084129
74	0x3f77ec0f	0.9684457
75	0x3f7efcd5	0.9960454
76	0x3f872132	1.0557005
77	0x3f8759a8	1.0574236
78	0x3f8500c7	1.0390862
79	0x3f821b38	1.0164557
80	0x3f7f1cc8	0.9965329
81	0x3f8487e2	1.0353968
82	0x3f720ee6	0.94553983
83	0x3f874480	1.056778
84	0x3f84c640	1.0373001
85	0x3f872033	1.0556701
86	0x3f8b4c3a	1.0882638
87	0x3f844c4b	1.0335783
88	0x3f8786e1	1.0588037
89	0x3f80c271	1.0059339
90	0x3f812663	1.008984
91	0x3f7fe89e	0.9996432
92	0x3f86ecd0	1.054102
93	0x3f8807ce	1.0627382
94	0x3f898bbd	1.074577
95	0x3f8d28e9	1.102811
96	0x3f8489ff	1.0354613
97	0x3f797180	0.9743881
98	0x3f806134	1.0029664
99	0x3f890152	1.0703528
100	0x3f797ccd	0.97456056
101	0x3f7e7775	0.99401027
102	0x3f89831a	1.0743134
103	0x3f82263f	1.0167922
104	0x3f8bc475	1.0919329
105	0x3f8a8dac	1.0824485
106	0x3f816a2c	1.0110526
107	0x3f8464a4	1.0343213
108	0x3f86574b	1.049539
109	0x3f84e4ff	1.0382384
110	0x3f7bd914	0.9837811
111	0x3f8c5f98	1.0966673
112	0x3f8482f8	1.0352468
113	0x3f8b9f6c	1.0908027
114	0x3f91c142	1.1387103
115	0x3f875f4f	1.0575961
116	0x3f8692b5	1.0513521
117	0x3f84f3f0	1.0386944
118	0x3f83db82	1.0301363
119	0x3f7e1dd6	0.99264276
120	0x3f7c760d	0.9861763
121	0x3f88617a	1.0654747
122	0x3f9438fe	1.1579893
123	0x3f7dab27	0.9908928
124	0x3f7f7f35	0.9980348
125	0x3f775fda	0.9663063
126	0x3f97eee7	1.1869782
127	0x3f7892d6	0.97099054

Encoder.graph_convolutions.1.bn.bias f4 [128]
0	0x3d5a15ca	0.053243436
1	0x3dca03f5	0.09864036
2	0x3cfae612	0.030627284
3	0x3e015638	0.12630546
4	0x3d3c3da3	0.04595722
5	0xbd40fea8	-0.04711786
6	0x3a032ecb	0.0005004226
7	0xbc5422f8	-0.01294779
8	0xbbfde2a2	-0.007747964
9	0xbd738160	-0.059449553
10	0xbd263daa	-0.04058615
11	0x3ac66d17	0.0015138712
12	0xbd419e96	-0.04727038
13	0xbbfd7d39	-0.007735875
14	0xbdb2011a	-0.08691616
15	0x3b2fb56a	0.0026811012
16	0x3da627f8	0.08113092
17	0x3daca624	0.08430126
18	0xbce98027	-0.02850349
19	0x3d02a823	0.03189863
20	0xbd5bd58d	-0.053670455
21	0xbd1d44b6	-0.038395606
22	0x3d4a2938	0.049355716
23	0xbc880ccf	-0.01660767
24	0x3b024e38	0.0019883048
25	0x3d7bf7bc	0.061515555
26	0x3c918719	0.017764615
27	0x3ce68a53	0.02814213
28	0xbd0ede7e	-0.034880154
29	0xbc82894f	-0.015934614
30	0xbd2eff34	-0.04272385
31	0xbc2c1959	-0.01050409
32	0xbdb5aa56	-0.088703796
33	0xbbd4e05e	-0.006496473
34	0xbc91ac7e	-0.017782446
35	0xbd54eb90	-0.051982462
36	0x3c98ae73	0.018637871
37	0xbcfed2d7	-0.031106396
38	0xbc2c17e7	-0.010503746
39	0xbd0f298e	-0.03495174
40	0xbc84cb2e	-0.016210165
41	0x3c3cb291	0.011517183
42	0xbd2055c6	-0.0391443
43	0xbce0e2a7	-0.027451826
44	0xbca87e12	-0.020567928
45	0x3b95b917	0.0045691836
46	0x3cd8b1c3	0.02645195
47	0x3d13073d	0.035895575
48	0xbd0f712e	-0.035020046
49	0x3dbe1791	0.09281839
50	0x3d797832	0.060905643
51	0xbd8453bd	-0.06461284
52	0x3d4fc210	0.05072218
53	0x3ba27bbf	0.0049585993
54	0x3d44fd55	0.04809316
55	0x3d5d8fec	0.054092333
56	0xbcf34670	-0.029696673
57	0xbcc74539	-0.024325
58	0x3e1426c5	0.14467914
59	0x3d1ace92	0.037794657
60	0x3e383147	0.17987548
61	0xbd7864bc	-0.060642943
62	0x3d13d977	0.036096063
63	0x3d7ec555	0.06219991
64	0x3bd89107	0.0066090855
65	0xbcbb1a05	-0.022839556
66	0xbd22d068	-0.039749533
67	0x3dc94b7b	0.0982885
68	0xbd9ac061	-0.075562246
69	0xbd850f71	-0.06497086
70	0xbd2304c2	-0.03979946
71	0xbc6562e0	-0.014000624
72	0x3bec2871	0.0072069694
73	0x3daa912a	0.08328469
74	0xbcbada0d	-0.022809053
75	0xbd1ef138	-0.038804263
76	0xbd895250	-0.06705153
77	0x3de334a4	0.11094025
78	0x3d85a79c	0.065261096
79	0xbc758386	-0.014984971
80	0x3c23d68f	0.009999885
81	0x3c739b69	0.014868596
82	0xbd18b5c8	-0.037282735
83	0x3c8a66ba	0.016894687
84	0xbbdd3e86	-0.006751838
85	0xbc81d4f8	-0.015848622
86	0x3c8b2f5f	0.016990362
87	0xbd1b68fd	-0.03794192
88	0x3d1d4d55	0.038403828
89	0xbabe7f31	-0.0014533756
90	0x3ad28290	0.0016060639
91	0xbd313713	-0.043265413
92	0xbd6a8ce3	-0.057263266
93	0xbcf96462	-0.030443374
94	0x3d98e706	0.07465939
95	0x3d80415b	0.062624656
96	0x3d05956c	0.032613203
97	0xbc1951f4	-0.009357918
98	0x3ca24c9f	0.019811926
99	0xbc18385e	-0.009290783
100	0xbc45442f	-0.012040182
101	0xbc75ad7d	-0.014994976
102	0x3d61fac8	0.055170804
103	0xbb447a42	-0.0029980098
104	0x3d5b667c	0.053564534
105	0x3cfd9052	0.030952606
106	0x3ad68df5	0.0016369211
107	0xbc2254aa	-0.009907881
108	0xbc3900aa	-0.011291662
109	0x3d27df40	0.040984392
110	0xbc80e17a	-0.015732516
111	0x3d6d4b93	0.0579334
112	0xbcac1d21	-0.021009983
113	0xbc7543b3	-0.014969754
114	0x3c9faa61	0.019490423
115	0x3d8a9f16	0.067686245
116	0xbbd9b826	-0.0066442667
117	0x3d05db0e	0.03267961
118	0x3bc7b175	0.0060941526
119	0xbc659cac	-0.014014404
120	0xba75c011	-0.00093746284
121	0x3b28d901	0.002576411
122	0x3dac0eff	0.08401298
123	0xbd8bf5a2	-0.0683396
124	0xbc03b689	-0.008039125
125	0xbd91511e	-0.0709555
126	0x3ccf83e0	0.025331438
127	0xbd175f69	-0.036956225

Encoder.graph_convolutions.1.bn.running_mean f4 [128]
0	0xbcf04455	-0.029329458
1	0xbe8f341c	-0.27969444
2	0xbec4baa6	-0.3842365
3	0xbded8a7c	-0.115986794
4	0xbee43c31	-0.44577172
5	0x3d996096	0.074891254
6	0xbe7bff48	-0.24609101
7	0xbdfdaa75	-0.12386028
8	0xbee9daef	-0.45674846
9	0x3f39f2d5	0.7263616
10	0x3e505c6b	0.20347755
11	0x3e0a5b0b	0.13511293
12	0xbe5c14f6	-0.21492371
13	0xbf1b7630	-0.60727215
14	0x3eac80d0	0.33692026
15	0x3d8d7fe1	0.069091566
16	0xbe112084	-0.1417256
17	0xbe72eedc	-0.2372393
18	0x3eb63c4f	0.35592887
19	0xbebc40a7	-0.36768076
20	0x3df2d8c0	0.11857748
21	0x3ee006bb	0.43755135
22	0xbf2cf8fc	-0.6756742
23	0xbf01c48a	-0.5069052
24	0x3e92fccd	0.28708497
25	0xbea3f8a2	-0.3202563
26	0xbdab786d	-0.08372579
27	0x3dd29ea3	0.10284164
28	0x3d570244	0.052492395
29	0x3dc1e527	0.094675355
30	0x3e862706	0.26201648
31	0x3c1c5ec9	0.009544083
32	0x3e391167	0.18073045
33	0xbf00838f	-0.5020074
34	0xbedd3ca2	-0.43210322
35	0x3f820d1d	1.0160252
36	0xbf1cdd76	-0.6127542
37	0xbe40065d	-0.18752427
38	0xbec8d619	-0.39225844
39	0x3e9dd507	0.3082659
40	0xbf00e7b1	-0.50353533
41	0xbd26d641	-0.040731672
42	0x3e1a8652	0.15090302
43	0x3e8c48bd	0.27399245
44	0x3d8da442	0.06916095
45	0x3f09d311	0.53837687
46	0x3d15519a	0.036454774
47	0x3de9b4cc	0.114114374
48	0x3e80006e	0.25000328
49	0xbe153615	-0.14571412
50	0x3ee50d79	0.4473684
51	0x3ee4bc52	0.44674927
52	0x3f13d266	0.5774292
53	0xbc0f6b21	-0.008753569
54	0xbf0f5801	-0.5599366
55	0xbe34c5eb	-0.17653625
56	0x3e829b42	0.25509077
57	0xbea1286a	-0.31476146
58	0xbefa1882	-0.48846823
59	0xbec62c66	-0.38705748
60	0x3c27a1b3	0.010231423
61	0x3e7239e7	0.236549
62	0xbf03f939	-0.5155216
63	0xbd6c21c6	-0.057649396
64	0xbd6abbb4	-0.057307914
65	0x3d185b02	0.037196167
66	0x3d4ca8ff	0.049965855
67	0xbd196156	-0.037446342
68	0x3e45bbc7	0.19309913
69	0x3f0330f2	0.5124656
70	0x3e2bd886	0.16781816
71	0xbeb30e27	-0.34971735
72	0xbcd1a706	-0.025592338
73	0xbe5ee7c0	-0.21768093
74	0x3ebbe11a	0.36695176
75	0x3f060bdc	0.52361846
76	0x3e2c7124	0.16840035
77	0xbe91898b	-0.2842525
78	0xbe94e5bc	-0.29081523
79	0x3eb788f4	0.35846674
80	0x3f7ecf52	0.99535096
81	0x3e92580d	0.28582802
82	0x3d98f9f6	0.07469551
83	0xbcc9fb36	-0.02465592
84	0x3e96ffc7	0.29492018
85	0x3e3d7fb3	0.18505745
86	0x3e64ea68	0.22355044
87	0x3ebd4ff3	0.3697506
88	0xbc844c30	-0.01614961
89	0xbed2a22e	-0.41139358
90	0xbeff0369	-0.4980729
91	0xbddc13f5	-0.10745994
92	0x3c906b88	0.0176294
93	0x3eb14929	0.3462613
94	0x3e7bc256	0.24585852
95	0xbda80802	-0.08204652
96	0xbe2215ce	-0.1582863
97	0x3e2cd972	0.16879824
98	0xbe777724	-0.24166542
99	0xbd4e55e1	-0.05037487
100	0x3d6861a8	0.056733757
101	0xbe63b2bc	-0.2223615
102	0xbf4e2fc3	-0.8054163
103	0x3e8a4222	0.2700358
104	0x3e31edc1	0.17375852
105	0xbe989593	-0.29801616
106	0xbdc9e169	-0.09857447
107	0x3d98eec4	0.07467416
108	0x3e265718	0.16244161
109	0xbe42d986	-0.19028291
110	0xbf1cb35e	-0.6121119
111	0x3d97b037	0.07406657
112	0x3ddad34a	0.106848314
113	0xbe4883b5	-0.19581492
114	0xbeac8fcb	-0.33703455
115	0xbd78baca	-0.06072501
116	0xbe1bd0cd	-0.1521637
117	0x3dcedff0	0.101013064
118	0xbeae12c6	-0.33998698
119	0xbf06b61e	-0.5262164
120	0xbdb1ed9d	-0.08687899
121	0xbed0bab2	-0.40767437
122	0xbd407436	-0.046985827
123	0x3e358c19	0.17729224
124	0xbf5d00e8	-0.8632951
125	0x3e5cff4c	0.21581763
126	0x3d87ce3d	0.06631134
127	0x3cfde0cf	0.030990986

Encoder.graph_convolutions.1.bn.running_var f4 [128]
0	0x3df62c55	0.120201744
1	0x3e987299	0.2977493
2	0x3f2d07f3	0.67590255
3	0x3e67fae0	0.22654295
4	0x3f2a4626	0.6651329
5	0x3e6e52a8	0.23273718
6	0x3ef5f5b7	0.48039028
7	0x3e70fee3	0.23534732
8	0x3f8b0146	1.0859764
9	0x402d1d4f	2.7049139
10	0x3e78e936	0.24307713
11	0x3e8dac2d	0.27670422
12	0x3e90cd17	0.2828147
13	0x3fa34eb8	1.2758398
14	0x3e9b5e7c	0.30345523
15	0x3e13a454	0.14418155
16	0x3e0641a4	0.13110977
17	0x3f187f56	0.595693
18	0x3f19ada2	0.6003057
19	0x3f2b0ea3	0.6681921
20	0x3e945113	0.28968105
21	0x3f9fe3f5	1.2491442
22	0x3ff170d6	1.886256
23	0x3f85aec8	1.0443964
24	0x3edbb1a4	0.42908967
25	0x3efa803d	0.48925963
26	0x3e6a4dcb	0.22881238
27	0x3eadb06e	0.33923668
28	0x3dd771ea	0.10519774
29	0x3e6ac792	0.22927693
30	0x3ed606b5	0.41801992
31	0x3e226ff2	0.15863016
32	0x3f04268f	0.51621336
33	0x3f736520	0.9507618
34	0x3f52154a	0.82063735
35	0x40a34a08	5.102787
36	0x40005b46	2.005571
37	0x3e9e6ae9	0.3094094
38	0x3f078de0	0.5295086
39	0x3ed7a411	0.4211736
40	0x3f8382db	1.0274309
41	0x3df1458c	0.11780843
42	0x3e0afbb4	0.1357258
43	0x3ed157bb	0.40887246
44	0x3e726612	0.23671749
45	0x3f7b6e46	0.9821514
46	0x3dc8d2c1	0.09805823
47	0x3ea2310b	0.31678042
48	0x3ea8bb9d	0.32955638
49	0x3e19ce3e	0.15020081
50	0x3f376228	0.7163415
51	0x3f877cf2	1.0585005
52	0x3faa7077	1.3315572
53	0x3e158e45	0.14605053
54	0x3fb8efc2	1.4448168
55	0x3e7a7a67	0.24460755
56	0x3e73a6b6	0.23794064
57	0x3ebe96d9	0.37224463
58	0x3f72d75e	0.94859874
59	0x3f3982d4	0.7246525
60	0x3db9e0db	0.09076091
61	0x3ee3134a	0.44350654
62	0x3fa38cce	1.2777345
63	0x3e2aa390	0.16663957
64	0x3dbe3a07	0.092884116
65	0x3e8ef94a	0.27924567
66	0x3e0339e0	0.12815046
67	0x3e625d82	0.22105983
68	0x3e984c6d	0.29745808
69	0x3f8a198b	1.0789045
70	0x3ebc12ad	0.36732998
71	0x3f226909	0.6344152
72	0x3dbeb088	0.093110144
73	0x3f23fe18	0.6405959
74	0x3f52cd13	0.8234417
75	0x3fb3fe39	1.4061958
76	0x3e980d4a	0.2969764
77	0x3e96df6f	0.2946734
78	0x3ed7edab	0.42173514
79	0x3f23b569	0.63948685
80	0x4081a682	4.0515757
81	0x3f27c796	0.6553892
82	0x3e6e036d	0.23243494
83	0x3e4f14a2	0.20222715
84	0x3f4ff9ed	0.8124073
85	0x3e92c341	0.28664592
86	0x3e822a36	0.2542283
87	0x3f11c8c6	0.5694698
88	0x3e863cfe	0.26218408
89	0x3f71ddb1	0.944789
90	0x3f847dea	1.0350926
91	0x3e87b3ab	0.26504263
92	0x3e3519ec	0.1768567
93	0x3f98f370	1.1949291
94	0x3e8cbbc0	0.27486992
95	0x3e177da4	0.14794022
96	0x3efb918c	0.4913448
97	0x3e4c77b2	0.19967535
98	0x3e44ae27	0.19207059
99	0x3e846255	0.2585627
100	0x3e4580e8	0.19287455
101	0x3ecd963f	0.4015369
102	0x40507fbd	3.2577965
103	0x3e9d76c7	0.30754682
104	0x3e8990eb	0.26868376
105	0x3f18e5d6	0.597257
106	0x3e244d75	0.16045173
107	0x3e1516ac	0.1455943
108	0x3e743bba	0.23850909
109	0x3e81a6c7	0.25322554
110	0x3fc075d1	1.5035955
111	0x3dadf4c6	0.084939525
112	0x3dfb3262	0.12265469
113	0x3ea2c373	0.3178974
114	0x3f31aeaa	0.6940714
115	0x3d5a7622	0.053335316
116	0x3ec3f81d	0.38275233
117	0x3df38304	0.118902236
118	0x3f608fcd	0.8771942
119	0x3fb321b0	1.3994656
120	0x3e0a0ab0	0.1348064
121	0x3f17e1bc	0.5932882
122	0x3e6add84	0.22936064
123	0x3f1f1150	0.6213579
124	0x406e037a	3.7189622
125	0x3e7c1a52	0.24619415
126	0x3e5ecbf3	0.21757488
127	0x3da8695e	0.08223222
