model_OpenChem.pth (torch, 441643 bytes, 39 tensors)

Encoder.graph_convolutions.0.weight f4 [33, 128]
000000 e7 79 99 bd 98 33 ae bd d3 2d 8b 3d f6 73 62 3d
       -0.07493954 -0.085059345 0.0679585 0.05528637
000010 bd b3 43 bd 1b 86 0b 39 47 95 41 3d 6e cf 91 bd
       -0.047778834 0.00013306031 0.047261503 -0.07119642
000020 0e 43 78 3c 37 f6 f0 3c cf f8 23 bd b1 49 66 bd
       0.015152706 0.02941428 -0.040032204 -0.05622262
000030 b9 2d e8 3c e3 4f e9 3c 45 12 21 bb e7 4f 8c 3d
       0.028342115 0.028480476 -0.002457754 0.06851178
000040 fa c7 85 3d 60 4f 11 bd b1 17 0a bd e4 aa 62 3d
       0.06532283 -0.03547609 -0.033714 0.055338755
000050 95 a3 18 bd d4 32 5b 3d ff bd 11 bb 80 16 86 bc
       -0.03726538 0.05351527 -0.002223849 -0.01636815
000060 ea 06 e2 3c bd cc 27 bd 16 19 d5 3c 4d 07 28 3d
       0.027591188 -0.040966738 0.026012938 0.041022588
000070 a5 05 9b bd a7 34 93 3d e5 ba 95 3c 73 87 37 bd
       -0.07569436 0.07187777 0.018277595 -0.04480691
000080 85 00 0d 3d 08 68 92 bd 2d bc 03 bd 32 9b 48 bc
       0.034424324 -0.07148749 -0.03216188 -0.012244033
000090 16 0f 83 3d 29 6e ca 3d 76 a8 08 3c 68 51 84 3d
       0.06399362 0.09884293 0.0083409455 0.064608395
0000a0 69 28 9a 3d 70 4b 8c ba aa 6f 47 3c c4 24 93 bd
       0.07527239 -0.0010703634 0.012172619 -0.07184747
0000b0 d9 5b 63 3b 65 65 76 3d 3e e0 fb bc 25 03 25 bd
       0.0034692197 0.06015529 -0.030746575 -0.040286202
0000c0 35 2d 12 bd a1 4b 2c 3d e4 31 d3 3d a3 45 48 bd
       -0.035687644 0.042064313 0.1031225 -0.048894536
0000d0 2b b5 92 3c f3 fa 50 bd e1 5d 1b 3d 12 3b 21 bc
       0.017908653 -0.051020574 0.037931327 -0.009840744
0000e0 a3 e7 8b bd c1 6f 6d 3d 54 a9 82 bd 18 72 4b 3d
       -0.068312906 0.057967905 -0.06379953 0.049669355
0000f0 95 3c a7 bc d4 2f 81 bd 46 81 77 bd 1b b3 71 bd
       -0.02041463 -0.063079506 -0.06042602 -0.0590087
000100 ac 34 fe bb 54 d6 5e 3c 17 69 d9 bc 3d 46 f9 bc
       -0.007757744 0.0136009045 -0.026539369 -0.030429
000110 68 a3 89 bd d3 15 ea ba bc c0 99 3d 5d 7c 8d bb
       -0.067206204 -0.0017859287 0.07507464 -0.004317804
000120 7c e8 d4 bd 1b 96 9b ba 34 fb 44 bd da a5 6e 3d
       -0.103959054 -0.0011870296 -0.04809113 0.058263637
000130 db 20 af bc 86 4c b7 3c 43 12 bc bc 0b 09 9d 3d
       -0.021377971 0.022375356 -0.022957927 0.076677404
000140 b9 03 26 bd e6 36 38 bd a4 60 21 3d 16 ca 00 3d
       -0.040530894 -0.04497423 0.039398804 0.031442724
000150 d9 c8 bb bd e7 0c 35 bd ef 71 8c 3d 4f 03 9e 3d
       -0.09169168 -0.044201758 0.068576686 0.07715475
000160 75 be 55 3d 29 bf c9 3d a0 4c 16 3d 39 3b e1 3d
       0.052183587 0.09850914 0.03669417 0.10997624
000170 c4 c6 08 3a 3e 02 78 bd 99 ea 8d bd a3 ae 07 3d
       0.00052176067 -0.060549013 -0.069295116 0.03312553
000180 a7 46 50 3c 56 7e de 3d 6a fc 78 3d 52 d1 b5 3d
       0.012712157 0.108639404 0.060787596 0.08877815
000190 99 0d 57 bd a4 84 0b bd 58 e0 c3 3d a8 35 8a 3c
       -0.052503202 -0.034062043 0.095642745 0.016871288
0001a0 11 1c 61 3d e7 2e 93 3d 88 ca aa bd 8c 1f 5a 3d
       0.054958407 0.0718668 -0.08339411 0.05325274
0001b0 31 ce 33 3d 66 5a ac 3a d5 13 ca 3d d9 a1 a9 bd
       0.04389781 0.00131495 0.09867064 -0.08282823
0001c0 c5 b7 a8 3d 5f b5 a1 3d 58 43 4f 3c fc 4f a6 3d
       0.08238176 0.07895922 0.012650333 0.081207246
0001d0 ab af 2c 3d 45 15 15 bd d0 ea 3c bd bf fd 5c 3d
       0.042159718 -0.036397237 -0.046122372 0.05395293
0001e0 77 86 1f bd 27 30 0f 3d b2 fb b9 bc e8 f9 7b 3d
       -0.038946595 0.03495803 -0.022703025 0.061517626
0001f0 a6 a7 10 bc 2c da 3c bc 7e bf 96 bc c0 10 87 3d
       -0.008829033 -0.011526626 -0.018401857 0.06594992
000200 e5 62 d9 3d 64 33 3c 3d c2 78 f3 bc b5 ac 94 3d
       0.10614566 0.045947447 -0.029720668 0.07259504
000210 79 f2 b6 3d 12 1b 0c bc d9 ab cd bd af 5d d6 bd
       0.08932967 -0.008551376 -0.10042543 -0.104670875
000220 f0 db 77 bd 6a 46 96 bd 2c 14 a7 bd 7d a5 7f bd
       -0.060512483 -0.07337649 -0.08158144 -0.06241368
000230 0b fc e3 bc 11 5a 9c 3d 86 58 0f 3d 2b e8 d0 3d
       -0.027830144 0.07634366 0.034996532 0.102005325
000240 61 a6 33 3d fa 0e 27 3d 3d f2 03 be 09 d4 7c bd
       0.043859843 0.040785767 -0.12885375 -0.06172565
000250 9b 03 a8 3d ab 24 64 bc d6 5f fc 3c 2d e3 6b 3d
       0.08203813 -0.013924758 0.030807417 0.0575897
000260 ac a3 46 3c a8 de 9a bb b5 17 ac 3d e8 2a ac bd
       0.012123983 -0.0047262497 0.08402959 -0.08406621
000270 25 23 e2 3c 50 63 92 3c a9 39 96 3c b6 97 b6 bd
       0.027604649 0.017869622 0.018338041 -0.08915655
000280 a8 13 28 bd 04 03 96 3d e3 65 0b 3d 65 3f d6 3c
       -0.04103437 0.07324794 0.034032714 0.026153276
000290 21 b3 12 3d 99 41 fa 3c 91 48 77 3d 5a 60 7e 3d
       0.035815362 0.030548858 0.06037194 0.062103607
0002a0 03 50 da bc 8e 48 57 bd 94 9d 42 bd fe c6 c8 3c
       -0.02664948 -0.052559428 -0.04751356 0.02450895
0002b0 be c8 bf 3d 9e 9b 60 3c 93 fe a7 bd 61 b1 ee 3c
       0.093644604 0.013708977 -0.08202853 0.029137315
0002c0 1f 63 93 bd c7 64 1b bd 35 28 d4 3d 79 56 0c 3d
       -0.0719664 -0.037937906 0.103592314 0.034262154
0002d0 a0 9b be bd 51 fa 77 bd de 6c 46 3d 88 3c e6 bb
       -0.09307027 -0.060541455 0.048443668 -0.007026259
0002e0 3f da 08 3d 75 e5 49 3d 90 7b da bc 0b 04 19 3c
       0.03341126 0.049291093 -0.026670247 0.009339343
0002f0 95 85 f0 3c 70 1e d3 bd 86 e1 08 3d 09 53 1d bd
       0.029360572 -0.1030854 0.0334182 -0.038409267
000300 fd 5e 48 3d 72 0c 4e bd 52 24 62 3c 8b ba 2b 3d
       0.048918713 -0.050304838 0.013802605 0.041925948
000310 de 4b 79 bd e5 c3 07 bd ad dc 95 3b f2 01 71 bd
       -0.06086337 -0.033145804 0.0045734257 -0.058839746
000320 41 80 67 bd 9a 9f 22 bd 1c 04 8f bd b1 fd 26 bd
       -0.056518797 -0.03970299 -0.06983206 -0.040769283
000330 e7 b1 8b bc 1d 8a 49 3d 39 4f af 3c d3 59 3b bc
       -0.017052604 0.04920398 0.021400081 -0.01143499
000340 57 a7 db 3b 90 df 85 3c b5 ba 96 3d 3d 2b 66 3d
       0.006703298 0.016341954 0.0735983 0.05619358
000350 ad 9b 0d 3d 0e 58 bb bc f0 73 e0 3c 21 80 12 3d
       0.034572292 -0.022869136 0.027399033 0.035766724
000360 52 e4 89 3d 32 a5 00 bd c9 50 54 3d 7c cc 6a 3c
       0.06733002 -0.031407543 0.051834855 0.014330979
000370 86 ab 80 3d 8c 06 c0 3c 29 4e 8d 3b a9 5b 43 bd
       0.062827155 0.023440622 0.004312296 -0.047694836
000380 86 63 81 bd 58 e2 a5 3c 69 a3 d9 3d a0 29 d5 bd
       -0.06317811 0.02024953 0.10626871 -0.1040833
000390 50 d8 b6 3d 30 e2 c6 3b 18 d3 03 3d ff 11 a7 bc
       0.08927977 0.006069444 0.032183737 -0.020394323
0003a0 a7 43 63 3d 85 82 39 3d cd 73 68 3d c1 17 78 bc
       0.05548444 0.04529049 0.05675106 -0.015142382
0003b0 05 06 c9 3d 5b 34 09 bd 63 4a 2d 3d 32 55 08 be
       0.09815601 -0.033497196 0.04230727 -0.1331375
0003c0 a2 a9 5e bd 89 ad bb bd 3b 5d bd 3c 4c 81 1e bc
       -0.054360993 -0.091639586 0.023115745 -0.009674381
0003d0 6a 0e f2 bc 0b a1 42 bd 41 b3 f4 3b 5a 21 88 3c
       -0.029547889 -0.047516864 0.007467658 0.016617466
0003e0 62 b0 bb 3b 72 8e 21 bd 5f 7d 6a 3d 9a 8a 46 3d
       0.0057278136 -0.039442487 0.05724847 0.048472025
0003f0 8a b5 da 3c 88 e3 03 bd 55 28 81 bd da 7a 1e bd
       0.026697893 -0.032199413 -0.06306521 -0.03869138

Encoder.graph_convolutions.0.bias f4 [128]
000000 2c a7 4c bd 9c 53 5a 3d 97 00 3b 3d e4 14 06 3d
       -0.049964115 0.053302392 0.04565486 0.032734767
000010 41 16 dc 3c 14 b5 77 3c 1f 98 76 bc a6 14 93 bd
       0.02686608 0.015118856 -0.015050917 -0.07181673
000020 1e e5 74 bd b6 ae 0f bd f0 38 1a 3d cb 27 e3 3d
       -0.059788816 -0.035078727 0.037651956 0.11091574
000030 b4 b0 1e bd 2e d3 31 bd 72 9f 19 bd 7b bf 2a bd
       -0.038742736 -0.043414287 -0.037505575 -0.041686516
000040 9f 41 52 bc 85 49 3c bd af 3e 04 ba f4 ed 36 bd
       -0.012833028 -0.04596855 -0.0005044741 -0.044660524
000050 b1 08 42 bd 19 c2 01 bd f6 4e a4 bd dd de 9f bd
       -0.04737157 -0.031679247 -0.08022873 -0.0780618
000060 47 c2 8d 3d 3c 84 6b 3d 3d 44 22 3d 1f 58 56 bc
       0.06921821 0.057499155 0.03961586 -0.013082533
000070 61 a4 86 bd 34 19 83 3d 84 8b fc 3c 3f 81 a1 bd
       -0.065743215 0.064012915 0.030828245 -0.0788598
000080 8d 5c d6 bc 39 93 32 bd 43 27 69 bb 5f 1b bf 3b
       -0.026167179 -0.043597434 -0.003557638 0.0058321203
000090 cb b5 54 bc 17 a0 13 bd 0c 6d 4b 3d 70 53 89 3d
       -0.012982796 -0.036041345 0.049664542 0.067053676
0000a0 f6 bc 45 bc 7f be ca 3c 26 b1 ab 3d f9 bd 3f bd
       -0.012068978 0.024749039 0.08383398 -0.04681203
0000b0 66 9f 13 3d 8e 69 c4 bd d8 8d 83 3d c5 09 49 3d
       0.036040686 -0.095904455 0.06423539 0.049081583
0000c0 52 0b 92 3d 8a 01 a5 3d bf 2e 41 3d b5 23 ee 3d
       0.071310654 0.08056934 0.04716372 0.11627904
0000d0 a2 90 6d 3d 08 5d a8 bd 8e d5 63 3b f5 bf 46 bd
       0.05799926 -0.08220869 0.003476474 -0.04852291
0000e0 62 09 65 3d dc 36 a0 3d c9 3b 3c bd 75 a8 2d bb
       0.05591715 0.078229636 -0.045955453 -0.0026498113
0000f0 31 67 a6 3d 0f 68 35 bc 00 f9 c0 bd d1 00 8f 3c
       0.08125151 -0.011072173 -0.09422493 0.017456444
000100 1f cf ad bd 00 2a ab bd 96 00 1b bd c4 af 92 bd
       -0.08486771 -0.0835762 -0.037842356 -0.07162431
000110 e5 81 20 bd 86 c5 58 3c 16 d8 7f 3d 25 fa 1e bd
       -0.039186377 0.013230687 0.062461935 -0.038812775
000120 14 cf 0d bd 49 80 f4 3c 03 3c e5 3c 3b 18 60 3d
       -0.034621313 0.029846327 0.027982717 0.054710608
000130 af 20 5f bd 15 6c 5f 3d c6 62 82 bd 6e 76 66 3d
       -0.05447453 0.054546434 -0.06366496 0.056265287
000140 45 ba 1d bc 2b 9e 20 ba d4 d4 33 3a ab aa 95 3d
       -0.00962693 -0.00061270845 0.0006860022 0.07307943
000150 47 a9 b0 bc 6a 95 72 bd a0 cd 69 3d 7f cb 58 bd
       -0.021565093 -0.059224524 0.057080865 -0.052928444
000160 c6 f7 91 3c ce 7a 20 3d 06 6a 85 bc 01 31 0e bd
       0.017818343 0.039179616 -0.016285907 -0.034714703
000170 34 c7 1c bd a8 22 7a 3d 19 d4 8f bd a9 75 8a bd
       -0.038275912 0.061068207 -0.07022876 -0.06760723
000180 6e e6 68 bd 8c db 95 bc 27 f0 ef bd f8 06 e7 3c
       -0.05686038 -0.018293165 -0.11715727 0.028201565
000190 44 fb 3d 3d 68 aa 1b bb d0 57 2b 3d 7a 97 14 3c
       0.046382204 -0.0023752693 0.04183179 0.009069318
0001a0 f4 88 0d 3d 69 8d 81 3d f0 79 16 bd 23 b8 cd bc
       0.034554437 0.063258 -0.036737382 -0.025112217
0001b0 63 81 30 bc 46 df 20 bc 8c f5 25 bd 67 7e ac 3b
       -0.010773036 -0.009818858 -0.040517375 0.005264092
0001c0 71 ca 4a bd 5f 8c 34 3d eb 60 94 bd 21 36 71 3d
       -0.04950947 0.04407918 -0.07245048 0.058889512
0001d0 39 15 a6 bc 44 67 92 bd 10 6b a0 3c 59 ce b8 bd
       -0.020273792 -0.071486026 0.019582301 -0.09023733
0001e0 00 0d 76 3d d6 4f 43 3c ee 3b 5d 3d a9 c5 60 bd
       0.06007099 0.01192089 0.05401223 -0.054876003
0001f0 b1 d2 3a 3d 27 03 9b bd d0 e7 d8 3b f3 db 42 3d
       0.045611087 -0.07568961 0.006619431 0.04757304

Encoder.graph_convolutions.0.bn.weight f4 [128]
000000 68 f6 74 3f 42 fb 7c 3f 80 7f 87 3f 4b 43 86 3f
       0.95688486 0.9882089 1.0585785 1.0489286
000010 43 e0 81 3f b2 b7 8b 3f ab 2e 90 3f fe dd 84 3f
       1.0146564 1.0915434 1.1264242 1.0380247
000020 8b 0c 8e 3f ed 5e 83 3f 3a 4b 7f 3f 34 f1 81 3f
       1.1097578 1.0263344 0.9972416 1.0151734
000030 b2 c7 85 3f 34 3d 88 3f f3 d3 8d 3f 57 c4 87 3f
       1.0451567 1.0643678 1.1080307 1.0606793
000040 83 30 88 3f ec 6b 91 3f d2 5e 82 3f 34 61 84 3f
       1.0639805 1.136106 1.0185187 1.0342164
000050 23 1d 8d 3f c6 64 7f 3f 42 d1 85 3f aa 08 80 3f
       1.1024517 0.99763143 1.0454485 1.0002644
000060 15 11 7d 3f f7 8a 78 3f 30 13 84 3f 7b 05 83 3f
       0.9885419 0.97087044 1.0318356 1.0236048
000070 65 84 85 3f 00 00 80 3f b8 0e 8e 3f 82 74 80 3f
       1.0431029 1.0 1.1098242 1.0035555
000080 5a 12 80 3f f1 74 84 3f 8b 69 86 3f 79 9c 84 3f
       1.00056 1.0348188 1.0500959 1.0360252
000090 92 69 82 3f 6e 80 85 3f 58 1a 85 3f 64 2a 8e 3f
       1.0188468 1.0429819 1.0398664 1.1106687
0000a0 1c 8e 81 3f 63 a9 80 3f 16 ab 85 3f 52 24 79 3f
       1.0121493 1.0051693 1.0442836 0.97321045
0000b0 28 6f 89 3f 2d 35 8a 3f 92 b9 8a 3f 17 49 86 3f
       1.0737047 1.0797478 1.0837882 1.0491055
0000c0 cb fc 88 3f 3f b1 7b 3f 53 93 7c 3f 5d b4 80 3f
       1.0702146 0.9831733 0.986623 1.0055043
0000d0 c7 db 85 3f e2 13 80 3f 7d 6d 86 3f 38 84 94 3f
       1.0457696 1.0006068 1.0502163 1.160285
0000e0 ec 46 84 3f 78 18 77 3f 87 22 80 3f b3 e5 98 3f
       1.0334144 0.9652171 1.0010537 1.1945099
0000f0 d0 8d 89 3f ef 6d 80 3f a5 e7 89 3f f0 e7 86 3f
       1.0746403 1.0033549 1.0773817 1.0539532
000100 84 78 83 3f 2d 75 80 3f 58 12 8a 3f 7d c8 86 3f
       1.0271153 1.0035759 1.0786848 1.0529934
000110 63 52 77 3f 00 1c 8a 3f 5f 6b 7e 3f c3 bc 7b 3f
       0.9661009 1.0789795 0.99382585 0.983349
000120 c2 77 90 3f ba fa 80 3f 54 a3 83 3f e0 0f 8d 3f
       1.1286547 1.0076516 1.0284219 1.102047
000130 a8 5a 7f 3f 09 9d 8c 3f 72 b6 85 3f cb d4 86 3f
       0.99747705 1.0985423 1.0446303 1.0533689
000140 00 00 80 3f ef ca 89 3f 98 d4 80 3f d3 2e 82 3f
       1.0 1.0765055 1.0064878 1.017054
000150 51 a0 7d 3f b1 1d 81 3f af 24 85 3f 9b 20 77 3f
       0.9907275 1.0087186 1.040182 0.96534127
000160 e3 4e 77 3f ff 55 8a 3f 40 96 86 3f fe 1c 81 3f
       0.96604747 1.0807494 1.0514603 1.0086973
000170 dd 45 8b 3f 8f 4d 7e 3f 1a 2a 8b 3f a4 9b 8c 3f
       1.0880696 0.99337095 1.0872223 1.0984998
000180 ad 02 82 3f c0 5e 7e 3f ce 59 8d 3f 67 46 82 3f
       1.0157067 0.9936333 1.1043031 1.0177735
000190 98 7b 86 3f 67 fc 78 3f f7 5c 81 3f 9d db 77 3f
       1.0506468 0.97260135 1.0106496 0.9681948
0001a0 14 7c 81 3f 9a bb 88 3f 5a 4b 86 3f 60 29 8c 3f
       1.0115991 1.0682251 1.0491745 1.0950127
0001b0 ab b2 7e 3f 20 60 84 3f 78 8e 7c 3f 58 bb 87 3f
       0.99491376 1.0341835 0.9865489 1.0604048
0001c0 60 4e 82 3f ae ea 76 3f 25 ad 80 3f b4 79 80 3f
       1.0180168 0.9645184 1.005284 1.0037141
0001d0 4e 10 7c 3f 46 d5 7f 3f 62 58 80 3f d8 53 85 3f
       0.9846238 0.99934804 1.0026972 1.0416212
0001e0 24 cc 88 3f 36 7a 92 3f 16 f9 80 3f 0d 92 79 3f
       1.0687299 1.1443546 1.0076015 0.9748848
0001f0 55 be 7f 3f 00 00 80 3f 2c 74 7e 3f 05 a4 86 3f
       0.998998 1.0 0.99396014 1.0518805

Encoder.graph_convolutions.0.bn.bias f4 [128]
000000 6f 1f 15 bd 88 fe b7 bb db af 05 3c 60 4e 22 3d
       -0.03640693 -0.0056150593 0.008159603 0.039625525
000010 58 59 85 3b 3a d0 27 3d 78 02 9a 3c cb a1 7a bc
       0.0040694885 0.040970065 0.018800005 -0.0152973635
000020 5a 26 60 3d 3c 4c 6f bd 1c c2 8d 3c 29 35 93 bc
       0.054724075 -0.058422312 0.017304473 -0.017969685
000030 93 5a d3 3b 8c 74 56 bc 77 43 88 3d f1 97 f4 3c
       0.0064500063 -0.01308931 0.06653493 0.029857608
000040 ee 71 94 3c d5 aa 78 3d 0c 71 2e 3c a4 8f 3e 3d
       0.018120732 0.060709793 0.01064707 0.046523705
000050 94 b6 4f 3d 76 10 02 bc 2f 33 df 3c 5b 81 73 bc
       0.05071123 -0.007938495 0.027246086 -0.014862384
000060 eb 9f 2e 3c 4a e9 ed bc ee 0e 8b bb fa 19 e0 3b
       0.010658245 -0.029041905 -0.004243723 0.006839034
000070 ec 7e 64 3c 00 00 00 00 71 fe a9 bd 3e 3f 07 3c
       0.013946276 0.0 -0.08300484 0.008254824
000080 a8 9b 1c bc 3d d1 d0 3b 5d b9 c6 3c d2 ac d5 3c
       -0.009558596 0.0063725994 0.02425831 0.026083384
000090 d7 d2 9a 3d 7d 9d 2e bc d5 1b e6 3c d1 8e 84 3d
       0.07559746 -0.010657665 0.028089443 0.064725526
0000a0 68 f9 02 3c c4 bd 65 bb b7 85 b0 bc 96 ca e3 bc
       0.007994033 -0.0035055736 -0.021548135 -0.027806561
0000b0 09 e6 dd 3c be df 01 3d 1e 82 6a 3c 11 02 d5 bb
       0.027087228 0.031707518 0.014313249 -0.0065004905
0000c0 fc 0f f0 3c 92 4e 88 3a 72 cb e3 bb c5 63 83 bd
       0.029304497 0.0010399392 -0.006951743 -0.06415514
0000d0 c7 5f 43 bb 0e 27 ac bb 28 06 f9 3b 98 2f 8b 3d
       -0.0029811726 -0.005253679 0.007599611 0.06796187
0000e0 1c f2 d8 3c f0 05 3c 36 36 33 a2 bb b0 a7 0c 3c
       0.026482634 2.801764e-06 -0.0049499525 0.008584902
0000f0 b6 2d 1d 3c d7 90 dd 3c 7f 87 d4 3c 0f ed 83 3c
       0.009593418 0.027046604 0.025943516 0.01610425
000100 ef 77 91 bc 55 5d 27 bc e1 ab 47 3d 29 aa 68 3d
       -0.017757384 -0.010215123 0.0487479 0.056802902
000110 2d b3 dc bc d7 94 75 3d 5d 1e 03 bc b2 bd 92 bc
       -0.026940906 0.059956398 -0.008002845 -0.01791272
000120 0b 53 f1 3d 48 c4 36 bd ef f3 ae 3c a0 f9 a0 3d
       0.11783417 -0.044620782 0.021356551 0.07860112
000130 95 cd 1a bc cd eb e8 3c d5 81 42 3d d8 b5 8c 3d
       -0.009448429 0.028432751 0.0474871 0.068706214
000140 00 00 00 00 e2 9c b9 3c 65 d4 bd 3c 0f 6e 24 3d
       0.0 0.022657815 0.023172567 0.040144023
000150 85 d4 12 ba 8c bd c5 bc b5 7c b2 3c 00 74 fc bc
       -0.0005601126 -0.024138235 0.02178798 -0.030817032
000160 c5 cd 61 bc 48 1f fe 3c 27 6c d7 3c 1d 78 bf 3c
       -0.013781969 0.031020775 0.026296688 0.023372704
000170 95 99 e6 3c ce f8 31 bc 41 75 ea 3b cf e9 98 3c
       0.028149405 -0.010862542 0.007155091 0.018666176
000180 d6 47 cf 3c 6b 17 11 3a 5f e3 8a 3d ac 46 99 bb
       0.025302809 0.00055348006 0.06781649 -0.004677614
000190 8e 43 46 3c 2a f1 b9 3b 76 1e 0c bc 7e e7 15 bd
       0.012101067 0.005674501 -0.008552184 -0.03659772
0001a0 18 f8 f0 bc 0b 10 c3 3c 84 78 9a bd 1b d3 f3 bb
       -0.029415175 0.02381136 -0.07542518 -0.007440937
0001b0 31 7b 64 bc 20 66 97 3b 19 16 64 bb 0e 6b 87 3d
       -0.013945387 0.0046203285 -0.003480321 0.06612216
0001c0 2e 87 eb bc e2 75 d1 bb 4f 98 97 bb b2 f4 5b bc
       -0.028750982 -0.0063922266 -0.004626311 -0.013425039
0001d0 dc 4c 97 bb 68 0c 30 bd a6 29 f7 3b 2e 8f 9f 3c
       -0.0046173166 -0.04298058 0.0075428067 0.019477453
0001e0 bb 95 1c 3d 48 78 cc 3d 2a 85 7a 3c c5 9e a9 bc
       0.03822873 0.09983879 0.015290538 -0.02070559
0001f0 d2 9c 99 3b 00 00 00 00 12 91 59 bd 3b a1 e6 3c
       0.004687884 0.0 -0.053116865 0.028153053

Encoder.graph_convolutions.0.bn.running_mean f4 [128]
000000 7b 40 0d 3c 66 4a 94 bb b8 bf 41 3d 4d e6 15 3c
       0.00862133 -0.0045254705 0.047301978 0.009149146
000010 0e 80 1e 3e 26 a7 43 bc ba 90 09 bd 2b 76 e7 bd
       0.15478536 -0.011941707 -0.033585288 -0.113018356
000020 34 72 c2 bc 21 46 a7 bc 33 a9 55 bd 56 12 01 3e
       -0.023736097 -0.020419182 -0.052163314 0.12604651
000030 9a 19 38 bd a6 35 cc bd 17 82 be bd 57 fa 84 bd
       -0.04494629 -0.0997117 -0.093021564 -0.06493061
000040 e5 09 21 bd 68 79 42 be 38 d4 84 bd cf 40 1a be
       -0.039316077 -0.18991625 -0.0648579 -0.15063785
000050 5d 88 90 bd c7 d4 4a 3d b7 8b b9 bd ce 60 04 be
       -0.07057259 0.049519327 -0.090598516 -0.12927553
000060 0d 62 34 bd 7b cf 56 3e d9 5d 35 3d 30 5c 8c bb
       -0.04403882 0.20977585 0.044278953 -0.0042834505
000070 e5 89 a9 bd 6b ac ac bc c9 bd 36 bc 62 23 5c bb
       -0.082782544 -0.021078309 -0.011153647 -0.0033590426
000080 d9 2c dc bd 55 0a a6 3b 73 b4 7e 3d 4f 49 8a 3d
       -0.107507415 0.0050671496 0.06218381 0.06752264
000090 e2 aa 52 bd ed 9e c2 bd 28 db 5d 3d 9e 2d 96 3c
       -0.051432498 -0.09502969 0.05416408 0.018332299
0000a0 00 a5 61 bd 20 3f de bc 9a 2f f9 3d 09 46 05 be
       -0.055088997 -0.02712971 0.121672824 -0.13014998
0000b0 b3 9b ff bc e0 6c 88 bd d2 5d 8b 3d 50 0d e1 3c
       -0.031202173 -0.06661391 0.06805004 0.027472168
0000c0 30 42 0c 3d 45 31 0b 3e 96 4b c7 3d 25 fc e3 3d
       0.03424281 0.13593014 0.09731214 0.11132077
0000d0 b9 0e 11 3e 80 3a d9 bd 3c 28 0d bd ca 2b 7a bc
       0.14165772 -0.10606861 -0.0344622 -0.015269229
0000e0 5a 90 1a 3c 1b 29 21 bd e8 d8 4d 3d f9 f4 4a 3c
       0.00943383 -0.03934584 0.050255686 0.012387508
0000f0 57 60 4c 3d 7b f4 2f bd 9a 18 c6 bd fc c6 5a bb
       0.049896564 -0.042957764 -0.09672661 -0.0033382764
000100 22 69 81 bd 88 d4 da bd ae 87 82 bd 9c 0e 88 3c
       -0.063188806 -0.10685068 -0.06373535 0.016608529
000110 c0 00 8d bd c6 c6 9a bd fe ba 6a 3e a1 61 ab 3c
       -0.06884909 -0.07557444 0.22922894 0.020920577
000120 5b dc 81 bd 84 b6 d0 bc 85 6b 0e bd d2 b1 81 bc
       -0.063408576 -0.025477655 -0.034770507 -0.015831862
000130 2e a9 9c bc 6f 79 a0 3d 56 a1 bc bd b5 68 71 3c
       -0.01912364 0.078356616 -0.0921046 0.014734437
000140 6a d5 a7 bd 31 40 75 3c d4 8f 13 bd 5d 6e 83 3d
       -0.081950024 0.014968918 -0.036025837 0.064175345
000150 f7 7c d6 3c bb 63 ba bd 01 4b 4b 3c d6 85 92 bc
       0.026182635 -0.09101053 0.012408019 -0.017886084
000160 e8 17 a7 3c ea 14 bd 3d fb 69 11 bd fc 1b 66 3c
       0.020397142 0.09232505 -0.03550146 0.014044758
000170 77 e8 1a bd 9c 24 81 bd e3 d4 bd bd 16 5c 13 bc
       -0.037819352 -0.06305811 -0.092691205 -0.008994123
000180 b4 8f 94 bd f3 99 fc b9 b0 2c 39 be b9 69 38 3d
       -0.07253972 -0.00048179887 -0.18083453 0.0450227
000190 de e4 c2 3d 23 ac 60 bd b4 41 b0 3d 8f b8 e3 3d
       0.09516309 -0.054851662 0.08606282 0.11119186
0001a0 af 52 b8 3d 43 66 d4 3d 72 f2 ab bd e0 13 16 bd
       0.09000146 0.103710674 -0.08395852 -0.036640048
0001b0 b4 fb da 3c ff 9a 8e bd a5 61 8c 3c f4 2f 21 3e
       0.02673135 -0.06963157 0.017136404 0.15740949
0001c0 ff b1 ed bd d8 94 81 3d 26 f8 25 be c0 d4 1c 3d
       -0.11606216 0.06327218 -0.16207942 0.03828883
0001d0 54 97 0f 3e 81 08 89 bd f6 05 09 bd d6 1c 7e be
       0.14022571 -0.06691075 -0.03345295 -0.24815688
0001e0 3b 97 86 bc a0 e9 c3 bd e2 92 ac 3d 3a 9a df 3d
       -0.016429534 -0.09566045 0.08426453 0.10918088
0001f0 7e a8 3f 3e b4 1f 58 be ef b2 b1 bc c5 df 9e bd
       0.18716618 -0.21105844 -0.021691767 -0.077575244

Encoder.graph_convolutions.0.bn.running_var f4 [128]
000000 29 20 de 3c ce 72 f0 3c c0 e3 89 3b cb c2 95 3b
       0.027114945 0.029351618 0.004208058 0.0045703403
000010 77 00 97 3d ef 6a b1 3b aa 23 6d 3c 99 55 00 3c
       0.073731355 0.005414359 0.014473835 0.007832908
000020 6a c9 28 3c 7c 52 c3 3b c0 89 5a 3d 75 ec 91 3b
       0.010301927 0.0059607606 0.053354025 0.0044532367
000030 26 7a 0f 3c 9a ec d1 3c c9 96 80 3c 2f 16 8b 3b
       0.00875715 0.025625516 0.0156969 0.004244588
000040 37 a4 ab 3b fc 3f e4 3d c5 1e 0a 3d 35 91 81 3d
       0.005238082 0.111450166 0.03372075 0.06326524
000050 62 a9 fc 3b 0e 8e ff 3c a6 1a 61 3b 84 70 2a 3d
       0.0077106217 0.031195667 0.003434816 0.04161121
000060 45 16 62 3d da f6 c8 3d 0d b3 6f 3b 69 80 a9 3b
       0.05519702 0.09812708 0.0036575228 0.0051727784
000070 77 41 30 3c 0d ae 0a 3d 40 88 5a 3c 8e 9a 31 3d
       0.010757796 0.033857394 0.013338149 0.043360285
000080 b1 b3 f5 3c e1 c7 95 3c 05 c5 09 3d 99 7e b1 3c
       0.02999291 0.018283786 0.033635158 0.021666812
000090 b3 40 3d 3c ca a4 ba 3c 16 35 8f 3b 14 6d 63 3c
       0.01155107 0.022783656 0.004370342 0.013880987
0000a0 0d b3 4f 3c 7f b1 66 3c 47 5e 14 3d 04 88 26 3d
       0.012676966 0.014080404 0.036222722 0.04065706
0000b0 df ee bc 3c 53 34 40 3c 16 41 15 3c 60 e5 2d 3c
       0.023063121 0.011731225 0.009109756 0.010613769
0000c0 53 13 40 3c d8 c5 ab 3c fc 71 ae 3c 53 f9 8b 3c
       0.011723357 0.020968363 0.021294586 0.01708666
0000d0 f1 3a 05 3d 5a 0e 07 3c a5 99 fc 3b ba e8 b0 3c
       0.032526914 0.008243168 0.0077087455 0.021595348
0000e0 d4 f7 28 3c 8b 8f c6 3d 10 3e 2a 3d 85 88 41 3c
       0.010312993 0.096953474 0.041563094 0.011812334
0000f0 20 e8 4e 3c f7 15 f4 3b 06 9f 82 3c 22 68 55 3b
       0.012628585 0.0074489075 0.015944969 0.0032563289
000100 d4 c1 35 3c bb 2c 30 3c 59 1d 87 3b 1c d9 11 3d
       0.0110935755 0.010752852 0.0041233716 0.035607442
000110 bf 4f fd 3c 11 5f 1d 3d 85 0d fe 3d 51 6c 9d 3c
       0.030921815 0.03842074 0.124049224 0.019216688
000120 8e c2 bc 3b 49 a4 6c 3c ea a5 9a 3c f2 99 d7 3c
       0.0057604974 0.0144434655 0.018877942 0.026318524
000130 96 c8 a0 3c d0 47 1f 3c 66 5c c3 3b 0b 1b 25 3c
       0.019626897 0.009721711 0.0059619425 0.010077248
000140 32 3c c3 3c 0b 86 28 3b 63 bb 20 3c 11 bc 9b 3b
       0.023832414 0.0025714661 0.0098103015 0.004752644
000150 00 35 a1 3c 0b a2 c0 3b a9 34 27 3c ac 14 67 3c
       0.019678593 0.005878692 0.010205426 0.01410405
000160 4e 63 33 3b e9 a5 93 3c 02 51 99 3b 42 04 35 3c
       0.0027372423 0.018023448 0.0046788463 0.011048378
000170 af 48 05 3c ab c9 85 3d ad fa 69 3c 46 6d b4 3c
       0.008135005 0.06532606 0.014280957 0.022024762
000180 60 85 a7 3c 93 7e 0f 3c de 60 bb 3c af 6e b1 3b
       0.02044934 0.008758205 0.022873338 0.005414806
000190 c5 6b 9c 3c af 50 76 3c c2 ca 8d 3c 3c 00 6a 3d
       0.019094357 0.015033885 0.017308597 0.05712913
0001a0 fb 8b b2 3c 85 65 5c 3c ad f6 4f 3c 88 20 e2 3b
       0.021795264 0.0134519385 0.012693089 0.0069008507
0001b0 b0 24 1c 3c ee 94 88 3c 87 92 d1 3c 29 82 ca 3d
       0.009530231 0.016672578 0.025582565 0.09888107
0001c0 6d 4e b1 3c c7 a3 97 3b 8a 81 22 3d 4e 01 c7 3b
       0.021643842 0.004627678 0.03967432 0.0060731536
0001d0 76 3c e4 3d 3a 1f 36 3c 43 6c a4 3c 4d d6 e8 3d
       0.111443445 0.011115843 0.020071154 0.11369
0001e0 e8 02 06 3d 9e 35 75 3d d4 a9 93 3b f1 a0 f5 3d
       0.032717615 0.059865586 0.004506329 0.11993588
0001f0 05 d0 b2 3d 0f e5 a0 3d 19 03 d7 3b 80 aa 9e 3d
       0.08731083 0.078561895 0.0065616486 0.07747364

Encoder.graph_convolutions.1.weight f4 [128, 128]
000000 14 79 0e 3b 4a bf 71 bd a4 0e d0 bc 15 e5 b4 bd
       0.0021739649 -0.059020318 -0.025397606 -0.088327564
000010 eb 22 20 bc 31 37 56 bd ab da bb 3c d7 f1 ba 3d
       -0.00977395 -0.05229873 0.022931417 0.091281585
000020 0c a5 da bc 45 58 ab bd 1b ac 94 3d 9d b0 23 3d
       -0.026690029 -0.083664455 0.07259389 0.039963353
000030 e0 8f 7b 3b 86 09 59 3d 96 ff 8e bd 56 0f 93 3d
       0.0038385317 0.052987598 -0.06982343 0.071806595
000040 51 d9 87 bd 9d 39 41 bc 7c ac 3a 3d 3e a5 1d bc
       -0.06633247 -0.011793521 0.04557465 -0.009621916
000050 86 81 8e 3d 76 16 d1 3d 6a ef 67 bd c2 93 3b 3d
       0.069582984 0.10209362 -0.056624807 0.04579521
000060 b2 6b cd bc a0 d4 f8 3c d5 7c a6 bd 2e 35 84 3c
       -0.025075767 0.030374825 -0.081292786 0.01613864
000070 ea 5b bf 3c 1e 1f 4e 3d f7 6a d4 bc 46 0a 7f bd
       0.023359258 0.050322644 -0.025929911 -0.062265657
000080 3c 5b 04 bd 77 d8 a0 3d ab 15 b8 bc 5f d5 dc 3d
       -0.03231357 0.078537874 -0.02247127 0.10782885
000090 19 c6 9b 3b 39 95 ac bd 8c 42 5e 3d db db 50 bd
       0.0047538397 -0.084268995 0.054262683 -0.05099092
0000a0 1f e0 25 3d 95 82 d3 bc 23 5c 57 bd 0b 32 7f 3d
       0.04049694 -0.025819102 -0.052578103 0.062303584
0000b0 7c 55 ec 3b 84 72 9d bd db 78 bf 3d 67 1d 96 3d
       0.007212339 -0.07687858 0.09349223 0.07329827
0000c0 41 19 b4 bd c4 f2 d4 3c 35 0c 10 3c 3c 54 ff bc
       -0.08793879 0.025994666 0.008791973 -0.031168096
0000d0 d4 0e 5d bd 53 c6 89 bd 94 25 8a bd e9 5b 63 3d
       -0.05396922 -0.067272805 -0.06745449 0.055507574
0000e0 ba 23 2a bc ac 24 ef b9 16 1b 80 bb 56 e8 42 3d
       -0.010384494 -0.00045612955 -0.003909479 0.047584854
0000f0 66 e3 2e bd fb e9 ee bc 50 c8 06 bd 93 b4 a9 3c
       -0.042697333 -0.029164305 -0.032905877 0.020715987
000100 be fb 2c b9 fc 07 c0 3d 16 05 4a 3b 7b d8 99 bd
       -0.0001649698 0.09376523 0.0030825785 -0.075119935
000110 a2 4c 27 3d 6d 4a 8e 3d 93 5a 6b bc 72 4d fb 3b
       0.040844567 0.06947789 -0.014364856 0.0076691443
000120 3a 14 83 3d 71 a0 59 b9 a4 2a e2 3c a1 50 2d 3d
       0.06400342 -0.00020754502 0.027608223 0.04231322
000130 89 81 94 3c 71 5e a9 bc 97 86 54 3d 03 9c a1 3a
       0.018128173 -0.020674916 0.051886167 0.001232982
000140 06 7e f6 bc da 87 44 3d e2 20 88 3d ff 4e dc 3c
       -0.03008939 0.04798112 0.06646897 0.026893137
000150 ef e2 a8 3a 5a 02 20 3c 04 ab 44 bd 0a 67 16 3d
       0.0012885014 0.009766186 -0.048014656 0.03671936
000160 12 ed 08 3c 51 93 41 bd e2 44 a0 bd f6 28 27 ba
       0.008357303 -0.047259632 -0.07825638 -0.0006376648
000170 4a d0 20 3d 5b 5a 61 bd e2 9f 65 3d 2d b1 3c bd
       0.03926114 -0.05501781 0.05606068 -0.046067405
000180 bb b3 2a bd 44 37 b2 3d 12 99 9a bd 1f 76 76 3d
       -0.04167531 0.08701947 -0.07548727 0.060171243
000190 c2 3c 7f 3d 38 c4 2b bc cc 1f 95 bc 76 18 43 ba
       0.062313803 -0.010483794 -0.018203638 -0.00074423046
0001a0 7f fa 6a 3d bc 00 98 bd 42 b9 ad 3d 09 18 89 3c
       0.057367798 -0.07422015 0.08482601 0.016735094
0001b0 4e 94 40 bd ec e3 1f 3d d3 b4 0e 3d d2 e5 7a bc
       -0.047016434 0.039035723 0.034840416 -0.0153135825
0001c0 94 89 8d bd c9 d5 8d 3d 5c 58 fc bc 3b 9f 50 bd
       -0.069110066 0.06925542 -0.030803852 -0.050933104
0001d0 99 26 0f bc e9 c6 c7 bb 67 c5 74 bd 41 9a 21 3d
       -0.00873723 -0.00609671 -0.05975857 0.03945375
0001e0 83 74 81 3b bb 72 95 3b 6d d6 c4 bc 0c 69 15 3c
       0.003950657 0.004560796 -0.024028027 0.009119283
0001f0 84 ed a1 bd 91 36 d1 3d 0f c3 54 3d a2 91 9f 3d
       -0.07906631 0.10215486 0.051943835 0.07791449
000200 9c 9b 9b bd f4 7f 1a bd 14 8a 29 bd d9 e6 49 bd
       -0.075980395 -0.03771968 -0.041391447 -0.04929242
000210 58 d3 b5 3a 57 43 22 3d 14 58 b5 3c 22 b6 27 bd
       0.001387219 0.039615 0.022136725 -0.04094518
000220 e2 f5 98 bd 9d 10 d4 3d b7 b4 3b 3c 56 d8 39 bd
       -0.074687734 0.10354731 0.01145666 -0.04537233
000230 b2 f7 7c 3d 6c 44 55 bd 58 7b 24 bd a3 21 35 3d
       0.06175966 -0.052067205 -0.040156692 0.04422153
000240 ae 0c 90 bd 9a 86 60 3d 92 ef a5 3d c6 03 dd bc
       -0.070336685 0.054815866 0.08102335 -0.026979338
000250 5b 6b 38 bb 13 16 cb 3b ed 34 90 3d 43 62 fa bc
       -0.002814016 0.0061977 0.07041345 -0.030564433
000260 7f 77 99 bd 87 75 d2 bb 61 ee ad 3c 1d e5 97 bd
       -0.07493495 -0.0064227018 0.021231832 -0.07416747
000270 ce 19 b5 3d 0b c9 65 3b 5c d1 b1 3d 00 f1 36 3c
       0.088428125 0.0035062458 0.0868251 0.011165857
000280 ea ec b6 bc 96 b5 9f bd 2d de 82 3d 8d 92 91 3c
       -0.022329766 -0.07798307 0.06390033 0.017770076
000290 58 01 7b 3d fd 79 98 3d 6f 6d 9f bd 1e 36 47 3d
       0.06128058 0.074451424 -0.07784545 0.048635595
0002a0 ca 1e 68 bd 1e 94 01 3d 95 29 8d bd 5b 0f 7c 3d
       -0.056669988 0.031635396 -0.06892697 0.06153808
0002b0 97 4d 5a bc 1a 18 69 3d b9 ee bb 3d e0 a0 8c 3c
       -0.013324163 0.05690775 0.09176392 0.017166555
0002c0 e1 6c af bd 29 fb 9f bc 01 77 e4 bb c3 cb a8 bc
       -0.08565689 -0.019528942 -0.006972194 -0.020604974
0002d0 9e 0b 29 3d d0 f6 c8 bd 1d f1 61 3d 52 64 fc bc
       0.041270845 -0.09812701 0.055161584 -0.030809555
0002e0 f8 e7 46 bd 8a d1 e1 3b 13 7d 84 3d 6c a3 94 3c
       -0.048561066 0.006891434 0.064691685 0.018144332
0002f0 1b 6f 7f bd c9 8b 97 3d f4 23 f4 3b be f4 5e 3d
       -0.062361818 0.07399709 0.007450575 0.054432623
000300 2b 48 cd bd 28 71 94 bd 48 48 6e bd 35 d0 05 3d
       -0.100235306 -0.07248145 -0.0581744 0.032669265
000310 3e 96 bd bd 4d 66 6e 3d c9 91 a8 3b e9 40 f0 3b
       -0.09257172 0.05820303 0.005144332 0.0073319566
000320 63 89 87 bd df 3b b6 bd 51 e7 7d 3d 92 2e 53 bd
       -0.06618001 -0.08898138 0.06198818 -0.051558085
000330 56 47 87 bc 88 7a 93 3d 98 e8 03 bd b7 90 6f bd
       -0.016513508 0.07201105 -0.03220424 -0.05848762
000340 a3 b3 46 bd 80 b4 e1 3c 4b c6 2f bd d3 f6 ae bc
       -0.04851116 0.02755189 -0.042913716 -0.02135793
000350 05 0f 7c 3d c6 42 91 bd da c9 0b 3c 7f 2a 87 3d
       0.06153776 -0.07092814 0.008532012 0.06599902
000360 25 a1 e7 bc 35 78 71 3d d8 fe f2 3c 91 93 89 3d
       -0.028275082 0.05895253 0.029662535 0.06717599
000370 42 c8 41 3c 7e e6 ac 3c 1e b3 d3 bc c3 d9 05 bd
       0.01182753 0.021106001 -0.025842246 -0.032678377
000380 a6 2d 63 bd 03 53 ad 3b 2b 74 ac 3d 9b bf 28 3d
       -0.055463456 0.005289437 0.08420595 0.041198354
000390 a0 3b a6 3d 38 48 9d 3c f6 67 05 3d f8 d7 bb 3b
       0.08116841 0.019199476 0.032569848 0.0057325326
0003a0 80 f8 d5 bd b0 1d 08 bd d6 e9 8a 3d 32 ae b1 3c
       -0.10447788 -0.033231437 0.06782882 0.021689508
0003b0 c9 c0 99 3d 46 b7 46 3c 49 1c aa 3c aa aa 0e bd
       0.07507474 0.012128657 0.02076544 -0.034830727
0003c0 b7 c6 8d bd b5 09 20 bc 85 9d 4e bc 72 e5 2d bd
       -0.069226675 -0.009767939 -0.012610798 -0.042455144
0003d0 8d fb a7 bc 7a 17 a6 3d a6 a3 28 bd d0 37 22 bd
       -0.020505691 0.081099465 -0.041171692 -0.03960401
0003e0 1d 7e 09 bc d8 fe 87 bd c5 6d d9 39 e7 21 a2 bc
       -0.008391884 -0.066404045 0.0004147125 -0.019791557
0003f0 15 f7 08 bd ae 9e 94 bd d4 02 e0 3c 1e 49 de 3d
       -0.03343876 -0.07256828 0.027345099 0.1085379

Encoder.graph_convolutions.1.bias f4 [128]
000000 30 32 b2 3d bc ae 26 bd db 12 6f bd 72 a5 a1 3d
       0.08700979 -0.040693983 -0.05836759 0.07892884
000010 4b 6c 62 bd 7f ba 73 bd 2e 84 47 3d 7b 05 6b 3d
       -0.055279057 -0.05950403 0.04871004 0.057378273
000020 38 fb 2b 3d 77 f9 86 bc da 2c 6a bc 12 66 b2 bd
       0.041987628 -0.016476376 -0.01429292 -0.087108746
000030 19 59 9c bc 08 31 8f bd 2b 2c b3 3d c7 97 6e 3b
       -0.019085454 -0.06991774 0.08748659 0.0036406384
000040 07 40 26 bb 80 e4 d7 3c 0d a7 00 3c 85 5c eb bc
       -0.0025367753 0.026354074 0.007852328 -0.02873064
000050 cf 19 85 bd 93 d5 b4 bd 05 8e 04 bd 16 cb 77 bc
       -0.06499063 -0.088297985 -0.032362003 -0.015124103
000060 13 bc 04 bc a0 13 8f bb 6c 31 b1 3c d6 db 83 bd
       -0.008101481 -0.004366353 0.021630011 -0.06438415
000070 19 ba b1 bd 4a f3 87 bd e4 11 f7 3c 54 a1 58 3d
       -0.086780734 -0.066382006 0.030159898 0.05288823
000080 5e 9e 95 bd 54 6f 26 bd 75 46 87 bc 4e ab 03 bd
       -0.07305597 -0.040633515 -0.016513089 -0.03214579
000090 a7 37 25 bc da ed 24 bd d2 6e 40 bd 5a 94 89 3c
       -0.010084069 -0.040265895 -0.046980686 0.016794372
0000a0 2f 72 c7 bc d4 46 9d 3d 53 25 2c 3d e0 d1 c3 bc
       -0.02434644 0.07679525 0.042027783 -0.023903787
0000b0 4b 7c 0a bd 24 78 93 3d 94 5c ad bb 4f 35 3a bd
       -0.03380994 0.072006494 -0.005290577 -0.045460995
0000c0 29 33 e9 3c c7 82 a6 3c c7 5c 4a 3d f8 0a 56 3c
       0.028466778 0.020326031 0.049404886 0.013064139
0000d0 8f 40 9c 3d d3 e5 bb 3c 59 61 e5 bc 6c db 89 3c
       0.07629501 0.022936737 -0.02800052 0.016828261
0000e0 2d ab 5d 3d 80 19 7e bd 57 17 42 bd 65 6c 62 bc
       0.054118324 -0.062036037 -0.04738554 -0.013819789
0000f0 f0 b5 9d 3d fe 92 b2 3c 77 55 de 3c 30 96 56 bd
       0.077007174 0.021798607 0.027140362 -0.052389324
000100 ba 01 aa bd 5f 2a 42 bd de fe 35 bd ea 3b 4c 3d
       -0.083011106 -0.04740369 -0.044432513 0.049861826
000110 03 94 92 3c 10 ae 8f 3d 0a 7f 5f bd e6 7f 9c bc
       0.017892843 0.07015622 -0.054564513 -0.019103955
000120 db 0c 83 bd ff 74 47 3d fc 19 63 bd e8 24 17 3d
       -0.06398936 0.04869556 -0.055444703 0.03690043
000130 46 3d 1b 3d 2e eb 9b bd eb b9 c6 bc 0a 18 6c 3c
       0.03790023 -0.07613216 -0.024258574 0.014410028
000140 c3 7b b4 3d 93 db b8 bd dc 37 8a bd 9f 30 b3 3d
       0.08812668 -0.090262555 -0.067489356 0.08749508
000150 56 56 9c bd f4 ed ed b8 ab 01 8a 3d 11 e3 47 3d
       -0.07633655 -0.00011345363 0.067385994 0.04880053
000160 5b cb fd 3c 5e 75 08 3d c8 a0 07 bd 91 eb 7d bd
       0.030980757 0.033315055 -0.033112317 -0.06199223
000170 09 fe 92 3c 93 09 a3 bd 39 48 8b 3d fb f6 f2 3c
       0.017943399 -0.079608105 0.06800885 0.029658785
000180 2b f3 92 3d 6b 28 0b bd 06 16 3e bd f2 f0 bd 39
       0.07175287 -0.033974092 -0.046407722 0.00036228407
000190 50 6b 8a bd 24 7a 8d 3d 3e 2f 66 3c b2 72 ed 3c
       -0.067587495 0.06908062 0.014049349 0.028985355
0001a0 3c 66 78 bd f3 e2 4f 3d c5 da 6d bd 5f 8f 85 bd
       -0.060644373 0.050753545 -0.058069963 -0.065214865
0001b0 d5 43 6d bd bc 5c 94 3c 9c 35 c3 bc 6b 58 0b 3d
       -0.057926018 0.018110625 -0.023829274 0.03401987
0001c0 29 5c 42 bb 4d b5 0a bd cc e6 40 3c ad b7 10 bd
       -0.0029656983 -0.03386431 0.011773776 -0.035331417
0001d0 ae 71 c0 bc fe e2 80 3d 33 1e c0 3d ae 0e 18 3d
       -0.023491707 0.06293295 0.0938076 0.037123375
0001e0 aa 8f 15 bc c2 d8 72 bd e8 82 9d bb 92 bc 8f bd
       -0.00912849 -0.059288748 -0.004806865 -0.07018389
0001f0 1e 24 8b 3d f9 e8 82 bc e0 e1 e0 3c 15 53 23 bd
       0.06793998 -0.01598023 0.027451456 -0.039874155

Encoder.graph_convolutions.1.bn.weight f4 [128]
000000 1f 72 7a 3f 20 8e 83 3f e9 89 80 3f 21 23 83 3f
       0.97830385 1.0277748 1.0042087 1.0245095
000010 3a c4 77 3f e3 e1 77 3f 64 5a 7c 3f 9a 1c 82 3f
       0.9678379 0.9682905 0.98575425 1.0164979
000020 51 cd 7a 3f dd a9 7a 3f d8 37 7d 3f 1c 07 7b 3f
       0.9796954 0.9791544 0.98913336 0.98057723
000030 40 19 7e 3f d5 ea 7e 3f eb a9 80 3f 72 06 84 3f
       0.9925728 0.99577075 1.0051855 1.0314467
000040 8c 70 7f 3f 6c e6 79 3f d3 b4 82 3f 80 a3 7d 3f
       0.9978111 0.9761722 1.0211433 0.99077606
000050 c6 b9 7e 3f 52 81 78 3f 6f 0c 87 3f c5 93 83 3f
       0.9950222 0.9707233 1.055067 1.0279471
000060 d8 68 72 3f b7 63 78 3f 72 7c 87 3f 29 fe 84 3f
       0.9469123 0.9702715 1.0584853 1.0390064
000070 4f 0f 82 3f fc aa 77 3f f5 9d 7c 3f 51 1b 82 3f
       1.0160922 0.96745276 0.98678523 1.0164586
000080 c8 ce 84 3f 4d 0e 84 3f ac 98 7d 3f 3c 37 81 3f
       1.0375605 1.0316864 0.99061084 1.0094981
000090 a1 fd 78 3f 05 39 80 3f ef 1a 7c 3f 78 ec 85 3f
       0.97262007 1.0017401 0.984786 1.046279
0000a0 f7 d5 7b 3f 35 f7 80 3f 0d 68 7e 3f 36 65 84 3f
       0.9837336 1.0075442 0.9937752 1.0343387
0000b0 40 6d 86 3f df ed 85 3f 3b b8 7f 3f b4 f2 82 3f
       1.050209 1.0463217 0.9989049 1.0230317
0000c0 a0 2d 84 3f 6f 0f 85 3f 81 ec 80 3f ea 69 80 3f
       1.0326424 1.0395335 1.0072175 1.0032322
0000d0 9e 80 82 3f 68 d5 7f 3f b5 fe 7d 3f 8f 99 86 3f
       1.0195501 0.9993501 0.9921678 1.0515612
0000e0 8a c0 82 3f b3 93 7c 3f 99 74 7a 3f 9e 54 80 3f
       1.0215008 0.9866287 0.97834164 1.0025823
0000f0 9b 7d 8d 3f ea 9d 77 3f 0a 5d 7c 3f de 09 81 3f
       1.1053957 0.9672533 0.98579466 1.0081136
000100 eb 2a 84 3f 92 a7 77 3f ba c6 7b 3f 98 46 82 3f
       1.0325598 0.96740067 0.9835011 1.0177794
000110 7a 80 77 3f db 62 74 3f 03 75 7f 3f cc 1f 7c 3f
       0.96680415 0.9546334 0.9978792 0.9848602
000120 99 e0 82 3f 08 1d 83 3f 75 02 7b 3f 52 50 74 3f
       1.0224792 1.0243235 0.98050624 0.9543506
000130 8e 9d 81 3f 19 85 7b 3f 3a ff 78 3f 72 30 82 3f
       1.0126207 0.98249966 0.97264445 1.0171034
000140 10 6d 80 3f 14 05 7c 3f 85 3a 75 3f 13 71 7c 3f
       1.0033283 0.9844525 0.9579242 0.9861004
000150 62 b8 74 3f aa 0a 7a 3f 27 02 7c 3f 05 f9 76 3f
       0.95593846 0.9767252 0.98440784 0.96473724
000160 9d 63 80 3f 61 aa 7b 3f 4e cf 7d 3f 10 2a 7a 3f
       1.00304 0.9830685 0.99144447 0.9772043
000170 78 de 7b 3f c8 eb 89 3f b1 8f 7b 3f 1d 29 83 3f
       0.98386335 1.077508 0.9826613 1.0246922
000180 fd b3 7a 3f 87 a6 7f 3f 88 b3 7f 3f ae ae 7c 3f
       0.9793089 0.99863476 0.9988332 0.9870404
000190 ab 23 7c 3f ea 9f 7a 3f d0 e0 83 3f 4f 69 80 3f
       0.98491925 0.9790026 1.0302982 1.0032138
0001a0 87 2e 83 3f 63 4b 7d 3f 15 fc 7f 3f 96 6b 7e 3f
       1.0248574 0.98943156 0.9999402 0.99382913
0001b0 bc 85 83 3f c2 31 7b 3f 6e b5 83 3f 67 1e 80 3f
       1.0275187 0.981228 1.0289743 1.0009278
0001c0 9e ae 7b 3f 42 26 83 3f f1 1d 80 3f 45 b3 82 3f
       0.9831332 1.024605 1.0009137 1.0210959
0001d0 16 87 80 3f 17 56 85 3f ba fb 7a 3f be fa 7b 3f
       1.0041225 1.0416898 0.98040354 0.9842948
0001e0 16 29 83 3f 28 37 7b 3f 7e 56 8d 3f 4e b3 79 3f
       1.0246913 0.98131037 1.104202 0.9753922
0001f0 00 00 80 3f 78 cb 7b 3f 3b 27 84 3f e3 9c 74 3f
       1.0 0.98357344 1.0324472 0.9555189

Encoder.graph_convolutions.1.bn.bias f4 [128]
000000 dc d4 6b bc 2b 1b 34 3d 3b 83 5d bc d9 96 6c bb
       -0.014394011 0.043971222 -0.013520057 -0.0036100654
000010 87 54 0a 3b b7 44 7b bb 3e d0 8c bc f5 c4 5a bc
       0.002110751 -0.0038340518 -0.017189141 -0.013352622
000020 80 1d ed 3b d3 78 f7 bc 92 89 5c 3b 76 69 a5 bc
       0.0072361827 -0.03020898 0.0033651334 -0.02019189
000030 1d ae 9a bc 69 46 5b bb 5c fc d5 bb 0f c5 fd 3b
       -0.018881852 -0.0033458716 -0.0065303277 0.0077444385
000040 d8 a9 4a bb 05 b7 98 bc 1f 7e 1b 3d 98 0e 07 bc
       -0.0030923989 -0.018641958 0.037962075 -0.0082432255
000050 5a bb 14 bd c1 48 a0 bc ad 2f a7 3c 62 44 f3 3c
       -0.036311485 -0.019565942 0.020408476 0.029695693
000060 3b a5 0e bd 24 95 eb bb 67 88 c0 3c c3 2e 30 3c
       -0.034825545 -0.00718941 0.023502542 0.010753336
000070 a1 c8 86 bb 8c 4a 62 bc cd 7a 97 bc 64 a8 c6 bb
       -0.0041132723 -0.013811719 -0.018491173 -0.006062554
000080 84 5a 0c 3c 3f db 57 3d 75 a5 63 bc 83 3c 01 bc
       0.0085665025 0.052699324 -0.0138944285 -0.007887962
000090 1d 74 94 bc be a6 fb 3b ce 43 12 bc c4 47 d0 3c
       -0.018121773 0.0076797893 -0.008927299 0.025424846
0000a0 4f 2c 86 bc 78 c4 d5 bb fe 17 19 3c 94 f5 2e 3d
       -0.01637855 -0.006523665 0.009344099 0.04271467
0000b0 f9 41 24 3d 6f 23 1f 3d f9 23 64 3c fe 13 9e 39
       0.04010198 0.03885215 0.013924592 0.00030151004
0000c0 f1 d7 fb 3c bb 31 65 3d a0 7e a8 3c 1e 28 7f bb
       0.030742617 0.05595563 0.020568192 -0.0038933824
0000d0 f7 1e 30 bb b8 9c 08 bc 8f 47 19 3c e1 d7 4b 3d
       -0.0026873925 -0.008338146 0.00935544 0.049766425
0000e0 33 7d d9 3c 1d 47 50 bc 8a 24 64 bc 8e da f5 ba
       0.026548957 -0.012712267 -0.013924727 -0.0018757151
0000f0 13 71 a4 3d 64 62 89 bc e7 bc a4 bc 10 16 01 3d
       0.0802938 -0.01677055 -0.020109607 0.03151518
000100 e5 8d a4 3c 6b 8c e0 bc 9d 57 28 bc 9f 0d 41 3d
       0.020087192 -0.027410707 -0.010274795 0.04713213
000110 ba 6b 38 bd 4b 38 36 bd 39 ce 91 bc e0 0a 6d bc
       -0.04502461 -0.04448728 -0.01779853 -0.014467925
000120 37 6e 69 3c d1 83 03 3d 2d c6 11 bc 93 6d 0c bd
       0.014247469 0.03210813 -0.008897346 -0.034284186
000130 ab 04 a9 bb c9 e1 c8 bc eb ec ce bc ad 3d 52 3c
       -0.005158027 -0.024521725 -0.025259456 0.012832087
000140 a9 39 95 3c dd 0b 98 bc 16 05 ac bc c5 dd 3a bc
       0.018215971 -0.018560344 -0.020998519 -0.011405413
000150 dc e2 d8 bc 02 59 12 3c 2b 4c ca bc 72 8b cb bc
       -0.026475362 0.008932354 -0.024694523 -0.024846766
000160 e6 34 f2 bb fd b5 a9 bc 06 0f f5 3c de 29 04 3b
       -0.00739156 -0.020716662 0.02991439 0.0020166556
000170 c8 9c f9 bc 41 1a e5 3b 8d c9 8a ba af 86 22 3d
       -0.030470267 0.006991655 -0.0010588631 0.039679226
000180 8a 67 25 bc 64 28 e5 3a 3b c9 22 bc 6a 3d e5 3c
       -0.010095486 0.0017483351 -0.009935672 0.027983386
000190 fe 9d 0e bb e6 12 bc bc 24 47 5f 3b 3d e9 ee bb
       -0.002176165 -0.02295823 0.0034069503 -0.0072909878
0001a0 3c 57 8f 3c cd 56 4b bc b9 48 a5 bc 13 f8 99 bc
       0.017497651 -0.012410832 -0.020176278 -0.018795049
0001b0 f6 ad 02 3d a3 1a c4 bc 44 eb cf 3c df 90 9f bb
       0.031904183 -0.023938483 0.025380738 -0.004869565
0001c0 31 57 92 bb 95 74 1f bc 20 87 0f bb 3e a0 8c 3c
       -0.0044659604 -0.009732385 -0.002190061 0.017166253
0001d0 f3 ac 02 bd 57 d8 a3 3c 6b b3 93 bb 26 a4 92 bc
       -0.03190322 0.02000062 -0.0045074723 -0.017900538
0001e0 9e 73 06 3d d3 b2 6c bc 3e 2b f0 3c cc b6 82 bc
       0.032825105 -0.014446932 0.029317494 -0.015956305
0001f0 00 00 00 00 96 84 96 bc 44 47 cb bb d9 53 18 bd
       0.0 -0.018373769 -0.006203564 -0.03718934

Encoder.graph_convolutions.1.bn.running_mean f4 [128]
000000 c4 d8 d6 be bb f0 9d be ed 37 11 bf e2 68 96 be
       -0.41962254 -0.30847725 -0.5672596 -0.29376894
000010 2e 95 00 bd ce 98 0a 3f 1b cd b4 be ff 19 38 3e
       -0.03139227 0.5413941 -0.35312733 0.17978667
000020 e1 3f a5 3d b1 db b7 be 73 d1 4a bd 16 7d c3 be
       0.080688246 -0.359098 -0.049516153 -0.3818137
000030 d1 36 14 3e c6 76 10 bf dd 9d 14 bf 4d 06 84 3d
       0.14474036 -0.56431234 -0.5805338 0.06446514
000040 00 36 05 bf f2 4f d2 be ff 26 2f 3f ac 19 1c bf
       -0.5203552 -0.41076618 0.6841888 -0.6097667
000050 5a 15 6f 3b d5 71 dc 3e 1f 2f f3 be d3 bb 59 bf
       0.0036481232 0.43055597 -0.47496888 -0.8505222
000060 5f 60 02 3f 92 4e 81 3e 14 58 01 3e 0f 88 1a bd
       0.509283 0.25255257 0.12631255 -0.03772741
000070 96 b8 26 be 72 84 84 3e 23 71 f9 be 69 06 33 3e
       -0.16281351 0.25882298 -0.4871913 0.17482914
000080 7b a7 8e 3e 4d 8b 38 bf f1 4c be be 73 3d 1e 3f
       0.27862152 -0.72087556 -0.37168077 0.61812514
000090 11 66 21 bf 28 ef d7 3b 41 45 bb be 02 72 d1 3e
       -0.63046366 0.006589789 -0.36576274 0.40907294
0000a0 f3 4b 19 bf 8f a3 3f be 15 56 a0 be 6c 5c 00 3f
       -0.59881514 -0.18714736 -0.31315675 0.50141025
0000b0 cb 73 4c bc 70 a7 2e 3f de bb 46 bd 0e 89 33 3d
       -0.012478779 0.6822424 -0.048519008 0.043831877
0000c0 4e 96 a3 3e ad 8e 34 be 1d e8 1c 3f 87 10 09 3f
       0.3195061 -0.17632551 0.61291677 0.53540844
0000d0 44 0d 94 3e eb 12 ea 3e 3a 54 0e bf 5a 64 82 bd
       0.2891637 0.45717558 -0.5559727 -0.06366797
0000e0 64 f2 28 3f 1e 04 9d 3d 78 bb 1b bf 31 58 2a 3e
       0.6599486 0.07666801 -0.6083293 0.16635205
0000f0 e9 f2 a4 3c 67 b6 c1 bd 98 80 0f bf cd 63 78 be
       0.02013536 -0.094586186 -0.56055593 -0.24256821
000100 c8 20 33 bc 68 d1 77 3e 86 be 1d 3f 79 b1 93 be
       -0.010933109 0.24200976 0.6161884 -0.28846338
000110 e8 f0 f0 3e d7 80 88 3e ec c9 1e bf 89 45 33 bf
       0.47058797 0.26660797 -0.6202686 -0.7002798
000120 a9 f5 d5 bd 1c f9 69 be 18 69 41 3f df 1e dd 3e
       -0.104472466 -0.22848934 0.75550985 0.43187615
000130 4c 85 41 be 6e 7b 1b bf 18 fa 15 3e f1 52 8f 3e
       -0.18898505 -0.60735214 0.14646184 0.27992967
000140 ad 98 37 3f db e3 03 bf 31 2b 0e 3d 61 a4 8d be
       0.7171734 -0.51519555 0.03470916 -0.27664474
000150 2d b9 04 3f 7c a7 95 bd e1 7e 3c 3e e9 78 1a 3f
       0.51845056 -0.07307336 0.18407775 0.60340744
000160 5e d8 97 bc a5 61 07 bf 71 fb 0b bf ac b8 68 3c
       -0.01853579 -0.5288337 -0.54680544 0.014204185
000170 68 a0 84 3e dd 59 98 3d e6 b1 dc be ee 72 d2 bc
       0.2590363 0.07439015 -0.43104476 -0.025689568
000180 ee 62 c1 be da a5 9a 3e 4e 41 f7 be 90 7f 9d be
       -0.3777079 0.3020466 -0.4829201 -0.30761385
000190 2a 93 aa 3d fb 2d e4 be 26 25 d6 be 08 1e 9c 3d
       0.083288506 -0.4456633 -0.41825217 0.076229155
0001a0 1e 4c 0d 3f e3 3b 00 bf 55 fa 48 3d f0 6f f1 be
       0.5519427 -0.5009138 0.04906686 -0.47155714
0001b0 ac 7f 2a 3f 67 c3 03 bf f9 df f6 3e a3 b9 4c 3e
       0.6660106 -0.51470035 0.48217753 0.1999269
0001c0 e0 a3 ce 3d 4c cc 69 be 45 10 fd 3e b0 d9 2e be
       0.100898504 -0.2283184 0.49426475 -0.17075229
0001d0 28 63 9f 3e 54 ad 5e 3c e2 d4 02 3f 71 da 00 bf
       0.31130338 0.013591129 0.51106083 -0.50333315
0001e0 c1 33 02 3f 0c 56 f1 be 43 45 e0 bc 9c 17 64 3d
       0.5086022 -0.4713596 -0.027376777 0.05568658
0001f0 1b b4 25 bf 12 5a 0c 3f 34 b9 0d 3e 46 3f ac bd
       -0.64727944 0.54824936 0.1384018 -0.08410506

Encoder.graph_convolutions.1.bn.running_var f4 [128]
000000 f0 fb 8f 3f 18 e2 c0 3e da 79 8f 3f 52 b9 2d 3f
       1.124876 0.37672496 1.1209061 0.678609
000010 1a 9f a0 3d ef be e8 3f 2e 8c 34 3f e3 f1 6b 3e
       0.07842846 1.8183268 0.705264 0.23041491
000020 2c c1 8c 3e f6 56 2e 3f 8d 9b 43 3e dd d7 4d 3f
       0.27491128 0.6810144 0.19102307 0.80407506
000030 e0 9c b4 3e f9 0d 89 3f 5f 7a f6 3f 0e b7 2d 3e
       0.35275936 1.0707389 1.9256095 0.16964361
000040 64 0c 94 3f 8a d5 59 3f 88 71 fa 3f 85 90 b8 3f
       1.1566281 0.8509146 1.9565897 1.4419104
000050 9f 47 aa 3d 97 46 9e 3f a4 72 65 3f 10 7d 60 40
       0.08314442 1.2365292 0.8962805 3.5076332
000060 01 6d a7 3f 26 bc a3 3e 88 d2 92 3e 66 41 d1 3e
       1.308014 0.31979483 0.28676248 0.40870208
000070 90 0a bc 3d c0 6d 1a 3f 79 42 95 3f 02 25 fe 3e
       0.09181702 0.60323715 1.1660911 0.4963761
000080 56 ab 0f 3f 64 f2 14 40 03 da 1a 3f 01 e2 01 40
       0.5612081 2.3272943 0.6048891 2.0294192
000090 40 57 d8 3f e0 96 35 3e 4a 18 ef 3e 04 8c 40 3f
       1.6901627 0.17733335 0.4669822 0.75213647
0000a0 be 77 b5 3f c8 08 d5 3e 9c e1 1a 3f eb fd 9c 3f
       1.4177167 0.41608262 0.605005 1.226499
0000b0 e6 73 a3 3d f7 a0 d2 3f d1 65 95 3d 2c 71 07 3e
       0.0798109 1.6455373 0.072948106 0.13226765
0000c0 c3 fb 01 3f c0 de 54 3e 3e bc b0 3f a5 ef a2 3f
       0.5077478 0.20788097 1.3807447 1.2729384
0000d0 56 3a 89 3e cf 4b 6e 3f 88 a5 99 3f 28 c1 b8 3d
       0.2680232 0.93084425 1.2003641 0.09021217
0000e0 e0 bf cb 3f a5 81 9b 3e 9a 57 ac 3f 6f 6c 7b 3e
       1.5917931 0.30372348 1.3464234 0.24553083
0000f0 4e a5 0a 3e 0c 7c 57 3e a6 86 c0 3f d2 0f 59 3e
       0.13539621 0.21043414 1.5041091 0.21197441
000100 aa 24 99 3d 6f 19 00 3f 00 6d f4 3f a5 1d 0e 3f
       0.07477696 0.5003881 1.9095764 0.55513984
000110 68 e7 95 3f 86 e0 8c 3e 1e 5a b0 3f 28 53 00 40
       1.1711245 0.27515048 1.3777502 2.0050755
000120 ca 07 52 3e 46 8b 19 3f 04 46 44 40 e8 59 4d 3f
       0.20510784 0.5997814 3.0667734 0.8021531
000130 12 b1 aa 3e 59 4b 9c 3f cc 5a b9 3e 00 7f b9 3e
       0.3333822 1.2210494 0.36202085 0.36229706
000140 bb 82 e1 3f 5d d5 59 3f fb 1d 47 3e ac cb 1b 3f
       1.7618021 0.8509119 0.1944503 0.60857654
000150 24 ae c9 3f e8 10 00 3e 96 20 98 3e 70 45 ab 3f
       1.5756269 0.12506449 0.2971236 1.3380566
000160 6b 26 37 3e 2b 69 b0 3f 8f f2 aa 3f 51 3f da 3d
       0.17885749 1.3782095 1.3355273 0.10656608
000170 bb de d4 3e 2b c8 07 3f a8 6f 8f 3f 99 9d e2 3d
       0.4157618 0.5303981 1.120595 0.110652156
000180 dc 6a 7f 3f 3a 6f 14 3f 12 c9 57 3f e4 f7 ec 3e
       0.9977243 0.5798222 0.84291184 0.46282876
000190 92 da 05 3e 8d bb 92 3f b4 c7 60 3f 56 c3 31 3e
       0.13071659 1.1463486 0.8780472 0.17359671
0001a0 fc b8 d0 3f a7 de a5 3f 31 fd f5 3d 0e 9b 3e 3f
       1.6306453 1.2958573 0.12011183 0.74455345
0001b0 ec ba 10 40 02 78 9b 3f 46 b4 97 3f 48 0b 1b 3e
       2.2614088 1.2145998 1.185189 0.15141022
0001c0 3b ea 4a 3e 36 66 99 3e 8d da 83 3f e1 34 7a 3e
       0.19815914 0.29960793 1.0301071 0.24434234
0001d0 87 65 05 3f 31 2e 2d 3e 41 8f 60 3f b3 91 a1 3f
       0.52108043 0.16912152 0.8771859 1.2622589
0001e0 21 b7 92 3f 26 7b 3a 3f 0d 20 f5 3d 2b c5 ba 3e
       1.1462137 0.7284416 0.11969004 0.36478552
0001f0 ef b7 0b 40 de 99 cf 3f 49 fe 01 3e 18 1f 1b 3e
       2.1831014 1.6218832 0.12694658 0.1514858
