EXPERIMENT_3/model_OpenChem_CLASSIFIER_ENSEMBLE_8.pth (torch, 340093 bytes, 21 tensors)

Embedding.embedding.weight f4 [56, 64]
00000000: 0637 88bf 7307 95bf 0a63 51be f3ae edbe
00000010: a818 5a3f 449c 263f aa18 c7be 46f9 01c0
00000020: d3f0 873e 21ad a4bf 5de3 9d3e 2ace 9b3e
00000030: cca3 1c3e 57d5 af3f c44d 963f e389 81be
00000040: 5013 adbf 7542 e0bf ecec 0d3f 7828 4c3f
00000050: 913e 2c3f bba6 c8bf 2fa1 9dbe af61 ed3f
00000060: 3d52 383f 5da0 10bf 2d6b 8ebd 8cf4 313e
00000070: 43c9 af3f 1f3e cd3f 62ec 643f 938b 4ebf
00000080: 787c 2bbf d793 803d 7ad6 0dbf 67cc 3c3e
00000090: c5a0 be3e d32f 273e bf3d 0a3f c19c e83e
000000a0: 7602 b3bd 2eec 3a3f 2225 81be cce8 c73d
000000b0: ff02 1b3f 38b6 1540 4668 c3bf fb69 cbbf
000000c0: c52b 2bbf 3b14 683f 491e 843f 17e4 403e
000000d0: 6aa5 7ebe 6fd7 b9be 084b 123f fbf8 dbbe
000000e0: 5491 cfbe 60fb 403f c04d c23f 348b 5940
000000f0: cdef c4bf 9f4d 95bf c952 e93f d03c 02bf
00000100: 2898 1bbf cea9 833f 7bd6 943f 5384 a73f
00000110: 129d babf 8fb3 2540 3af0 0ebf bfd6 b13e
00000120: 5c7b ccbf 7d9c 0cbf f330 e9be 0ecb e5be
00000130: 27d3 89bf 38b6 923f 35dd d5bd cfd2 453f
00000140: b099 edbd d1b2 323f 83ef 5abf b235 87bd
00000150: d557 493f bede bebe 69c9 8d3f 74d8 b13e
00000160: 90f7 96be 0459 1940 7c34 f1bf c5e1 11bc
00000170: 13c5 8dbf 950d 82bf d4b1 6f3d e522 303f
00000180: 4570 d23f f8a0 b4bf 01aa bb3e 51cc 063f
00000190: 4a66 29c0 760c d6bf d3d6 a3be 126b 993e
000001a0: 88d2 483e ef54 943d 9b7c a43e 7b7c de3e
000001b0: f22e 083f f57d 4bbf bc50 573f 78d9 5ebf
000001c0: 9981 95be 21a3 1bc0 fd16 34bd 77e1 c5bc
000001d0: b2c0 813f b0b4 ac3e 2f2e 63bf cc88 98bd
000001e0: f201 2ebf 85f0 ccbe 33a1 f03f 99d6 e1be
000001f0: f74c 493e 2be3 933f 757b 793f 4794 b33f
00000200: d5ed 64bf 3617 d1be 5d9a 55bf a749 003f
00000210: bc59 273f 87b3 043f eb9e ff3f 98cc 89bf
00000220: 01b1 f3bd 99a5 313e 7d01 09bf 83d7 9bbf
00000230: 13ce 3abd 1c32 79bf c6b2 8ebe beec 863e
00000240: 041b 51be fc95 f73c 4589 963e 0ef0 943f
00000250: 9ef3 ad3e 9ed0 ca3e b963 efbd 8d4c 8abd
00000260: 7750 273e d04a 45bf 91c9 f7bf 31e2 e53d
00000270: 2eb0 25bf cec6 953e 91ae 183e bbbf c93e
00000280: 0966 7c3f b8d2 80bf e532 d33e 3c80 c4bd
00000290: 51ff 7a3f ff10 07bf 100b 463f b7d7 283f
000002a0: c8d2 903e df8c 5f3e 845e 85bd a7cd f03e
000002b0: d3dc aebe 092a 85bf 3b56 753e ca46 b5bf
000002c0: a19d bfbd 35b0 c5be f4b6 ccbf 2033 bdbe
000002d0: 5b14 873f 796a 383e 459c ca3f e4d5 4c3f
000002e0: 0864 8fbf 0325 28bf 05de bd3f 45a2 5e3e
000002f0: 0811 303f f831 6dbf c495 92bf 2102 97bf
00000300: eb43 0fbf 9c91 083f 7153 d03e 3f07 ca3e
00000310: 92a0 2f3e 7844 603f 1ffd 92be 1ac5 823f
00000320: 5d5c 98bd fccd 8bbf b0b7 c83e dd32 183f
00000330: cb8a 293f 1e68 9abf 2b81 1b3f 7812 0cbf
00000340: 3ee6 953f 0eac c73d b79f 763f 6c1f 573f
00000350: c277 a0bf 4aa1 7c3f 6d43 fdbe c13a a4bf
00000360: 6b89 743f 464c a43f e075 2abf 9aac 103f
00000370: dc4d 933e ffb3 08bd f6eb 87bf 4558 eabd
00000380: b6c9 afbe 351f c93f b136 443e bd87 c23e
00000390: 303b 14be ec3a 233f 4605 90be 5939 aabf
000003a0: 476b 11be c7bd 08bf 2bfc 05bf 8b8b 5c3f
000003b0: 0510 63bf f0b9 563f 1192 933f aa6b e1bf
000003c0: ad26 bdbf d5b9 e0bf f8fc 9b3d ad0f 8abf
000003d0: 225d b83f 357f e2bd 1dad 133f f93b 2dbe
000003e0: 791f 83bd 21eb 843f 9625 683f 8d76 f3be
000003f0: 0de9 5ebf 7b37 143e cd90 f33f f5e1 c73e
-1.0641792 -1.1642898 -0.20447937 -0.46422538 0.8519387 0.6508219 -0.38886005 -2.0308394
0.26550922 -1.2865335 0.30837527 0.30430728 0.15296859 1.3736981 1.1742482 -0.25300512
-1.3521519 -1.7520281 0.5543964 0.7974925 0.6728297 -1.5675882 -0.30787036 1.8545436
0.72000486 -0.56494695 -0.06954036 0.17378443 1.3733295 1.6034583 0.8942319 -0.80681723
-0.669868 0.06278198 -0.5540539 0.18437348 0.37232032 0.16326837 0.5400047 0.45432094
-0.08740704 0.7301663 -0.25223643 0.09761199 0.60551447 2.3392467 -1.5266197 -1.5891718
-0.6686366 0.9065587 1.0321742 0.1883701 -0.24867788 -0.36297175 0.5714574 -0.42963395
-0.40540564 0.7538357 1.5179977 3.3991213 -1.5385681 -1.1664313 1.8228389 -0.5087404
-0.60779047 1.0286195 1.1627954 1.3087257 -1.4579184 2.5890844 -0.55835307 0.3473415
-1.5975146 -0.5492628 -0.45545158 -0.4488148 -1.0767564 1.1461859 -0.104425825 0.77274793
-0.11601579 0.698041 -0.85521716 -0.066020384 0.78649646 -0.37279314 1.107709 0.34735453
-0.2948575 2.396058 -1.8844142 -0.008903925 -1.1075767 -1.0160395 0.0585192 0.68803245
1.6440512 -1.4111624 0.3665314 0.5265551 -2.6468682 -1.6722553 -0.31999835 0.299645
0.19611561 0.07242762 0.32126316 0.43454346 0.5319663 -0.7948907 0.84107566 -0.8705058
-0.29200438 -2.4318316 -0.043967236 -0.024155362 1.0136931 0.33731604 -0.88742346 -0.07447967
-0.6797172 -0.40027252 1.8799194 -0.44109038 0.19658266 1.1553701 0.97454005 1.4029626
-0.894254 -0.4083802 -0.83438665 0.50112385 0.653713 0.51836437 1.9970373 -1.0765562
-0.11898995 0.17348327 -0.53517896 -1.2175144 -0.045606684 -0.97342086 -0.27870768 0.26352495
-0.20420462 0.030222885 0.29401603 1.1635759 0.33974928 0.39612287 -0.116889425 -0.06752882
0.16339289 -0.7706728 -1.9358388 0.11224783 -0.64721954 0.29253238 0.14910342 0.3940409
0.98593193 -1.0064306 0.41249767 -0.09594771 0.9804583 -0.5276031 0.7736063 0.65954155
0.28285813 0.21831082 -0.06512168 0.470319 -0.3415285 -1.0403453 0.23958676 -1.4162228
-0.09356237 -0.38610998 -1.5993333 -0.36953068 1.0553087 0.18009366 1.582894 0.8001387
-1.1202402 -0.65681475 1.483338 0.21741588 0.6877599 -0.9265437 -1.1451955 -1.1797525
-0.5596301 0.5334718 0.4068866 0.39458653 0.17151096 0.87604475 -0.2870874 1.0216401
-0.07439492 -1.0922236 0.39202642 0.5945261 0.66227406 -1.2063024 0.6074397 -0.5471568
1.1710889 0.09749614 0.96337456 0.8403232 -1.2536547 0.9868361 -0.49465504 -1.283043
0.95522183 1.2835777 -0.6658611 0.5651337 0.2877034 -0.033374783 -1.0618885 -0.11442617
-0.3433358 1.5712649 0.19161488 0.37994185 -0.14475703 0.6376178 -0.28129023 -1.3298751
-0.1420108 -0.5341458 -0.523379 0.86150426 -0.8869632 0.8387747 1.1528951 -1.7610981
-1.4777428 -1.7556711 0.07616609 -1.0786034 1.4403422 -0.11059419 0.57686025 -0.16917409
-0.06402487 1.0384256 0.9068235 -0.47551385 -0.8707436 0.14474289 1.9028565 0.3903958

Encoder.rnn.weight_ih_l0 f4 [192, 64]
00000000: 0711 3dbe b3a2 31be b0e3 9d3d bdfe 2ebe
00000010: 4254 653c 561f 75bc 4ac0 8b3d 5ffe cebc
00000020: 6982 493d e00d 52bd ac13 b53d fbf0 ebbd
00000030: 6c52 a0bd 88a5 9c3a cf24 14bd ae8d e4bd
00000040: 9801 5cbd f00a 3ebd 6fb5 10be 1e20 a23d
00000050: bd76 323e 4d0e 16bd bd87 213e 60d3 03bd
00000060: b00f 9b3b f6d3 e0bd 8994 0d3c 15fc 65bd
00000070: 1c5c 92bc 761b 30bd 217b 1cbe 95a8 0d3c
00000080: a091 37be fee4 d3bb bcd4 e53c 764b 163e
00000090: 9347 c03d a653 f93d b295 a9bd e76e 36be
000000a0: 1f6b 603e ac72 b5bd 49eb 88bc 0f81 793d
000000b0: b65f 5abd e830 583d 7c5d 47bc 8fb7 8d3d
000000c0: cd12 333e f5e0 043e acb8 9a3c 0397 793c
000000d0: 040d 20be 2380 de3c c0cc b9bd 9e1b 113c
000000e0: ca14 aebd 725a bebc 4ae7 28be 533f b53d
000000f0: beb1 dd3d 508d f5bd bc04 5d3d 2fa5 dbbd
00000100: b531 60bd 9f54 e03d eb81 ff3d 5067 96bd
00000110: 13bc 0bbd 095c d03d b7de fdb8 5414 e9bd
00000120: e427 9d3d d4fb 5cbc d5af 9b3d df7e a93b
00000130: ed4a 43be a37c 46bd ed80 51be 32cc 453e
00000140: 976b 27bd 9818 353e 5d8e 96bc a3c0 fe3d
00000150: 3b00 c4bb 1a04 30bb 78b1 9e3d f4f3 12bd
00000160: e2a9 8dbc 1da7 ac3d 38f7 07be 2131 393c
00000170: 09dd 0e3d b032 c43d 13d2 9c3d 9625 98bb
00000180: a6cd b83d d364 3dbe 3fb5 4d3c 3b6c 613d
00000190: d03c 16bd 368d d1bd 5a5c 033d 85d3 9a3c
000001a0: de72 683d 74dd 623c ace4 213a 8861 0dbe
000001b0: 757b 8f3c 8022 a0bd d966 b5bd f093 2e3e
000001c0: 273b 5d3d cdc0 0dbe 6ac6 26be eca9 f2bd
000001d0: 488d e23d 1b6e 04be 6e29 babd 674e ecbc
000001e0: 4af6 013d 41cb 0ebd 9ee5 133e 9582 553e
000001f0: dbae 17bd 9711 073d 288e 5dbd c6fb d83d
00000200: 59e6 d03d 7b22 0ebe a437 463d 67bf ba3d
00000210: 2424 58bb ce7a 13bd 8041 9fbd bb6c bd3d
00000220: bf3c 2f3e e1a9 953e 8c13 1fbd c186 07be
00000230: 6a04 19bc ac89 76bd beee 82bd 8aea 433e
00000240: fe97 ab3d 4e9d dcbc 8357 b13d 18e9 7e3d
00000250: 899d b93b b08b 2cbe e4db 973d 2a8d 8ebd
00000260: aa93 b5bb 792a ad3d 3db6 5a3e ed68 edbd
00000270: 050e 593e 1641 093c fa32 b9bc 8a22 8f3d
00000280: 0ea0 0cbe 8d2d 90bd fb06 86bd d209 f7bd
00000290: 8c4c 173e b53f a6bd 2184 423c 8e69 5e3d
000002a0: b3d6 25bd 39d0 193d f37b 52bd cb8c 223e
000002b0: 13b9 183d 2552 e63c 6f38 d63d d34e 2d3b
000002c0: 1b72 b93d 4c65 5f3d b73a 2c3d 1ff0 c93d
000002d0: f52d 593d 1e59 44be c0ed 9fbc b161 3f3e
000002e0: 0e8c 9f3d ebb3 b5bd 17d0 b7bd db80 bcbd
000002f0: a1a2 39bd 9052 37be 10b6 273e fc18 15bd
00000300: f482 9abd 081f afbd 5092 aa3d 734b 003d
00000310: 6843 b2bd d405 ed3c bba0 8a3c 6759 d53d
00000320: 9f0b 86bd 450f 5b3c 8606 86bd 341d a7bb
00000330: df98 6b3c 638d 763c 2c18 6fbd 0ef5 1abd
00000340: db4f 94bb 47a7 ba3d da9c 78bd a71e 1e3d
00000350: bc96 7b3d fb9c 463e 5716 f1bd 6244 0c3e
00000360: 93f6 64bd 8132 783d 701d 04be a741 5ebd
00000370: 0268 6bbd a656 0e3e b56d 023d c274 2f3c
00000380: 0096 743e c538 8e3d a612 a9bc a640 31bd
00000390: 8f93 cabd 0753 dcbd 0dfa 333e 475c 5abd
000003a0: f95b dcbd d85e 28be 5776 fe3d 6abb 5cbe
000003b0: 2268 ba3d 2cf9 e63d d8f2 5bbd 484b 1e3e
000003c0: 3590 58bd 312f afbd 2836 44be d7da 613d
000003d0: 9b95 1bbd a726 583d 3866 4ebd e945 c0bb
000003e0: 34e8 0bbe f5e8 c13d e4f3 f2bd 178f 8bbd
000003f0: e33b e33d 7c4e a93c 2450 9abd 959b 9dbd
-0.18463527 -0.17347221 0.077094436 -0.17089362 0.013997139 -0.014961084 0.068237856 -0.025267778
0.049196634 -0.051282763 0.08841643 -0.11520573 -0.07828221 0.0011951188 -0.036167916 -0.11159836
-0.053712457 -0.04639715 -0.14131711 0.07916282 0.17428108 -0.036634732 0.15774436 -0.032184005
0.0047320947 -0.10977928 0.008641371 -0.056148607 -0.017866187 -0.04299494 -0.15281345 0.00864615
-0.17926645 -0.006466507 0.028055541 0.14677224 0.09388652 0.12174158 -0.08280505 -0.17815743
0.21915863 -0.088597625 -0.016713755 0.060914095 -0.053313933 0.052781016 -0.0121682845 0.06919777
0.1748764 0.1297644 0.018886887 0.015233758 -0.15629965 0.02716071 -0.09072256 0.008856682
-0.08500059 -0.023236487 -0.1649448 0.08849969 0.10824917 -0.11989844 0.053959593 -0.10724866
-0.054734904 0.1095364 0.12475952 -0.07343924 -0.03411491 0.10173804 -0.00012105464 -0.113808304
0.07673624 -0.013487775 0.07601897 0.005172595 -0.1907155 -0.048458707 -0.20459338 0.19316176
-0.04087409 0.17685163 -0.018378431 0.12439086 -0.005981473 -0.0026857913 0.07748693 -0.035877183
-0.01729292 0.08430312 -0.132779 0.011303217 0.034878764 0.095799804 0.07657256 -0.0046431525
0.09023599 -0.18495493 0.0125554195 0.055034857 -0.03667909 -0.10232012 0.032070495 0.018899688
0.05675017 0.013846744 0.00061757374 -0.13806736 0.017514924 -0.0781908 -0.08857507 0.17048621
0.05401149 -0.13843079 -0.16286626 -0.11848816 0.110621035 -0.12932627 -0.09089933 -0.028845979
0.03172902 -0.034861807 0.14443061 0.20850594 -0.03703199 0.03297576 -0.05409065 0.10594897
0.10200185 -0.13880341 0.048392907 0.09118538 -0.0032980526 -0.036005788 -0.07776165 0.09249254
0.17113017 0.2923117 -0.038837 -0.13234998 -0.009339431 -0.060189888 -0.06393193 0.19132438
0.083785996 -0.026930477 0.0865927 0.062234014 0.0056645316 -0.16850162 0.07414988 -0.06960519
-0.0055412846 0.08455367 0.21358581 -0.11592279 0.21196754 0.008377334 -0.022607315 0.0698901
-0.13732931 -0.07039938 -0.065443 -0.1206242 0.14775294 -0.0811762 0.011872322 0.054299884
-0.040487956 0.037552092 -0.05138774 0.15874021 0.037285876 0.028115341 0.104599826 0.0026444688
0.09054967 0.054539964 0.042048182 0.098602526 0.053022344 -0.1917462 -0.019522548 0.1868961
0.07790385 -0.08872207 -0.08975237 -0.09204265 -0.04532111 -0.17902589 0.16378045 -0.03640078
-0.075445086 -0.085508406 0.08328688 0.031321954 -0.08704263 0.028933443 0.016922345 0.10417443
-0.06545185 0.01337034 -0.06544213 -0.005099917 0.014379709 0.015048358 -0.05837266 -0.03783136
-0.004526121 0.09113937 -0.06069646 0.03860345 0.06142305 0.19395821 -0.11771839 0.13697961
-0.055899214 0.06059504 -0.12901855 -0.05426183 -0.057472236 0.13900241 0.031842906 0.01070899
0.23885345 0.06944422 -0.020638775 -0.043274544 -0.09891426 -0.10758024 0.17575856 -0.05331066
-0.1075973 -0.1644243 0.12424915 -0.21555868 0.09101893 0.112779945 -0.05369839 0.15458405
-0.0528719 -0.08553923 -0.19161284 0.055140343 -0.03798447 0.052771237 -0.050390452 -0.005867709
-0.13662797 0.09468261 -0.11862925 -0.068144016 0.11095407 0.020667307 -0.07534817 -0.076956905

Encoder.rnn.weight_hh_l0 f4 [192, 64]
00000000: 5c27 39bc 4fe7 9b3b b48b 323c 5e35 923d
00000010: 9567 3ebd d743 b03d 0d30 4b3d 2435 c83d
00000020: 9b0e 473d 0e1e afbd b3e0 1e3e c5e1 1abe
00000030: 7772 593d ff79 2dbe 8136 c23d ab67 c5bc
00000040: 23bf f6bd b051 c1bd f653 28be 18a3 71bd
00000050: e2d4 fabd ad05 eabc 966c 663c 493f b43d
00000060: c258 0ebd 0549 febc 6e7a 4c3d cef5 86bb
00000070: a383 75bd 8cc0 27be 92f0 db3d 860f fdbc
00000080: d2b1 59bd 037e 4bbd 6268 38bc 01a9 4bbe
00000090: 67e5 643d 584d 6aba ef25 193e ac59 283d
000000a0: 8de4 96bd 71ee 6fba 5d7a 093e 2f33 01bd
000000b0: 3ed0 72bd 9a0e 2fbd a18c a03d 7d4f e43c
000000c0: f1c5 1b3d 432e 4a3c f16b e83c 7729 1cbe
000000d0: 5f11 03bc 8dc9 553e c8ca 073d 57cd f0bc
000000e0: 9eb8 c33d a255 6b3d 004d aabd 1678 c5bd
000000f0: 6f44 fbbd 60fb a3bd 554b 793c f883 a23c
00000100: ac54 0e3e b4dd 8a3c f365 823d 231d dfbc
00000110: 7f1d ddbb 9ce3 603d 87a3 8b3d 802b 4fbe
00000120: 448c d5bd 6b9c 31bd 9656 943d ca6a 3c3e
00000130: e761 fd3c b9e1 923d 5521 023d 324d 9f3d
00000140: d562 b03d 8b5a fbbd bc26 f43d d4c7 91bd
00000150: 3d68 1c3d 48e3 d83c b53e 85bd 1c01 ccbd
00000160: de54 f73d cd45 033e c095 c6bc 0313 923d
00000170: 4fed d63d edf6 89bd 129c f8bc 8f16 9dbd
00000180: 3e2e 293b 4898 6bbd 1769 27be 39fd 7ebd
00000190: 7e45 943d a5ae 293d 284b fd3c 5e63 a7bd
000001a0: 165f d6bd 0561 283d c253 ba3c 5c50 c8bd
000001b0: 9ab9 2a3e 5dd9 83be 0da6 903b d0f6 173e
000001c0: d589 cebd 3a23 3dbd b950 f43a 77e1 443d
000001d0: 551b 103b 2896 c4bd 074b 92bd 3295 58bd
000001e0: 85a2 bd3d 7310 32bd d7c3 a0bc a6bd 72bb
000001f0: 7c03 34be 4833 9a3d aba4 d1bc 0b34 8bbd
00000200: 985d 9abd c171 c13d 8184 02bd 0813 883d
00000210: a1de aa3d 978a 243e b4c1 1cbe 84eb 02be
00000220: 1662 09be 3d0b a8bc 9cac cb3d 95e4 803d
00000230: dd91 37be b1c4 5a3d 62aa de3c 59d7 423d
00000240: f396 103e ce4e 0e3c b606 36be 058d 35bb
00000250: 8f38 a13c 86d9 23bb c7ea 72bd fc10 f3bd
00000260: 6530 a53b de7a fd3b 93d6 0d3e 09b7 09be
00000270: 31e2 973c f6b5 313e 51c2 b0bc b7cb 1c3e
00000280: 6a1d 4b3e 4f4e c0bd ea33 793d 3cba b73d
00000290: 8595 4c3d fb6e bebd 5fd8 66bd 3d04 7abd
000002a0: db6b f43d 513e 1f3e 5b65 223e c7a1 1bbd
000002b0: 9cfd 793c a47a b13c 0617 503e e884 83bc
000002c0: f2de 563d de6f a43d a23b 183e 7e45 d43d
000002d0: 3513 8abd 9f4f 043e ce70 32bb 5386 2cbd
000002e0: 0c62 2e3d 53b7 3bbe 6a1c c93d f66b bc3d
000002f0: a046 243a f1ae 023d 64d1 81bd 6c03 17be
00000300: e47f 2dbe c79b bdbd 7b76 123e df6b 07be
00000310: aae3 e43c c418 c5bd c2f0 05bd 5e50 54be
00000320: 3e22 863d c7a2 073e 9276 0ebe 8f65 233d
00000330: dd48 283d 72e5 8c3d 5aa3 f73d 1e48 99bd
00000340: 909a f43d 0df3 1c3e 850d 14bc f0a5 173d
00000350: 8483 df3d 94d9 253d 5b2d db3d 8fbe 273d
00000360: 3817 363d 2a03 bcbd 6980 d8bc ed25 033e
00000370: 0765 0fbd ad26 ad3d 91b5 50ba 58cf 873d
00000380: bc47 123e 73fd 9cbc c724 c63d 276f 193e
00000390: 9995 363d 5685 dd3d 7cf6 a7bd 0f7e 96bc
000003a0: 3f51 5e3d 6882 84bb 3d54 b2bd 79f2 913d
000003b0: 0d4b 41be 5f80 a93d a559 033e c243 a33d
000003c0: d05a 10be eb4e dcbd e345 823e 564a fc3b
000003d0: 6085 9fbc e8cd 29bd 3103 3a3e b676 003d
000003e0: 59ed 2ebd 6e16 fe3d 9ae0 0bbe 4691 d03d
000003f0: 8a5a 67bd bd4f 25be 4ecf 27bd 1551 47bd
-0.011300888 0.0047577987 0.010897566 0.07139085 -0.046485502 0.086066894 0.04960637 0.09775761
0.048597913 -0.08550654 0.15515403 -0.15125187 0.053087678 -0.16941069 0.09483052 -0.024097284
-0.12048175 -0.09439409 -0.16438279 -0.05899343 -0.122476354 -0.02856716 0.014063975 0.08801133
-0.034752615 -0.031040678 0.049921446 -0.0041186577 -0.05993999 -0.16382045 0.107392445 -0.030891191
-0.0531481 -0.04968072 -0.011255356 -0.19888689 0.055882838 -0.0008937917 0.14955877 0.041101143
-0.07367811 -0.0009152657 0.13425584 -0.031542953 -0.059280626 -0.042738535 0.07839323 0.027869934
0.03803057 0.012340131 0.028371783 -0.15250193 -0.007999747 0.20877667 0.03315237 -0.029394789
0.09556697 0.057454713 -0.08315468 -0.09642045 -0.12268912 -0.0800693 0.015215714 0.019838318
0.13899487 0.01695142 0.063671015 -0.027235573 -0.006747901 0.054904565 0.068183 -0.20231438
-0.10427144 -0.043362062 0.072430775 0.18400112 0.030930473 0.071719594 0.03177007 0.07778396
0.08612601 -0.12273129 0.119214505 -0.07118192 0.038185347 0.026475564 -0.06506101 -0.09961149
0.12076734 0.12819596 -0.024241328 0.071325324 0.10494482 -0.067365505 -0.030347858 -0.07670318
0.0025814916 -0.057518274 -0.16348682 -0.06225321 0.07239817 0.04142632 0.030919626 -0.0817325
-0.10467355 0.04110815 0.022745017 -0.09780952 0.16672364 -0.25751773 0.004414326 0.14840245
-0.10084883 -0.046176173 0.001863978 0.048066583 0.0021988947 -0.095989525 -0.071432166 -0.05287666
0.09259514 -0.04347272 -0.019624634 -0.0037039309 -0.17579454 0.07529312 -0.025591215 -0.06797036
-0.07537383 0.09445525 -0.031864647 0.06644255 0.08343244 0.16068493 -0.15308267 -0.12785155
-0.13416323 -0.020513171 0.09945032 0.062935986 -0.17926736 0.053410236 0.027180854 0.047568653
0.14120083 0.008685781 -0.17775998 -0.0027702462 0.01968029 -0.002500148 -0.059305932 -0.11868474
0.0050411695 0.007735594 0.13851385 -0.13448729 0.018540474 0.17354569 -0.021577032 0.15312086
0.1983544 -0.09389936 0.060840525 0.08971068 0.04994728 -0.092985116 -0.05635869 -0.0610392
0.11934634 0.15551116 0.15858977 -0.03799608 0.015258219 0.021664925 0.20321283 -0.016054586
0.05245871 0.080291495 0.14866498 0.10364817 -0.06741945 0.12920998 -0.0027227881 -0.04212029
0.042573974 -0.18331651 0.09819873 0.092002794 0.00062666275 0.03190512 -0.06338766 -0.14747399
-0.16943318 -0.09258228 0.14303009 -0.13224743 0.02794059 -0.09623864 -0.032700308 -0.20733783
0.065495 0.13245688 -0.13912418 0.039891776 0.041085113 0.06879701 0.12091704 -0.074844584
0.11943543 0.15327092 -0.009036426 0.037023485 0.109137565 0.0404907 0.1070201 0.040953215
0.044455737 -0.09180291 -0.026428418 0.12807436 -0.035008457 0.084546424 -0.0007961626 0.066313446
0.14285177 -0.019163823 0.096749835 0.14983808 0.04457626 0.108164474 -0.0820131 -0.018370656
0.0542767 -0.004043866 -0.087074734 0.07126326 -0.18876286 0.08276438 0.12827165 0.07971908
-0.14097142 -0.1075724 0.25443944 0.007699291 -0.019472778 -0.041456133 0.1816528 0.03136321
-0.04270682 0.12406622 -0.13659897 0.10183959 -0.05648283 -0.16143699 -0.040969186 -0.04866131

Encoder.rnn.bias_ih_l0 f4 [192]
00000000: 91a7 cd3d 1a67 d03d d54a cbbd 6152 5dbc
00000010: d1e1 083e d329 2dbe 934a 20be 7f31 223d
00000020: 1ec0 bc3d eada fdbd d989 6bbc 2e5d dbbd
00000030: a3ed f4bd a849 d83b f2b7 083e 812d 57bc
00000040: 771a d73d f1d6 bdbd 39c5 6fbd f73b 22be
00000050: b185 ecbc 0a64 643d 997a 72bc a58c 97bb
00000060: 4b1d 78bc 54b4 443e 8f5f 5cbb 70c7 9cbd
00000070: 91f0 263e 5383 943d 8c92 66bd 01a5 1c3c
00000080: 3a91 acbc b200 653e 213f 893d 8273 d7bd
00000090: 76d0 223e dd27 c33d b0ea a5bb 7ac0 dd3d
000000a0: 8c1c b03d d4a4 dabc 7922 b43d d9c1 75bd
000000b0: 5f8b 6cbd ba70 c9bd 1f2e 35be bb16 45bc
000000c0: 0ba3 34bd f456 30bd a4b2 c1bd 61c0 223e
000000d0: 5478 a53d 3782 d0bd 88d9 dfbd 6993 85bd
000000e0: 7383 183d d9bc 913d 8740 f73d 3fe9 0c3e
000000f0: f3bc 6e3d 4286 9e3d 3fac bebd 392e e7ba
00000100: e8ce af3c a2de 263e 0e92 98bd 7738 3f3d
00000110: 39c6 083e 1faf 563c 61a0 bdbd f0bd 1ebe
00000120: d80d 9ebc 3bd4 983b c578 26bd d7dd a83c
00000130: 451c 113c ba7c 2b3e edd4 163d c2b4 82bd
00000140: fbfb 813e fb26 38be d570 f2bd 2de6 88bd
00000150: 99d6 523e fb3a 973e e016 943d a317 aa3d
00000160: ac59 d63d 1e3e 953c f90b fabb a70d 3b3e
00000170: 746d 50be 57c8 02bd 5715 dbbd 4126 623d
00000180: 8697 23bd 20ac 223e 88be 1a3e 0751 193e
00000190: 4b34 0f3e 05fd 303c aece 4d3e f8a8 8abc
000001a0: d9a5 48bd 990f fe3b 06e5 d7ba 83bd 8abb
000001b0: 3664 2abd 9739 6cbd 9475 e03d 90ad 0c3e
000001c0: 3547 bd3d 53a1 cabd 36e3 86bb 02d6 883d
000001d0: 653f 3d3d 23d4 d4bd ac2d d43b b17c 90bc
000001e0: c6ab 983d 5397 0f3c 8f76 053d edf0 633e
000001f0: a276 69bc 5a49 2cbe 21bc 9e3b 6b06 ad3d
00000200: 4c51 c13d c52f 04bd ba44 753d 34bb 98bd
00000210: bb9f 15be f8f8 e8bd ce53 aabd ac88 2bbd
00000220: e0cb 0abd 1cbf 933d 47be 8cbc facd 963c
00000230: ea7a 82bd 45a3 693d 4068 103d 05e6 12be
00000240: 6b06 7d3d 6cf1 bbbd c706 f6bd 6741 23bd
00000250: 1072 653d ef1d 063e 5a13 823c b5cf 49bd
00000260: 6055 b3bc 3643 c2bc 7bfa ae3d a9d4 4c3d
00000270: 293a d63d 947a 36bd 9e0c ccbd 2477 883d
00000280: 5dd5 fc3d 358e efbd aa23 86bd 5668 bc3d
00000290: c4fa 90bd c5bb 80bd b7c9 503b b87d ab3d
000002a0: 444b abbd 576e b6bd 2a95 53bd 22c0 09bd
000002b0: 17cf 45bd 09d2 293d ce23 60bd 653f d03d
000002c0: fb74 1abe 3d93 b3bc 4bdd a13d b39c 7c3d
000002d0: b0d1 f6bd 34e0 cabd daa1 aa3d e96b e7bc
000002e0: 560c 6ebd 5d46 e83d e5a0 f33d bad2 ebbd
000002f0: abcb bc3d 3312 e7bd 5b41 3c3d fb51 273d
0.100417264 0.10175915 -0.099263825 -0.01350841 0.13367392 -0.16910486 -0.15653448 0.039597984
0.09216331 -0.1239527 -0.014376127 -0.10711132 -0.11959388 0.0066005774 0.1335142 -0.013133408
0.10503095 -0.092695124 -0.058537696 -0.15843187 -0.028872343 0.055759467 -0.014799737 -0.0046249204
-0.015143703 0.19209415 -0.0033626293 -0.07655227 0.16302706 0.072516106 -0.0562921 0.009560824
-0.021065343 0.22363546 0.06701494 -0.10520078 0.15899834 0.09529088 -0.0050633773 0.108277276
0.08599195 -0.026689924 0.08795638 -0.05999932 -0.057750102 -0.09835954 -0.17693375 -0.012029345
-0.044100802 -0.043051675 -0.09457901 0.15893699 0.080795914 -0.101810865 -0.10930163 -0.06522257
0.037234735 0.07116098 0.120728545 0.13760851 0.058285665 0.077404514 -0.09310197 -0.0017637677
0.021460965 0.16295865 -0.07449733 0.04668471 0.13356866 0.013103276 -0.092591055 -0.15502143
-0.01929371 0.0046639717 -0.04064252 0.020613594 0.008856838 0.16746798 0.036824156 -0.06382133
0.25387558 -0.1798362 -0.11837927 -0.066845275 0.20589675 0.29537186 0.072309256 0.083052896
0.10466322 0.018218096 -0.007630822 0.18266927 -0.20354253 -0.03192934 -0.106974296 0.055212263
-0.039939426 0.15885973 0.15111744 0.14972316 0.13984792 0.010802512 0.20098373 -0.016926274
-0.04898629 0.007753324 -0.0016471453 -0.0042340173 -0.041599475 -0.05767211 0.10959926 0.13738084
0.09242097 -0.098940514 -0.004116441 0.06681444 0.046203036 -0.10392024 0.006475171 -0.017637582
0.07454638 0.008764106 0.03258377 0.22259875 -0.014249476 -0.16824856 0.004844204 0.0844849
0.09439334 -0.03227212 0.059879996 -0.07457581 -0.14611714 -0.11375612 -0.08316766 -0.041878387
-0.033885837 0.072141856 -0.017180575 0.018408764 -0.063711 0.05704047 0.03525567 -0.14345558
0.0617737 -0.09176907 -0.120130114 -0.039857294 0.05601698 0.13097356 0.015878368 -0.04927035
-0.021891296 -0.02371369 0.08543869 0.050007496 0.10460312 -0.044550493 -0.09963344 0.06663349
0.12345383 -0.11697046 -0.06549771 0.09199588 -0.0707908 -0.06285814 0.0031858513 0.08373588
-0.08363965 -0.089077644 -0.051655926 -0.033630498 -0.0482932 0.04146007 -0.054721646 0.101683415
-0.15083687 -0.021920795 0.079035364 0.061672878 -0.120517135 -0.099060446 0.08331652 -0.028249698
-0.058117233 0.11341546 0.118959226 -0.11514802 0.09218534 -0.11282768 0.045960765 0.040849667

Encoder.rnn.bias_hh_l0 f4 [192]
00000000: 04d8 3d3d f6be b73d ff51 993d 34f5 0b3d
00000010: 5d8b 183e 47f0 793d 02bb 21be c6a7 03be
00000020: afb2 c73c 469f d2bd df3d 253c 6ac4 efbd
00000030: ad51 c03c 2be5 a63b 84bd 653d 3442 cf3d
00000040: 0010 1d3e a99d c73d 2fed 5e3c 1a76 07be
00000050: df75 d23d 0d6c 0fbe f444 f6bd 4363 0f3e
00000060: 81f1 12bd e30f c2bc f391 ebbc 9f3c 523d
00000070: 0474 1a3e e67c abbd 4dde 18be 40c3 003e
00000080: 8fd0 99bd 37e7 4b3e 45f9 9cbd ca99 f0bc
00000090: 80f1 843d 65ee ab3d cd5d 673d c9ad f73d
000000a0: 81f8 b63d d156 12bb 6149 853d 4c57 afbc
000000b0: 3d2c 4f3d 63c5 59bd 7a22 fdbc 9629 0e3d
000000c0: a148 e53c 755f df3d d85a d83c 9fe2 1a3d
000000d0: 469a aa3d 97a2 9fbd f882 c8bd 68a6 acbd
000000e0: 412a 0d3d fc73 2fbc 5ad7 5d3d da77 813d
000000f0: 4f70 4abc 5712 d1bd b4ed f03d 0ca8 8d3c
00000100: 0a31 06be d964 793e 1113 aabc 185a 363d
00000110: 1b7b 283e 673f 2ebb 04e1 643c f458 13be
00000120: ae68 c83d aa97 293e 7ad2 4b3c c6e6 993d
00000130: caa8 47bc ad57 213e 7176 183e 69df b1bd
00000140: 5063 3c3e 1286 afbd 290f 80bd a5e6 5dbd
00000150: 8e79 d53c b9ef 1c3e c625 883c 8e11 133e
00000160: 6202 b3bc 6d16 3c3e 1e5d c33d f0f7 cc3d
00000170: 1fd9 10bd 76ca 783d af84 febc 3e67 34bc
00000180: 2a23 d4bd 0de3 0b3e 3062 673d d27d 303e
00000190: df58 57bc 1369 953c cf27 5c3e 2816 f23d
000001a0: 1f13 49bd ed90 9b3d 78ee 553c c6b9 91bc
000001b0: cc9f c3bd bdcf c5bd 7ff2 c23d 0283 203e
000001c0: 5188 8f3d ac2b 6bbe d20a 4dbd 4257 99bc
000001d0: 9c63 2bbd 5a43 aa3c bb41 e33d f0c5 873c
000001e0: b6a9 b0bd 22b7 293e 4e38 223e 2f29 253e
000001f0: a4cb 14bd 9ecd ae3c 7595 8fbd 5d83 273e
00000200: 6fab 413d 87c0 c03d 6287 bbba 0c35 dbbc
00000210: 390b d8bd 7b22 f1bd 4ea0 0ebe c328 e03d
00000220: c6a4 d33d d5e2 9c3b 4ce4 5ebd 55af c03d
00000230: b0f7 b33d ba5b 41bd 7f91 133e 4875 9bbd
00000240: 8249 0f3d 8dc8 cf3d 221e a7bd 0fb5 373d
00000250: 1aed 8c3d e996 743d d1d3 f3bd 9ed5 653d
00000260: b1f1 08be 8f18 9bbb 7e08 c0bc c407 a2bd
00000270: 8757 233d c16d 693d 2fda 36bd 1593 4ebd
00000280: f61f abbd 58a1 43ba 4cab 6abd 1001 87bd
00000290: 91f1 863d 7466 ccbd f44d 91bd cea5 b73d
000002a0: 1ab3 f53c 7728 ad3d bbfc fdbd 64c9 843c
000002b0: efdb 99bd a1af c23d 767e a03b 5370 d53d
000002c0: 5f15 dabd db5d 8a3d 511a 4fbd 8fdb 25bd
000002d0: b6cd 333d 14df a2bc b7ff d13d d75c 0f3e
000002e0: d0a0 133e b526 3cbd cfc4 ea3d a07d 2bbd
000002f0: 7363 533d 97b8 e6bd defe 85bd 99ba 863d
0.046348587 0.0897197 0.07486343 0.03416939 0.14896913 0.061020162 -0.15793994 -0.12856969
0.024377195 -0.10284285 0.010085552 -0.11707385 0.023476446 0.005093237 0.05608894 0.10120049
0.15338135 0.09746868 0.013606354 -0.13228646 0.102763884 -0.14006062 -0.120248705 0.14002709
-0.035874847 -0.023689216 -0.028756117 0.051327344 0.15083319 -0.08373432 -0.14928551 0.12574482
-0.075104825 0.1991242 -0.07664732 -0.029370207 0.06491375 0.083950795 0.05648594 0.12093694
0.08934117 -0.0022329579 0.065081365 -0.021403931 0.0505793 -0.05316676 -0.030900229 0.03470763
0.027988734 0.10906879 0.026410505 0.03781378 0.083302066 -0.077946834 -0.09790605 -0.08430177
0.034464125 -0.010708805 0.054160453 0.06321688 -0.012355878 -0.10208576 0.11764088 0.017292045
-0.13104644 0.24354877 -0.020761045 0.044519514 0.16453211 -0.0026588084 0.0139696635 -0.14389402
0.09785591 0.16561761 0.012440318 0.0751472 -0.012186239 0.15756102 0.14888932 -0.0868519
0.1839726 -0.08570494 -0.062528916 -0.054175038 0.026058938 0.15325822 0.016619574 0.14362165
-0.021851722 0.1836793 0.09539245 0.10008228 -0.035363313 0.060739957 -0.031069128 -0.011010943
-0.103582695 0.13660832 0.056490123 0.17235497 -0.013143747 0.01823858 0.21499561 0.11820632
-0.0490905 0.07596002 0.013057344 -0.017788779 -0.09551963 -0.096587636 0.09518909 0.15674976
0.07008422 -0.22965878 -0.050059147 -0.018718366 -0.04184304 0.020784069 0.110965215 0.016573876
-0.0862612 0.16573766 0.15841791 0.16128992 -0.03632702 0.02133828 -0.070109285 0.16358705
0.047282632 0.09411722 -0.0014307315 -0.026758693 -0.105490156 -0.11774155 -0.13928339 0.10945275
0.103341624 0.0047877827 -0.05441694 0.09408442 0.08787477 -0.047206618 0.14410971 -0.07590729
0.034982212 0.10145674 -0.08160044 0.044850405 0.06881161 0.05971423 -0.11905635 0.056111924
-0.13373448 -0.004733152 -0.02344155 -0.079116374 0.039878394 0.056989435 -0.04464167 -0.050433237
-0.083557054 -0.0007462702 -0.057292268 -0.065919995 0.06589044 -0.09980479 -0.070949465 0.089671716
0.029992629 0.08454984 -0.1240172 0.016209312 -0.07512652 0.09506155 0.004897888 0.10421815
-0.106486075 0.06756183 -0.050562207 -0.04049259 0.043897353 -0.019881763 0.10253852 0.1400026
0.14416814 -0.04593535 0.114633195 -0.041867852 0.051608514 -0.112656765 -0.06542753 0.065785594

Encoder.rnn.weight_ih_l1 f4 [192, 64]
00000000: b8e1 b4bd c2f6 63bb c637 27bc 6577 18be
00000010: e63c 14bd 76ce 32be 31c2 8cbd f64a de3c
00000020: 6447 c93d 2263 033e 0e52 f9bc 5691 003e
00000030: 5372 b73b 265f 1dbe 96bf cb3d a32f 1fbd
00000040: 7dc9 963d 86aa a2bd 6db4 4b3d ccbe 633c
00000050: 2607 a4bd d458 b2bd 4da8 8b3c a327 cd3d
00000060: e81f f13d 1b14 e73d 4548 0a3c 9059 e1bd
00000070: dc57 d6bc 4e72 273b ca1c 6f3c 6dfa 6e3d
00000080: f2db bfbd 9258 f0bd 434f 06be 39c9 c43d
00000090: fe24 d53d ac96 adbd e153 80bd dc78 0bbe
000000a0: f5c7 32be 5aaf 343d a021 de3d 2a24 27bc
000000b0: 7f71 20bc 0aa9 38bd bbb8 e23c 354c 143e
000000c0: 1654 733c 1b03 423d 040f 553c 7d1f 563d
000000d0: 8df1 1abe 30d9 73bd 7f2c 0cbd 2044 233e
000000e0: 4b8a ee3d 91ee 063d c94b 00bd 1858 57be
000000f0: abfd 8e3d 45d3 b13d 96b5 ee3c c3ab ccbd
00000100: f8ee 39bd bffe c4bb e515 fe3b d3ec 80bd
00000110: dd8a ab3d d7d9 edbd 4e2d 383d 2021 71be
00000120: 5a71 ecbd 6dd6 b1bb 708d 323e 0004 213e
00000130: 7e50 103e 43a0 573c 6bb6 b9bd ff76 6f3c
00000140: 200c b4bd b535 9ebd c982 163d 2871 f73d
00000150: 2885 083e d70a e5bc 6a13 93bd f583 b8bd
00000160: 44ec 353d e88a be3b 371f d1bd 13d2 c93d
00000170: b4cb cc3c af90 2dbe 6808 4f3d a0f9 293d
00000180: 3daf 933d 9ed4 f03d 4c88 74bd 93f5 c83d
00000190: 9bc3 28bd 789a e13b e61b 80bd 7763 0bbd
000001a0: fec2 d13c cda0 12be d763 c9bd d763 f0bb
000001b0: eb73 143e 645a 453e f14a a1bd 4d23 843c
000001c0: 1210 05be e9da 46be 23ac 97bd 58c1 7cbc
000001d0: 4079 fc3d 897a 8abb 4255 90bd 6f18 993d
000001e0: f09e 51bd 59be 13bd ee9f b5bd 27fa 1d3e
000001f0: b693 fb3d 3bc0 233e 4525 9d3b 981e e53d
00000200: de24 303e c4ae 543d c0bf fe3d 89b1 3a3d
00000210: 0a6d 0fbe 9678 333d e8f9 c23d 8742 753e
00000220: b903 b4bd 0902 2bbe 3b94 003d f340 0ebe
00000230: 615c 583a 262a 723c 6347 ad3d 1fbf 1abd
00000240: 4364 fbbc 29b9 4d3d 14d0 eebd 6145 05bd
00000250: ecd8 8ebd 1fc7 1e3c 0044 513c 1998 49bc
00000260: fe21 02be 55a3 82bd 6c41 c0bd 867d 97bd
00000270: 65dd b43d b496 38bd b63a 8abd 0303 42bc
00000280: 4dbb e3bd 1f89 f73d 62fd 9f3d 3929 62be
00000290: a663 07be bd10 02be b51c 65bc 0fab 5b3d
000002a0: 64cd 833d 4c54 39bd 22bf cf3d 53fe 10bb
000002b0: 947c 663d 79ef 0bbe 2393 eb3d c37e 4fbc
000002c0: 4629 293d 5334 823c 5036 c73a 4cca d1bc
000002d0: 30e8 a93d dcae 0dbd 42c5 513d 4c36 af3d
000002e0: f9e7 de3a ee2b b8bd 5f3c e83b 96ad 8bbc
000002f0: cbbd d4bd 0d08 8f3a 2f03 cc3d 1f15 7ebe
00000300: d76c 1c3d a80e a33d 3731 a6bb def3 9d3d
00000310: e198 88bd 2896 8d3c 602f ca3d 3461 1f3e
00000320: ab2c efbd aacc 66bd 50fa 143d 9453 3f3d
00000330: 196c 0abe 7d37 df3d de11 52bc 1831 5f3d
00000340: 0ba4 fd3c bc30 b4bd 1e9b c33d b79d f13d
00000350: ae27 f2bc 176d de3d f60b 223c 7ccd 993b
00000360: 6750 ff3d 3a69 11be 0249 34be 77af a43d
00000370: d19b c23d 1690 c73d 2742 64ba 5a37 d9bc
00000380: aaa4 f8bd 39e2 583b a27b c2bd 1a1f 21be
00000390: 05b4 26be f2ff 9e3c 13a9 a33b 7ca5 033e
000003a0: f3a3 0fbd d85a febc 2123 d2bd b153 67bd
000003b0: b049 d6bd 593f abbd e95d 72bd 6356 08be
000003c0: fe1f 053e ec62 e63c ded9 b3bd 380c b73c
000003d0: 3054 093e a545 c1bc 5c98 9abb 59fa 50bd
000003e0: 6e1f a93d 9515 29be 5f89 a8bd 5968 cb3c
000003f0: 774a 0abd 3243 98bd f662 283e f8bd 97bd
-0.08832115 -0.003478453 -0.0102061685 -0.14889295 -0.03619089 -0.17461571 -0.068729766 0.027135354
0.0982807 0.12830785 -0.030434635 0.12555441 0.0055983453 -0.15368327 0.099486515 -0.03886379
0.073626496 -0.07942681 0.049732614 0.01390047 -0.08009176 -0.08708349 0.017048026 0.10017326
0.11773664 0.11283132 0.008440082 -0.11003411 -0.026164941 0.0025550309 0.014594266 0.058344293
-0.09368123 -0.117356434 -0.13116173 0.09608693 0.10407446 -0.08476004 -0.06265999 -0.13620323
-0.1745909 0.04411254 0.10846257 -0.010201493 -0.009792685 -0.045083083 0.027675977 0.14482196
0.014851591 0.047366243 0.013004068 0.052276123 -0.15131207 -0.059533298 -0.034222122 0.15943956
0.11647471 0.03294236 -0.031322274 -0.21029699 0.06981977 0.086828746 0.029139321 -0.099936984
-0.045393914 -0.0060118134 0.007754075 -0.06295171 0.083760954 -0.11613815 0.04496508 -0.23547792
-0.115450576 -0.005427173 0.17436767 0.15724182 0.14093205 0.013160768 -0.090679966 0.014615773
-0.08791375 -0.077250876 0.03674582 0.1208213 0.13332045 -0.02795927 -0.07181437 -0.09009544
0.044414774 0.0058148988 -0.10211032 0.098545216 0.024999477 -0.16949724 0.050545126 0.041497827
0.072111584 0.117593035 -0.059700295 0.098124646 -0.04120217 0.006884869 -0.06255321 -0.034030404
0.025605675 -0.14319153 -0.09833496 -0.0073361206 0.14497344 0.19272763 -0.07875622 0.016130114
-0.12994412 -0.19419445 -0.07405879 -0.015426956 0.12327814 -0.004226033 -0.07047512 0.074753635
-0.051176965 -0.0360702 -0.08868395 0.15427457 0.12284033 0.15991299 0.0047957026 0.11187476
0.17201564 0.051924482 0.12438917 0.045579467 -0.14006439 0.04381617 0.09520322 0.2395116
-0.087897725 -0.16699995 0.031391364 -0.13891964 0.00082535116 0.014780557 0.084608816 -0.037779924
-0.030687457 0.05022541 -0.116607815 -0.032536868 -0.06974968 0.009691029 0.01277256 -0.012304329
-0.1270828 -0.06378809 -0.09387478 -0.073969886 0.0883129 -0.045065597 -0.067494795 -0.011841538
-0.11119709 0.12086701 0.07812001 -0.22086038 -0.13221607 -0.12701698 -0.013983895 0.05362993
0.064356595 -0.045246407 0.101438776 -0.0022124245 0.05627115 -0.1366557 0.115026735 -0.0126645
0.041299127 0.01589409 0.0015198682 -0.025609158 0.082962394 -0.034590587 0.05121351 0.08555278
0.0017006389 -0.08992754 0.007087275 -0.017050546 -0.10387763 0.0010912433 0.09961545 -0.24812745
0.038189735 0.0796178 -0.005071785 0.077125296 -0.06669784 0.017283514 0.09872317 0.15564424
-0.116784416 -0.056347527 0.03637153 0.046710566 -0.13517798 0.108992554 -0.012821643 0.05449018
0.03096201 -0.08798358 0.09551071 0.1179766 -0.029559936 0.10860651 0.009890547 0.004693685
0.124665074 -0.14200297 -0.17605975 0.0804128 0.09502376 0.09744279 -0.0008707367 -0.026515651
-0.12140782 0.0033093824 -0.09496237 -0.1573452 -0.1627961 0.019409154 0.0049945205 0.12856096
-0.035068464 -0.031049177 -0.102606066 -0.0564763 -0.104632735 -0.08361692 -0.05917159 -0.13314204
0.13000485 0.028123342 -0.08781789 0.022344694 0.13411021 -0.02359278 -0.0047178697 -0.05102
0.08257948 -0.16512139 -0.082293265 0.02483003 -0.03376242 -0.074346915 0.16444 -0.074092805

Encoder.rnn.weight_hh_l1 f4 [192, 64]
00000000: 549c 9ebd 0185 8d3d f3b2 40be 73b4 fd3c
00000010: cefc 87bc da39 c4bc 4ce2 3abc 2d32 9c3d
00000020: bf7f 0c3e e0a7 5fbc 954b 13be caa3 a9bd
00000030: f057 f5bd 9208 98bd bf77 cc3d 100a 9d3c
00000040: cab6 95bb 58e5 2cbe d0f8 aebd c098 333e
00000050: 9b58 b13d 3090 36bd 49e2 a43d 3f5d 5cbe
00000060: 1565 1c3e db85 9ebd 8465 1bbd a551 79be
00000070: 902a 31bd 002d a8bd f8a9 92bd d224 303d
00000080: 2c55 aebd 0b81 7bbe 15f3 e0bd 4886 cebd
00000090: 1901 6abe 164b 4c3e d015 fe3d 0804 9fbd
000000a0: e837 c13d f733 f23d 43d1 0e3e f43d ce3c
000000b0: 5bef 073d d99b a63d 41ab 9f3d de95 9cbd
000000c0: b2ce 1dbe 8c12 f33d d90a 53bc 59ba e53c
000000d0: 9b49 bbbd ab64 353e e0b3 9c3c 9589 e2bd
000000e0: 47f2 d63c 56e1 373e 2f9f 8f3b bf72 cd3c
000000f0: c6d2 e0bd c8a7 203d bf2d 95bd 51f4 783d
00000100: 39d2 1a3c 2a61 c6bd 824f 743d 0229 abbd
00000110: 4a38 103e b029 59bc 9718 12be df19 113d
00000120: 5750 713b bd58 b73d b4ba 8a3d 222e 82bd
00000130: 95a4 b83d df1b c13d 237c 80bd 9f00 843d
00000140: fa91 20be 5638 aabd 17ec 1dbe 8745 cdbc
00000150: 08ba 22be c16a b8bc 1175 d63d 011b bebd
00000160: 6fc1 cc3c eb13 a8bd a30b 473d a359 c1bd
00000170: 28f9 a9bd 9502 58bc 298e 27be ae01 78bd
00000180: ef46 833d e8a9 e0bd f729 3abe a5da a9bd
00000190: 9960 ccbd b705 9f3d 3ca2 d6bd 5575 1a3c
000001a0: 78ca cebb 453f c2bc 4a58 873d af1d d13c
000001b0: ecfc f4bc 4af3 d8bd e983 f5bd e5ee e6bc
000001c0: f574 83bd d07e 6a3b cec0 a73d b528 b03d
000001d0: 5326 a0bd 7bed c03b 5339 96bd 176f f53c
000001e0: 8824 f23d 5bfd 48bc e8fa 30bd 0417 2cbd
000001f0: f4a8 d03d d9cf 273d 85dd a7bd 4cf7 eebc
00000200: 7ed3 a2bd a2ca 13bd d43a 703c 3ae0 2cbe
00000210: 3e7c 02be d9f6 e13d 820c 693d 8177 843d
00000220: e964 3cbd d43b 60bd c65e 44bd a8f9 62bd
00000230: c627 2d3e b810 07be b4ef c1bd b632 443c
00000240: 5d3d 0b3e be7d c83d 7929 c43d 911b 0e3d
00000250: 7cd1 443d c457 ce3c 8b7e 343e e571 a63d
00000260: e714 dd3d dfc6 18bc da8e 863d 107c 2abd
00000270: 7154 a63d 701d f33c 1530 aabc 2209 6dbd
00000280: eb42 c73d 8716 2b3e 560d 863d 7166 0fbe
00000290: 2950 fa3d e401 c6bd d6c1 883d 6866 5dbd
000002a0: fbae 8f3b a0df 023d 1e77 143e 8ec0 5d3d
000002b0: e414 a6bc 65e3 9e3d ce3c 083d 0892 d73d
000002c0: 8ad2 db3d b1e5 b93d 34ef 093d 9f10 c5bd
000002d0: 5eb8 f1bc ae1d 45bc 92c3 003e 6062 45be
000002e0: 22b3 423d f01d 5a3d da7d 513c dabb 1c3e
000002f0: d2b9 ccbd f696 61bd 96a3 053e 8dfd 73bd
00000300: ce5a 11be d913 673b 23b0 bd3d d97f 16be
00000310: 3b24 9b3c 4eae c5bd 4478 6b3d 6425 82bd
00000320: 9a3e fe3c 4296 4e3d e032 c53d ca7c 02be
00000330: 8cad 40bb 4af1 593d 24ed 3fbc 22e7 d0bd
00000340: cca1 99bc 2e2b 41bd e045 c03d 22e7 47bd
00000350: 94f1 1ebe 098b 303e 150a 563d bead 6a3b
00000360: 1e1f 1c3d 1a1d 7abb 7de7 6dbd 47f2 e6bb
00000370: ee6c 4dbd 3cde 67bd bcf8 86bd efd0 d1bc
00000380: f989 2c3d cabb 83bd 86b0 1cbd 1028 e5bd
00000390: 7f8d 523d b9a6 b33d 9ab4 f1bb aedc c63d
000003a0: 4e38 13bc d55f a6bd 6001 263e 645b c73d
000003b0: 5d2e f43c 3390 3abe f806 26bd a379 883d
000003c0: 2f9f 703d af03 73bd f433 22bd 2694 0ebe
000003d0: 13c9 cebd 7138 e0bc 2238 a6bd 8aad 17be
000003e0: 57f9 efbd aa60 02bd c40a a73d f805 273e
000003f0: b851 383d c5b8 92bd 8e58 d73d ba41 093d
-0.07744661 0.06910134 -0.18818264 0.030969834 -0.016600039 -0.023953367 -0.011406492 0.07626758
0.13720606 -0.013650864 -0.14384301 -0.082831934 -0.11979663 -0.0742351 0.09983777 0.019169837
-0.0045689093 -0.16884363 -0.08543551 0.17538738 0.08659478 -0.0445711 0.08050973 -0.21519946
0.15272935 -0.07740375 -0.03793861 -0.24347551 -0.04325348 -0.08211708 -0.07161325 0.043003865
-0.08512339 -0.24560945 -0.10983864 -0.10084206 -0.22851981 0.19950518 0.12406504 -0.07764441
0.094344914 0.11826318 0.13947015 0.025176026 0.03318725 0.08135194 0.07796336 -0.076457724
-0.15410879 0.11868772 -0.012881004 0.028042959 -0.091448985 0.17714183 0.01912874 -0.11061398
0.026238574 0.17957053 0.00438299 0.02507913 -0.10977702 0.03922251 -0.07284116 0.060779873
0.009449535 -0.09686501 0.059646137 -0.08357431 0.14083973 -0.013254568 -0.14267193 0.035425063
0.0036821568 0.08952472 0.06773892 -0.063564554 0.090157665 0.09429144 -0.06273677 0.06445431
-0.15680686 -0.083115265 -0.15422092 -0.025057567 -0.15891278 -0.022511842 0.104715474 -0.09282494
0.02499458 -0.08206924 0.048595082 -0.09440925 -0.08299476 -0.013184209 -0.16362824 -0.060548477
0.06410014 -0.10969907 -0.18180071 -0.08293656 -0.09979362 0.07764762 -0.104801625 0.009427388
-0.0063107572 -0.02371181 0.06608637 0.02552685 -0.029905759 -0.10593279 -0.119880505 -0.028190086
-0.06418792 0.0035781153 0.081910715 0.08601514 -0.0781981 0.005887685 -0.073351525 0.029960198
0.11823374 -0.012267436 -0.043208033 -0.042014137 0.10188475 0.040969703 -0.08196548 -0.029170655
-0.07950495 -0.036081918 0.014662463 -0.1688241 -0.12742707 0.110334106 0.056896694 0.06468106
-0.045994673 -0.054744557 -0.047941945 -0.055413872 0.16909704 -0.13189971 -0.09469548 0.011974981
0.13597627 0.097896084 0.09578223 0.034694258 0.048051342 0.025188334 0.17626397 0.081271924
0.107950024 -0.009324758 0.065702155 -0.04162222 0.08121575 0.029677123 -0.02077488 -0.057870038
0.097295605 0.16707812 0.065455124 -0.14003922 0.122223206 -0.09668329 0.06677596 -0.05405274
0.004384873 0.031951547 0.14498565 0.054138713 -0.020273633 0.07758216 0.033261113 0.105259
0.107335165 0.09077013 0.033675388 -0.09622311 -0.029506858 -0.012031002 0.12574604 -0.19275808
0.047534116 0.053251207 0.012786353 0.15306035 -0.0999638 -0.05507561 0.13050684 -0.059567977
-0.14194795 0.0035259633 0.09262111 -0.14697208 0.018938174 -0.096523866 0.05748774 -0.06354788
0.03103571 0.050436266 0.09628844 -0.12742916 -0.0029400317 0.053208627 -0.011714254 -0.10200335
-0.018753909 -0.04716032 0.093883276 -0.04880441 -0.15521842 0.17240538 0.05225571 0.0035809125
0.038115613 -0.0038164319 -0.058082093 -0.0070479247 -0.05015271 -0.056608424 -0.06590411 -0.025612323
0.04212377 -0.06432302 -0.038254283 -0.11189282 0.051404472 0.08772034 -0.0073762657 0.0971006
-0.008985592 -0.08123747 0.16211462 0.09734228 0.029807264 -0.1821907 -0.04053399 0.06663825
0.05874556 -0.059329685 -0.039600328 -0.13923702 -0.100969456 -0.027370663 -0.08116175 -0.14812294
-0.1171748 -0.031830467 0.0815635 0.1631087 0.044999808 -0.07164148 0.10514937 0.033509947

Encoder.rnn.bias_ih_l1 f4 [192]
00000000: 9fa6 113c 34d2 833d db21 a9bd 08da 61bb
00000010: 8907 9f3d a598 58bd 98be 6d3b b525 0b3e
00000020: 4929 b33d 875a 973c e724 a43c dffe 5d3d
00000030: fe8d c73d c266 7d3c 0909 c63d 0cae a8bd
00000040: 7079 1dbd 7cc0 bfbd 40a1 523d 69e8 a13d
00000050: fe43 823d db35 b93d 6c96 ba3c 86e6 dd3d
00000060: 1daa 9ebd 64ad 08bd 9225 c6bd af23 cbbb
00000070: 07ef 9d3d 4ddd e43d 5e16 103e 32e0 b6bd
00000080: 1552 8cbb 3650 62bd dc4e 89bd 40dd 85bc
00000090: 176d c93d 6a5e b8bd 4b51 9bbc a985 813d
000000a0: e9ba 39bc 8775 21bd e407 133e 20b0 b73a
000000b0: 0758 60bd 3d6b e8bb 87bf e0ba 884b 013e
000000c0: 325a 0b3d cf9f 4a3d 7386 f83c 9590 093e
000000d0: ff3d 69bd a80d 47bd 8b8c 423c 3413 863d
000000e0: c253 adbd 9e11 c33d ddea d3bb 3e59 30bc
000000f0: efb7 893d 9e8f 28b9 cde2 9dbc 1e5f 9a3d
00000100: 9c48 2b3e 5de4 34bd f6b1 353e 98d7 c43c
00000110: f832 7c3e 7944 7c3d 37f0 423e 5294 1f3e
00000120: ff4c 6fbd 5e8c d13d 6129 21be 6f41 423d
00000130: 0616 243d e44e 0dbe b758 223d 7a49 91bd
00000140: cbec afbd 44d8 b83b 315c fe3d 4a22 d5bc
00000150: e7a5 253e 6bba 6fbc f075 84bc bb22 c7bc
00000160: a6f4 f3bc a42d 3fbb c636 923d a41a 55bc
00000170: 99ad 113d 12bd 44be 368c 373e 0324 38be
00000180: d300 3abe 35ea 043e c49e e03d 7d6f 83bb
00000190: 4dd7 c83d a82f 87bd 53c3 9b3d e48f 313e
000001a0: 203a f63d 4422 b83d 7fc9 a1bd 25ac 8b3d
000001b0: 8657 a13c 085b fd3d 7dfb bf3d 8bbc 07bd
000001c0: 3cd0 e23d 1056 b53c 1181 dabd 1f2e fe3d
000001d0: 7bb6 06be 1bdc f83d 4535 133c 3cf0 35bb
000001e0: 45bc 5c3b 79e9 843d 4178 04be 2ad6 363d
000001f0: 1c4a 08bd d3c9 e8bd fa0b 733c 72b9 933e
00000200: 6fcc debd 5ed6 ef3d e491 03be 2a8a 07be
00000210: b1da 42be d889 a2bd f5f5 56bd 426b 1d3c
00000220: 8f6b 04be 7e78 353c 2b1f 1dbd 7750 d83d
00000230: f4a7 3bbd 9784 583d 4023 b43d 1057 4a3c
00000240: 4fe3 d53c 090b 95bd 9b61 30bd ea91 bfbd
00000250: 5421 163e a3fa e23d e654 32bd 7640 0f3c
00000260: 535c 153c d5e0 953b 8eed 21bd b65a 223d
00000270: be07 283d f1b9 903d ca91 c23d df40 603c
00000280: 8715 edbd 3738 953c 5d1c 863d 5f12 80bc
00000290: aa0f de3d b0b3 933c fab8 ed3a b884 16be
000002a0: eca5 00bd b1fb 87bd 3d1e 85bd 3ef0 963d
000002b0: 24bd 4fbd 848d ac3c a801 bb3d ddca cdbc
000002c0: b04b d53d 9502 11bc cb2e 9f3c 1ba1 cd3c
000002d0: 7d61 b2bd ceeb a93d 75d1 f3bd 991b bbbc
000002e0: 2b9b 15bd 3933 f43d b31f 6f3d d474 1e3c
000002f0: 025c d1bc 9356 173e 6971 28bb 175d 893d
0.008889823 0.064365774 -0.082584105 -0.0034462232 0.07765109 -0.05287995 0.0036276933 0.13588603
0.08748109 0.018475784 0.020037128 0.054198142 0.0974388 0.015466394 0.09669692 -0.08236322
-0.03844589 -0.09362885 0.05142331 0.07905657 0.06360625 0.09043475 0.022776805 0.108349845
-0.0774729 -0.033368483 -0.09675135 -0.006199322 0.077116065 0.11175022 0.14071032 -0.089294806
-0.004282246 -0.055252276 -0.06704494 -0.016340852 0.0983526 -0.09002383 -0.018959662 0.06324322
-0.011336067 -0.039418723 0.14358479 0.0014014281 -0.05477145 -0.007092862 -0.0017146923 0.12626469
0.034021564 0.04946881 0.030337548 0.1343406 -0.05694389 -0.048597008 0.011874328 0.065466315
-0.08463241 0.095248446 -0.006467207 -0.0107634645 0.06724536 -0.0001607523 -0.019273186 0.075376734
0.16726917 -0.044163097 0.17743668 0.024028584 0.24628818 0.061588738 0.19036947 0.15583923
-0.05842304 0.10231851 -0.15738441 0.047425684 0.040060066 -0.13799626 0.039635386 -0.07094093
-0.085900865 0.0056410152 0.12419928 -0.026017327 0.16176568 -0.014631848 -0.016169518 -0.024308553
-0.029779743 -0.002917149 0.071393535 -0.01300684 0.035565946 -0.1921275 0.1792458 -0.17982487
-0.18164377 0.12979968 0.10967782 -0.004011093 0.0980669 -0.066008866 0.076056145 0.17340046
0.12022805 0.08990911 -0.078997605 0.06819943 0.019695055 0.123708785 0.093741395 -0.033138793
0.11074874 0.022135764 -0.10669149 0.12411141 -0.13155548 0.12151357 0.008984868 -0.00277616
0.0033681553 0.06489844 -0.12936498 0.044637837 -0.0332738 -0.1136662 0.014834398 0.2885242
-0.10878836 0.11710809 -0.12848622 -0.13236299 -0.19028737 -0.07936448 -0.052480657 0.009608092
-0.12931655 0.011076091 -0.038359802 0.105622225 -0.04581447 0.052860823 0.08795786 0.012349859
0.026109366 -0.072774954 -0.043061834 -0.09354003 0.14661151 0.110829614 -0.043537997 0.008743396
0.00911625 0.004573921 -0.03953319 0.03963729 0.04102301 0.070667155 0.09500463 0.0136873415
-0.11576372 0.018215282 0.065483786 -0.01563376 0.108428314 0.018030018 0.0018136792 -0.14699066
-0.031408235 -0.06639803 -0.06499908 0.07370041 -0.050717488 0.021063574 0.09131175 -0.025121147
0.10414827 -0.008850713 0.019431492 0.025101235 -0.08710001 0.08296929 -0.11905185 -0.022840308
-0.036524933 0.119238324 0.05837984 0.009671409 -0.025556568 0.14779119 -0.0025702363 0.067072086

Encoder.rnn.bias_hh_l1 f4 [192]
00000000: ab67 16ba c909 863d cd5e ebbc 2e58 ee3d
00000010: ed95 31bd 2511 abbc 9d43 ebba 9069 953d
00000020: d91d fabd d88d 72bd 4f44 d1bc 3747 14be
00000030: 7051 9c3d 1ada debb df07 a93d be42 68bc
00000040: cf5a 0abe 46c4 cabd 7cd9 08be f75a a9bd
00000050: 0a5e 783d 0483 08bc 62d0 24bd 551a ad3d
00000060: 863a 76bc bb22 0e3d b2e8 0c3e 3496 003d
00000070: f331 63bd 1b5f 98bd 7be9 dabc 7cf2 ee3c
00000080: 77bb d1bd a14d 3dbe e61e da3c acdf 74bd
00000090: 8d00 973c 81ad afbd f1ef b9bc 6615 36bc
000000a0: cf7c 99bc a660 b03d 20e1 843a 8219 983d
000000b0: e186 3fbd 6594 e5bd c2ac cbbb a178 5f3d
000000c0: 99a6 87bd 6faf 03bd e2da d2bd dee2 a6bc
000000d0: bd25 b53d f1ba f23c df9f 60bd 461d 0fbd
000000e0: 94c8 cb3d 0cb0 f9bd 99f4 a23d ac5f e8bd
000000f0: b722 dcbd 3943 94bd 1626 b1bd f296 90bd
00000100: f694 1d3e 1a20 e93d c639 2f3e 35f2 f0bc
00000110: 716d 373e c70e 1e3e 009b 473d 683b 563e
00000120: 227d 723d fee0 253d 8e8e c3bd b03b debd
00000130: 2ef3 223e a983 c8bd 0ca5 433d d739 783d
00000140: 7b13 df3c fb83 92bd 6aab bf3d 9aa3 61bc
00000150: d7f1 2bbd 5dd9 13bd 0000 08bd 9402 923d
00000160: 1b87 d3bd 489f 09be d2b7 d53d d26a e43d
00000170: 5adc 913d bb13 1dbe 0241 173e 8853 efbd
00000180: 8213 e0bd 8697 c13d bb40 96bd 152d a73a
00000190: 6a54 183d e550 d2bd 823e 363e 541c a33d
000001a0: ce46 023e 5981 853d 9373 a53d d410 e0bd
000001b0: 20ad 5a3d 1c2f 013e 862e b4bd 52e9 d33d
000001c0: ba65 7fbd cc15 f1bd b2f2 2fbd e80c 6e3d
000001d0: a26c a6bd 9784 013e 4ea9 a13d b814 5e3e
000001e0: fc95 4e3d 9e76 d43c 5741 073d 95ca bcbd
000001f0: eb60 8f3a bec3 02be 5ee3 523d 3cb7 2c3e
00000200: ee16 99bd 9066 183c a0ff 24bb e060 5a3d
00000210: 0d96 ff3b 85bf 98bd 80f5 eabd 53df eb3d
00000220: 5273 ef3c 8a10 8b3d 3b65 d53d ed6a ba3a
00000230: 043e 143d 6950 f83c a732 60bd e6c4 063e
00000240: 4863 a1bc 0214 fabd ac7a 66bd 7728 02bc
00000250: aa8d 303e af68 afbd eded c03d 5e29 ce3d
00000260: d6b2 eb3c d839 913d a344 fbbc be3b 9ebc
00000270: 4978 1e3d 4d88 9f3d bd8a b1bc b128 b7bc
00000280: 8669 523d 4629 62bd fe3c 37bd b603 d6bd
00000290: 2095 c2bd d484 11be 9c01 9fbd e722 7b3d
000002a0: 27d9 783d c64b a63c 84a0 fd3d 5eb4 223d
000002b0: 051e 7e3d 4e95 2dbc c811 d5bc 9d82 4c3d
000002c0: 70f4 87bd c981 4cbd b593 a93b 8653 bd3d
000002d0: f06c 213b 4951 6c3d 269d a63c ff4a 903d
000002e0: f897 933d 73f0 fabd 7140 f8bd a3a2 833b
000002f0: 9e6c acbd bade d83d ecfe bfbc 5a50 1ebd
-0.00057374936 0.06544835 -0.028731728 0.11637913 -0.04335587 -0.020882199 -0.0017949227 0.07295525
-0.12212724 -0.059217304 -0.025545267 -0.14480291 0.076327205 -0.006800902 0.082534544 -0.014176069
-0.13511203 -0.099007174 -0.13364214 -0.08269303 0.060636558 -0.008332018 -0.04023779 0.08452288
-0.0150286015 0.03470109 0.13760641 0.031393245 -0.055467557 -0.07440015 -0.02672266 0.02916836
-0.10240834 -0.18486644 0.026626062 -0.059783623 0.01843288 -0.08578015 -0.02269742 -0.0111135
-0.018736271 0.08612184 0.0010137893 0.0742674 -0.04675949 -0.11209945 -0.0062156627 0.0545584
-0.06623573 -0.03214973 -0.10295655 -0.02037185 0.08845089 0.029630156 -0.054839965 -0.034940027
0.099503666 -0.121917814 0.079568096 -0.11346373 -0.10748809 -0.07239384 -0.086498424 -0.070600405
0.15388855 0.11383076 0.17111883 -0.029412368 0.17912842 0.15435325 0.048731804 0.20921099
0.059201367 0.040497772 -0.095486745 -0.10851228 0.15913078 -0.09790737 0.047764823 0.060602035
0.027230969 -0.071540795 0.093588665 -0.013771916 -0.041978683 -0.036095966 -0.033203125 0.07129398
-0.10328504 -0.13439667 0.104354516 0.11153187 0.07122107 -0.15339558 0.14770892 -0.11685854
-0.10941221 0.09452729 -0.07336565 0.0012754524 0.03718988 -0.10269336 0.17797282 0.079643875
0.12722322 0.06518812 0.08078685 -0.1094071 0.05338776 0.12615627 -0.08797936 0.10347237
-0.062352873 -0.117717355 -0.04295606 0.058117777 -0.08126189 0.12648235 0.078936204 0.21687591
0.050436005 0.025935467 0.033021297 -0.09218327 0.0010938918 -0.12769982 0.051486365 0.16866773
-0.074750766 0.009301797 -0.0025176778 0.053315043 0.00779987 -0.074584045 -0.11472607 0.11517205
0.029229794 0.06790264 0.10419699 0.001422254 0.036191955 0.03031178 -0.054735806 0.13161048
-0.019700661 -0.122108474 -0.056269333 -0.007944218 0.1724154 -0.08564889 0.09420381 0.10066484
0.028771799 0.07091111 -0.030672377 -0.019315597 0.03868893 0.07789669 -0.0216726 -0.02235827
0.051370166 -0.055215143 -0.0447359 -0.104499266 -0.095010996 -0.14210826 -0.07763979 0.061312582
0.060753968 0.020299803 0.123841316 0.039722793 0.062040348 -0.010594679 -0.026009455 0.04992925
-0.0663842 -0.04992846 0.0051750788 0.092444465 0.0024631582 0.057694707 0.020338606 0.07045554
0.0720672 -0.12252893 -0.12121666 0.0040171905 -0.084191546 0.10589357 -0.023436986 -0.038650848
