EXPERIMENT_3/model_OpenChem_CLASSIFIER_ENSEMBLE_6.pth (torch, 440253 bytes, 25 tensors)

Embedding.embedding.weight f4 [56, 64]
00000000: 8121 8dbf f74a 90bf 8db8 8bbe 72d9 edbe
00000010: 0d62 5b3f 41d7 263f 3db5 93be 30d5 01c0
00000020: 0987 b93e f7ee a2bf 7bab aa3e 7d4b a73e
00000030: 1dec 9a3d b80f a03f 9dbe 913f 2118 65be
00000040: 175a b1bf 6545 d6bf e5a4 073f 32d1 4d3f
00000050: 3392 193f ca57 c4bf 160d 6cbe 29eb e73f
00000060: 0eb7 403f e3e0 19bf 6bc9 38be b238 053e
00000070: c571 b73f 8c56 ca3f e259 733f e9d7 50bf
00000080: 546f 18bf 0eb4 7c3d 8afc 03bf aca6 2e3e
00000090: 1cfc f03e 8774 253e ac8a 1f3f 8ad7 f13e
000000a0: 579f b8bd 24c6 4c3f 44d4 87be f1e8 c43d
000000b0: 8b0d 123f 9ca0 1240 8c27 bbbf 1ae7 c6bf
000000c0: 8f4b 2bbf b7d8 6c3f 6226 843f 0299 403e
000000d0: 1696 3ebe 03d9 c7be 36fb 103f 39fa c0be
000000e0: 94b0 00bf 1c46 3e3f 4540 bf3f 014d 5a40
000000f0: 2655 c2bf b88b 9bbf 0d28 ef3f 2bc5 18bf
00000100: f363 0ebf 8ce8 693f 902d 8e3f eef9 973f
00000110: f95f bcbf a6b8 2740 fb81 02bf 5c9c b83e
00000120: 0e3f d0bf 8c3b 11bf 9fd4 ecbe b04e ebbe
00000130: 2c95 8cbf 3b29 9e3f 01ac 05be 27ac 453f
00000140: 1139 ccbd 8652 253f d1d3 4fbf ed7a 793b
00000150: d484 4a3f e031 f1be 6fc3 813f 5048 ae3e
00000160: 04d0 83be 2ed1 1340 3239 f0bf ac86 49bd
00000170: 46fd 83bf 225c 78bf 460f 6b3d 623b 363f
00000180: 676b d43f 54e7 aabf bc94 d33e 4bb3 ff3e
00000190: c4c7 25c0 5cf8 dbbf c124 7dbe 9e82 a13e
000001a0: 8df7 5f3e 0630 3f3d c322 9b3e 8bb4 e53e
000001b0: ef3b fc3e 312a 59bf 266f 413f 954d 7ebf
000001c0: bb6c 85be 46b2 1cc0 4b1a bdbd 0cf6 6cbd
000001d0: 8f1b 753f 3c36 bf3e 1704 6cbf 3ae3 a8bd
000001e0: e036 1abf 231f cfbe 7007 f63f 2336 d6be
000001f0: b7f6 053e 39d9 9b3f 763b 7f3f d913 af3f
00000200: 5ec2 5dbf 41d4 d5be b35b 4fbf f897 173f
00000210: cd8e 1e3f 3179 ed3e 124a f53f 3736 85bf
00000220: 6fb5 c1bd 6d5e cf3d 6c93 26bf d7c6 a2bf
00000230: 4696 51bc f3ea 80bf 2c64 97be 1d34 8c3e
00000240: 98a4 6abe 656d ff3c 4ebd 2d3e 4e36 943f
00000250: 7033 aa3e bcac 913e ef44 12be 5ff8 2cbe
00000260: 190a 333e d453 39bf b1bd f3bf 71b5 183e
00000270: 4161 35bf a0d1 903e eab9 fc3d 85d6 c13e
00000280: f25b 523f 4dc1 7ebf a6bc 613e e386 a7bd
00000290: 681b 813f 3622 08bf de27 3f3f 69a7 2b3f
000002a0: 6cdc 443e 8124 3f3e 19fc 02be fe76 ad3e
000002b0: def5 94be 630f 85bf 0e15 543e 7cf5 bbbf
000002c0: 24d4 0dbe 321a c1be f1c4 c1bf 2c79 abbe
000002d0: c103 923f 6cf3 163e fee3 cc3f 90b6 5f3f
000002e0: fd4a 83bf 2fdb 39bf ac07 ba3f 2fa2 883e
000002f0: 73c2 373f ec38 6ebf 0074 91bf 0eb8 a3bf
00000300: eb43 0fbf 9c91 083f 7153 d03e 3f07 ca3e
00000310: 92a0 2f3e 7844 603f 1ffd 92be 1ac5 823f
00000320: 5d5c 98bd fccd 8bbf b0b7 c83e dd32 183f
00000330: cb8a 293f 1e68 9abf 2b81 1b3f 7812 0cbf
00000340: 3ee6 953f 0eac c73d b79f 763f 6c1f 573f
00000350: c277 a0bf 4aa1 7c3f 6d43 fdbe c13a a4bf
00000360: 6b89 743f 464c a43f e075 2abf 9aac 103f
00000370: dc4d 933e ffb3 08bd f6eb 87bf 4558 eabd
00000380: b6c9 afbe 351f c93f b136 443e bd87 c23e
00000390: 303b 14be ec3a 233f 4605 90be 5939 aabf
000003a0: 476b 11be c7bd 08bf 2bfc 05bf 8b8b 5c3f
000003b0: 0510 63bf f0b9 563f 1192 933f aa6b e1bf
000003c0: ad26 bdbf d5b9 e0bf f8fc 9b3d ad0f 8abf
000003d0: 225d b83f 357f e2bd 1dad 133f f93b 2dbe
000003e0: 791f 83bd 21eb 843f 9625 683f 8d76 f3be
000003f0: 0de9 5ebf 7b37 143e cd90 f33f f5e1 c73e
-1.102585 -1.1272877 -0.2728924 -0.4645496 0.8569649 0.651722 -0.2884921 -2.028637
0.36235836 -1.2729176 0.33333954 0.3267478 0.07564566 1.2504797 1.1386296 -0.22372486
-1.3855618 -1.6739928 0.52985984 0.8039733 0.5998871 -1.5339291 -0.23051867 1.811864
0.7527932 -0.60108775 -0.18045585 0.13009909 1.4331595 1.5807662 0.95059025 -0.8157945
-0.59544873 0.06169515 -0.5155722 0.17055768 0.47067344 0.16157733 0.6232097 0.47234756
-0.09014767 0.7998984 -0.26529133 0.096147425 0.57051915 2.2910528 -1.4621444 -1.5539277
-0.6691217 0.9251818 1.0324214 0.18808368 -0.1861194 -0.39032754 0.5663332 -0.37690905
-0.50269437 0.7432573 1.4941489 3.41095 -1.5182235 -1.2152014 1.8684098 -0.59675854
-0.5562126 0.91370463 1.1107655 1.1873147 -1.4716789 2.620645 -0.50979584 0.36056793
-1.6269243 -0.56731486 -0.46255967 -0.4595847 -1.0983024 1.2356333 -0.13053896 0.7721581
-0.09971822 0.64579046 -0.8118258 0.0038067654 0.7910893 -0.47108364 1.0137767 0.34039545
-0.2574464 2.3096423 -1.8767455 -0.0492007 -1.0311668 -0.97015584 0.057387613 0.7118436
1.6595277 -1.3351846 0.41324413 0.49941477 -2.5903177 -1.7185168 -0.24721052 0.31544966
0.21871777 0.046676658 0.3029996 0.44864306 0.49264476 -0.84830004 0.75560224 -0.9933713
-0.26059517 -2.448381 -0.092335306 -0.057851836 0.95745176 0.37346065 -0.9219374 -0.08246465
-0.6023998 -0.40453443 1.922102 -0.41838178 0.13082395 1.2175666 0.99700105 1.3677932
-0.86624706 -0.417635 -0.80999297 0.5921626 0.61936647 0.46381524 1.916323 -1.040717
-0.09458434 0.10125432 -0.650687 -1.2716931 -0.012792176 -1.0071701 -0.29568613 0.2738351
-0.2291435 0.031180093 0.16966745 1.1579072 0.3324237 0.28452098 -0.14284109 -0.16891621
0.1748432 -0.72393537 -1.9042264 0.14912964 -0.7085152 0.2828493 0.12340148 0.37858978
0.8217155 -0.99513704 0.2204462 -0.081800245 1.0086489 -0.531772 0.7467021 0.6705232
0.1922471 0.18666269 -0.1279148 0.33879846 -0.29093832 -1.0395321 0.20711157 -1.4684291
-0.13850456 -0.37715298 -1.5138227 -0.33490884 1.1407396 0.14741296 1.6007078 0.87387943
-1.025726 -0.7260007 1.4533591 0.26686236 0.7178108 -0.93055606 -1.1363525 -1.2790544
-0.5596301 0.5334718 0.4068866 0.39458653 0.17151096 0.87604475 -0.2870874 1.0216401
-0.07439492 -1.0922236 0.39202642 0.5945261 0.66227406 -1.2063024 0.6074397 -0.5471568
1.1710889 0.09749614 0.96337456 0.8403232 -1.2536547 0.9868361 -0.49465504 -1.283043
0.95522183 1.2835777 -0.6658611 0.5651337 0.2877034 -0.033374783 -1.0618885 -0.11442617
-0.3433358 1.5712649 0.19161488 0.37994185 -0.14475703 0.6376178 -0.28129023 -1.3298751
-0.1420108 -0.5341458 -0.523379 0.86150426 -0.8869632 0.8387747 1.1528951 -1.7610981
-1.4777428 -1.7556711 0.07616609 -1.0786034 1.4403422 -0.11059419 0.57686025 -0.16917409
-0.06402487 1.0384256 0.9068235 -0.47551385 -0.8707436 0.14474289 1.9028565 0.3903958

Encoder.rnn.weight_ih_l0 f4 [192, 64]
00000000: f9b3 dfbd 4aae 79bd 7779 3f3d 6ecf 48be
00000010: 5945 563d 054d 9bbd 5fb7 873d eeef 583d
00000020: d995 ef3d 4f1f 033e 463e 703b 32e6 26be
00000030: 66c4 b0bd 04e7 a63d 652e 2bbd c18a bd39
00000040: 71cb 3abc 3cfb 0fbc 8a73 aabd cfae 4b3d
00000050: 38bf c83d 0294 80bb 2b7f 803e e75c 403c
00000060: 4572 f9bc ae0b 03bd 836e d93d cfa1 50bc
00000070: f097 bd3c 1fde 36bd 1f67 4cbe 34e6 d33d
00000080: 8114 4ebe 6588 eb3d 30f1 a2bd db6a 1c3e
00000090: e42f c23d 583e 023e 3e72 e7bd c49a 3abe
000000a0: 93e4 6c3e 6db6 d9bd 2f7e 23bd 092f b33c
000000b0: 8249 1fbe 9a58 8b3d 6a0d 303d 894e bb3d
000000c0: 73a3 5b3e 4794 d93d 7f84 0fbc b77e 83bc
000000d0: f399 17be f4f6 ccbc 199f 53be ffc3 673c
000000e0: e1b3 dcbd e0ad 613d ce62 4ebe 86ef 0e3d
000000f0: cc40 943d 8479 babd bd04 e63d 121f 84bd
00000100: 685b 0abc 5853 143e 2ce0 af3d c8ae 62bd
00000110: f786 b63d e0fc dcbd b178 873c d70c 89be
00000120: 280c 8a3e 07e2 203e 2cae 793d 20c7 f93b
00000130: 5082 34be e4ad 08be 8701 8abe 84b9 9b3d
00000140: 6562 89bd 2ca7 973e 1ef8 043e 2793 cc3d
00000150: 0542 6abd 9885 303e 8189 923d 829c 38bc
00000160: d200 363e 656e 97bd cf92 03be d4dc 263d
00000170: f50b 32bd d542 693d d2f4 4d3d a53f 713c
00000180: a06f 083e a83b f0bd 7bc4 bbbd 2456 df3d
00000190: b89b 073e b9ee 38bc 9bf6 fa3d 3f9b adbd
000001a0: 6ab4 053e d753 b3bd 6aa4 a13d 5c6c 51be
000001b0: f88f e9bc 2c06 bfbd e7d8 943d 604d 673e
000001c0: a658 123d b1dd 32bd 4bac 20be e7af 2a3d
000001d0: 0b99 ea3d 44f7 1cbe 02d9 21be 3d2d 23be
000001e0: 7c22 623d 3b70 21bd df88 2c3e d2c7 043e
000001f0: a47b 17be 2aab b63d e04c 11be 6af8 8b3e
00000200: 68a1 283e a812 0dbe a1ff 973d b7e4 2b3e
00000210: c5aa 2bbe d40f ec3d ec78 3ebe 82eb 74be
00000220: e409 083e 1612 1c3e 06bc 0c3d affe f63c
00000230: a885 40be 0788 4abe 000b 09be ca9e 0e3d
00000240: bdb8 e2bd 89e7 f53c 7b98 543e 0d5a d93d
00000250: 0846 70bd 5035 c33d 2fc7 93bd 8a87 243e
00000260: 374f e23d 1a60 253c 49c8 0a3d 9120 9d3c
00000270: c47d 7b3d 4070 673d ee2e c13d 241e 67ba
00000280: e854 f63d 2134 a4bc cba8 963c 8c6b da3c
00000290: 8a95 22bd f9c7 36be 988b 253e 2624 fe3b
000002a0: 1c15 fdbb 36e2 d4bc 4a4b ff3d 4b7f debd
000002b0: b2cc 0b3e 2719 1fbc b24a 043e 547b 123d
000002c0: c49e 18be 1a83 b13c 6072 b73d 6af2 ff3d
000002d0: aa66 163e ba80 8cbd c7ae 15be e3e1 8fbe
000002e0: bd43 1e3e 785d febd c92e e63d bd53 e63d
000002f0: 62a0 44be 7cdc 1f3d 2a0b 423d 8e82 653e
00000300: c908 19be 6ac8 94bd eeee b53d 1c3e 673d
00000310: 07b3 32be a0ce af3b 613f 993d 3592 143e
00000320: 6305 cfbd 6cfd c3bc 334b 28bd 588f 0bbe
00000330: e7ab 233d 9505 0d3b f509 08bd 738d 4dbd
00000340: 55e9 663d 6cb6 c93d 5f6d eebc bf55 e23d
00000350: 2549 273e bfc5 103e 7a55 0dbd b2d1 5b3d
00000360: 44f9 1b3d b890 e53c c109 25be 2fe0 96bd
00000370: 291b adbd b126 e93d f819 90bb f853 053b
00000380: 4d0e d73d 09e0 d6bc 263c 1dbd 6b58 c63c
00000390: 5996 45bd 0299 1ebe 0fa9 d53d 802f b1ba
000003a0: 602a 41bd 1197 75be 5341 e43d eea7 e1bd
000003b0: e156 c23d 48ba 453c 7b58 963d d0fb 0d3e
000003c0: 6c12 5dbd 5247 49be 9c7a 58be 6540 903d
000003d0: 0cb2 97bb 2fdc 8e3c dbb6 81bb 4e73 b13d
000003e0: af63 38be 8bc6 433e 8518 82bc 1618 83bd
000003f0: 6ab6 073e 4cd9 b8bc 1212 e0bd 59e3 f1bc
-0.10922999 -0.06095723 0.046746697 -0.19610378 0.05231223 -0.0758305 0.06626772 0.05296319
0.11698503 0.12804912 0.0036658212 -0.1629875 -0.0863121 0.081495315 -0.041792292 0.0003615227
-0.011401043 -0.008787926 -0.083228186 0.049727257 0.09802097 -0.003923894 0.2509702 0.0117409
-0.030449996 -0.03199356 0.106167816 -0.012733891 0.023143739 -0.044645425 -0.19961213 0.10346642
-0.20125009 0.115006246 -0.07956159 0.15275137 0.09481791 0.12719095 -0.11301087 -0.18223101
0.23134069 -0.10630498 -0.03991526 0.021873014 -0.15555385 0.06804009 0.042981543 0.09145839
0.2144907 0.10623985 -0.008759617 -0.016051633 -0.1480482 -0.0250201 -0.2066616 0.01414585
-0.10776497 0.05509746 -0.20154878 0.034896396 0.072389215 -0.091052085 0.112313725 -0.06451239
-0.0084446445 0.14484918 0.08587679 -0.055342466 0.08912461 -0.107904196 0.016537042 -0.2676761
0.269624 0.15711223 0.06095712 0.0076226145 -0.17627835 -0.13347584 -0.2695429 0.07603744
-0.067082204 0.2961973 0.12985274 0.099890046 -0.057191867 0.17238462 0.07155133 -0.011267783
0.1777375 -0.07394103 -0.12848972 0.04073794 -0.043468434 0.0569485 0.050282307 0.014724647
0.13323832 -0.117301285 -0.09168335 0.10905102 0.13242996 -0.011287385 0.122540675 -0.084768765
0.13057104 -0.087562256 0.078926876 -0.20451492 -0.028511032 -0.09327349 0.07267933 0.2258811
0.035729073 -0.043668453 -0.15690725 0.04167166 0.11454972 -0.153287 -0.15805438 -0.15935226
0.055208668 -0.039413672 0.16849087 0.1296685 -0.14793259 0.08919366 -0.14189482 0.27337962
0.16467822 -0.13776648 0.07421804 0.16786467 -0.16764362 0.115264565 -0.18600816 -0.23917964
0.13285023 0.15241274 0.034359 0.03015074 -0.18800986 -0.19778453 -0.13383102 0.0348194
-0.11070392 0.030017631 0.20761292 0.10612879 -0.058660537 0.09531653 -0.07215726 0.16067329
0.11050265 0.010093713 0.033882413 0.019180568 0.061399236 0.056503534 0.09432779 -0.0008816442
0.12027913 -0.020044388 0.018391034 0.02666261 -0.039693393 -0.17849721 0.16166532 0.007755774
-0.0077234637 -0.025986772 0.12465532 -0.10864123 0.13652304 -0.009710587 0.12919119 0.035762146
-0.14904314 0.02166896 0.08957362 0.12497409 0.146876 -0.0686049 -0.14617454 -0.28102025
0.15455528 -0.124201715 0.11239392 0.112464406 -0.19201806 0.03902863 0.047373928 0.22413084
-0.14944758 -0.072647884 0.08883463 0.056455716 -0.17451106 0.005365208 0.07482792 0.14508899
-0.10108449 -0.023924552 -0.04108734 -0.136289 0.03995886 0.002151822 -0.03321262 -0.050183725
0.056374867 0.09849247 -0.029104887 0.11051511 0.16336496 0.14137934 -0.034505345 0.053666778
0.038079515 0.028023109 -0.16117002 -0.073669784 -0.08452446 0.11384333 -0.004397627 0.0020344239
0.105007745 -0.026229875 -0.03838744 0.024212083 -0.048239086 -0.15488055 0.10432636 -0.0013518184
-0.047159553 -0.23983409 0.11145272 -0.11018358 0.09489227 0.012068339 0.07341095 0.1386559
-0.053972647 -0.19656113 -0.21140522 0.07043532 -0.004629379 0.017438976 -0.0039585656 0.08664571
-0.18006776 0.19118707 -0.015880832 -0.064010784 0.13253179 -0.022564553 -0.10940947 -0.029527353

Encoder.rnn.weight_hh_l0 f4 [192, 64]
00000000: 7886 2cbc 25a9 f5bd c824 d03d 3057 133d
00000010: 28b3 0739 3e43 3a3e 90cc 333d aa62 bcbd
00000020: ca6b b93d 3423 5fbe d73b 8b3d 5c8e 8ebd
00000030: 364b 1a3d 76f1 00be 588f 1c3d 72d0 0abe
00000040: 3f78 1cbe 8ccc b9bb cdf1 e7bd 5f1f a9bd
00000050: dcb3 aebd 822e 7ebd c6ef 51bc e72a c83d
00000060: 87d4 d2bd 1a54 babd 21a4 573d 89fc dcbc
00000070: 14a4 b1bc e270 25be bc06 063c 0262 36bd
00000080: 39b3 e53d d242 b1bd a090 3abc 3f8e 84bc
00000090: e498 53bd 434d 6dbc 0579 3339 c7e3 0d3d
000000a0: f29f c7bd e91b 123e 4cd9 b83d 0e13 ed3c
000000b0: c01b 34be 667d 103e 5884 e6bc 2a41 3e3d
000000c0: ea10 2fbd 57db 103e eb75 9f3d 494b 05bd
000000d0: 2a5b 10be 37da 86bc f7a3 823d f777 27be
000000e0: 81aa b33b a1b6 81bd 1eee 5abe 073a 31be
000000f0: 5226 32be 8a8f c73c da14 9a3c 2512 5a3d
00000100: ed03 cb3d 191f 8b3d d318 a53d 62e8 b7bd
00000110: 9be9 313d ffec 5dbd e436 043e 4d9c a4bb
00000120: bfdd 99bd 6892 13bc 7ede cb3d fcef da3d
00000130: f4b2 afbd 2707 283d 308e ba3d 18f8 ae3c
00000140: d085 a1bc 0f9b 4fbe fd07 a13d 065d 203a
00000150: 3be1 943d 0741 b93c 4ded 143d 1baf c1bd
00000160: 811e 343e a16f 403e f51d 1dbe 8c1f 343e
00000170: 0a74 173d 46f7 af3d 0c93 113d 0450 ddbd
00000180: a491 ddbd d2ea 4fbb beb4 c8bd 8710 55be
00000190: bc77 a83d 8030 7fbd 1efe 4c3e f791 6dbd
000001a0: 203e a5bd 9dce e7bd b9ce 2fbc d46d acbc
000001b0: 1961 be3d d598 62be cf3e 9a3d efc0 a03d
000001c0: 731a d2bc 2b9b 25be e5df b83c 9760 7bbd
000001d0: e798 213d fbc9 7abd 9367 5bbd 0078 13bc
000001e0: c498 c73d 2ad0 5ebd 532f 92bc 8914 493c
000001f0: 3d51 26bd f7fa 81bd 15ed afbd 58d0 36bd
00000200: c003 0ebd 7344 073d 8995 0ebd ff1a 0d3e
00000210: f1ae fc3d 08df 2d3d ec25 25be 505e ccbd
00000220: 06cc 18be c915 133d 046e 0a3d 6ae1 2a3c
00000230: 81f1 113c 9442 bdbd a0a4 de3d e1ff a83d
00000240: 1f8d 6e3d 77d7 9cbd 6f27 16be 5ef0 6c3b
00000250: b7c9 fc3c 131f 653d e8f3 65bc 81c4 ccbd
00000260: 7c75 50bd 4130 373e 6449 b83c e58e 1cbe
00000270: 95f9 32bd 3e11 013d 987b 8e3d cbb6 243e
00000280: 00ed 79bc e89d 93bd 0ae3 243d 655c 17bb
00000290: 5c6a 1f3e f6ba 97bd 576c 28bb 7f01 d8bd
000002a0: 9253 ac3d e16b e63a 02a9 903d f57f 1439
000002b0: 9475 1e3e 3f38 f53d aba5 d33d 90f7 89bc
000002c0: 42dd a83c 8943 aabc bc79 6e3d f0e7 b83c
000002d0: 23d9 fabd f7f6 c43d ea6e 403d d2fb 02bd
000002e0: f073 91bc 0e8a 40bd 3f42 303d ed6d 283e
000002f0: 0fd0 163e 21e4 543d afdc 1fbe 9e17 97bd
00000300: e11d 12be 2afe f3bd bd14 4e3d acf5 dcbd
00000310: c013 253d 6201 97bc 3072 32bc b98d 45be
00000320: 9c4a 153d 4b5c 173e 8c78 133d 8142 a73c
00000330: 0875 6cbd 76ff 8c3e 7e10 3ebd e7a2 4ebd
00000340: f8ed 193e b1f4 e1bc e2cd 76bd 3522 86bd
00000350: 6d77 883d a09e d13d 526d 8f3d 2f37 543d
00000360: 34f0 183d 53b4 0bbe 0a76 2a3c b856 8e3d
00000370: 5b88 a3bc 0cb1 953c fc16 893c 0fc5 f63d
00000380: c523 e13d de8b 4f3c dd05 953d a398 213e
00000390: c365 863d c1b0 9bbd ac57 03be 5e39 433c
000003a0: e5bd bfbd e1f3 173d c502 90bd 0062 a63d
000003b0: 4c14 0bbe c547 37be 5294 c93d b0bb e63d
000003c0: 18f3 15be 8eb1 49be 486e db3d f0e1 e0bb
000003d0: 39a9 a0bd dd93 0cbd 1149 8a3d 307b e1bc
000003e0: 2211 20be 4b6a 893c c00e 76bd 561e 5ebb
000003f0: 0fb6 adbd 7a33 a8bd 8b4a 1abd a494 f4bd
-0.010530107 -0.119951524 0.101632655 0.03597182 0.00012941344 0.18189713 0.043896258 -0.09198506
0.09053762 -0.21790773 0.06798523 -0.06960747 0.037669383 -0.1259211 0.03822264 -0.13556078
-0.15280245 -0.005670136 -0.11325417 -0.08257937 -0.08530399 -0.062056072 -0.012813514 0.09773808
-0.102944426 -0.09098072 0.05264676 -0.026975887 -0.021684684 -0.16156343 0.008180317 -0.04452706
0.11215825 -0.08655323 -0.01138702 -0.01618111 -0.05165948 -0.014483753 0.00017115854 0.034641054
-0.09747304 0.1426846 0.09025821 0.02893975 -0.17588711 0.14110336 -0.028139278 0.046448864
-0.04274074 0.14146172 0.07786163 -0.0325425 -0.14097276 -0.016461475 0.0637893 -0.16354357
0.005482972 -0.06333662 -0.21379897 -0.17307292 -0.1739743 0.024360437 0.01880877 0.05323996
0.09912858 0.06793041 0.080613755 -0.089798704 0.043435674 -0.054181095 0.12911564 -0.0050235153
-0.07512998 -0.009007074 0.099545464 0.10690305 -0.085790545 0.041022446 0.09109151 0.021358535
-0.019717127 -0.20273994 0.07862852 0.0006117377 0.07269522 0.022614015 0.03635912 -0.09457227
0.17589761 0.18792583 -0.15343459 0.17590159 0.036975898 0.085920855 0.035540625 -0.108062774
-0.10818794 -0.0031725657 -0.09800099 -0.20807086 0.082259625 -0.062302113 0.20018813 -0.05800053
-0.0806849 -0.11318705 -0.010730439 -0.021048464 0.09295864 -0.22128613 0.07531511 0.07849299
-0.025647378 -0.16172473 0.022567699 -0.061371412 0.03945246 -0.06122778 -0.053565573 -0.009000778
0.097459346 -0.05439774 -0.017844832 0.012272962 -0.04060482 -0.06346696 -0.08590142 -0.044632286
-0.034671545 0.033024263 -0.034810577 0.1377983 0.12338055 0.042449027 -0.16127747 -0.09978926
-0.14921579 0.035909448 0.033796325 0.010429719 0.008907677 -0.092412144 0.108712435 0.0825193
0.058240052 -0.07658284 -0.1466348 0.0036154012 0.030857904 0.055937838 -0.014035203 -0.09998418
-0.05089329 0.17889501 0.022495933 -0.15288885 -0.04369505 0.031510584 0.069571674 0.16085355
-0.015254259 -0.072078526 0.040255584 -0.0023095843 0.15567917 -0.07408707 -0.0025699341 -0.1054716
0.08414377 0.0017579758 0.07063486 0.00014162048 0.1547454 0.11973619 0.10334333 -0.01684168
0.020613316 -0.020784156 0.058221564 0.022571534 -0.12248447 0.09617417 0.046980776 -0.031978436
-0.017755479 -0.04700666 0.043031927 0.16448183 0.14727806 0.051975373 -0.15611528 -0.073775515
-0.1426921 -0.11913712 0.050312746 -0.10789046 0.04030204 -0.018433277 -0.010891482 -0.19292344
0.036448106 0.147813 0.036003634 0.020417454 -0.057728797 0.2753865 -0.046402447 -0.050448325
0.15032184 -0.027582498 -0.06025494 -0.06549493 0.06663404 0.102353334 0.07003273 0.05181044
0.03733845 -0.13643007 0.010404119 0.06950134 -0.01996248 0.0182729 0.016734593 0.12049305
0.109931506 0.012667624 0.07276509 0.15780883 0.06562378 -0.076020725 -0.12826413 0.011915533
-0.093623914 0.037097815 -0.07031778 0.08124161 -0.13581961 -0.17898472 0.09842743 0.11266267
-0.14643514 -0.19696638 0.10714394 -0.0068628713 -0.07844777 -0.0343207 0.067522176 -0.02752456
-0.15631536 0.016774317 -0.06007266 -0.0033892593 -0.084819905 -0.082129434 -0.037668746 -0.119424134

Encoder.rnn.bias_ih_l0 f4 [192]
00000000: ce2b 133e d420 de3d cd2a 1fbe 0ace 76bc
00000010: 5826 cb3c 8b67 efbd d376 d9bd 27d5 823d
00000020: 3929 8b3c f49b eabd 0ba6 d6bd 26d2 49bd
00000030: cccf 99bd 08c9 903a e9d6 a93d a9c6 e0bb
00000040: 68aa 183e df62 67bd 26d4 143c 88e2 90bd
00000050: 2c7b 79bd 553c b63d 7887 f63c c9d8 26bc
00000060: 8ce5 423b f4c4 133e fbae f9bc 431a 81bd
00000070: 9b59 de3d fcc2 ce3d ea50 fabc 74e8 3abd
00000080: b7e0 3f3d 494f b83d 85a0 f93c 5d10 aebc
00000090: adb8 b63d e7d9 633d 6557 90bd d609 d23d
000000a0: 81de 8a3d f3a4 183d c681 953d 66ec 3fbd
000000b0: 26c2 433c 89d5 81bd 904a 8cbd 72ab 993c
000000c0: bb33 74bc 2ecf 0e3d 50ff 0cbe 6350 c43d
000000d0: 8e66 0c3d dc94 24be f7a7 34bd 8609 8cbd
000000e0: 811e 38bc ad72 a03d 8ddb a13d 4411 f53d
000000f0: 9da2 663d e581 983d 496c f4bd aeaa 39bc
00000100: 8856 253e b2c1 233e b666 d8bd e625 bc3d
00000110: 4679 63bd 79aa d13c 1264 ea3c 4e8f 38be
00000120: 95b4 f13c df16 06be 9d95 d1bc 75bf 18bd
00000130: 6782 a93d 5579 373e e2f2 b8bd f3e3 833d
00000140: dc4c 393e 2f57 b2bd c67f d4bd 18a0 25bd
00000150: cbff e13d 1a43 933e f041 a2bd 5da7 293d
00000160: 90f1 043e 7a38 8fbc e68b a9bc d9dc c53d
00000170: 5edd a5bd 2f7a 19bd d9b5 8dbd 055d 8d3d
00000180: 9baa 373d 4094 c03d bcc4 083c 5039 613d
00000190: 2250 033e c95e 263c 491c 9f3d 8680 ab3c
000001a0: 42ab 32be 3694 9c3d 0b08 ff3c 1ba8 0a3e
000001b0: 582c 4f3e 47db 343e bcac 36bd 0319 10be
000001c0: 6ba1 fb3d 9ae4 143d 5e82 babc c612 913d
000001d0: 05fb a8bd 20b6 91be 7a9f 70bd 7ca0 5bbe
000001e0: cbb4 b73d 87c4 a5bd 01f9 b2bd 9fe1 d83c
000001f0: 53cd 09bd 79b6 9ebd cb3a 7fbd e3bc e33c
00000200: 6665 8b3d 90f0 a2bc 7428 403d 8a1a b8bd
00000210: 30f6 01be 415b 7bbd 362b edbc 0470 febb
00000220: ee37 99bc 4530 ee3c a5fa 65bd c238 78bc
00000230: dfba b8bd c745 a23d 0911 9abc a2db 42be
00000240: 6e25 c3bc 5d4b e9bd 49da a8bd ca5a 34bd
00000250: 9567 ac3d 55f4 243d 1f86 1cbc 6600 50bd
00000260: 00f0 7ebc 4940 f2b9 4858 963d a82d 613d
00000270: 7d4c aa3d 2c6c abbd 5b2a c2bd eb75 d13c
00000280: 0e6e 0b3e de30 1fbd eb91 61bc 508c e73d
00000290: ccbb babd 06e0 b6bd 335a 48bd 39b7 4d3d
000002a0: 2f6b a5bc a138 a1bd 1501 a73b 0529 97bc
000002b0: 74b8 10be 2ea8 983d b12f 8bbc 23a1 0b3e
000002c0: 68ca 13be f5a8 0ebd af04 133e 74bd c33d
000002d0: 55f4 11be 5b75 96bd 7ae7 8c3d 1478 c2bd
000002e0: 7cf2 c3bd 5e55 de3d 51ac cb3d be4a 8cbd
000002f0: 29e2 8f3d c192 d2bd 8c4f 7e3d 2a7a 2c3d
0.14372179 0.10846105 -0.15543671 -0.015063772 0.024798557 -0.11689671 -0.10618367 0.06388312
0.01698743 -0.11455527 -0.10480889 -0.04927268 -0.07510337 0.001104624 0.08292944 -0.0068596196
0.14908755 -0.056490775 0.009083783 -0.070744574 -0.06090848 0.08898226 0.030093893 -0.010183522
0.0029738871 0.144306 -0.030478945 -0.06303837 0.10856935 0.10095784 -0.030556161 -0.04563184
0.046845164 0.089994974 0.03047205 -0.021248037 0.08921943 0.05562773 -0.07047919 0.10255782
0.067807205 0.037266683 0.07300143 -0.046856306 0.011948144 -0.06339557 -0.06850159 0.01875851
-0.014904912 0.03486555 -0.13769269 0.09585645 0.03427749 -0.1607241 -0.044105496 -0.06837754
-0.011237741 0.07834373 0.07903204 0.11966184 0.056307424 0.074466504 -0.11934716 -0.011332197
0.1614629 0.15991858 -0.105664656 0.09186916 -0.055535577 0.025593983 0.02861217 -0.18023416
0.029505054 -0.13094662 -0.025584036 -0.037291963 0.082768254 0.17917378 -0.09030701 0.06439962
0.18095726 -0.08708035 -0.10375933 -0.04043588 0.11035117 0.28762132 -0.07922733 0.041419376
0.12982774 -0.017482985 -0.020696592 0.09661264 -0.08098863 -0.03747004 -0.0691945 0.06902508
0.044840436 0.094032764 0.008347686 0.054986298 0.12823537 0.0101544345 0.07769067 0.020935308
-0.17448142 0.076454565 0.031131765 0.1354069 0.2023176 0.17661773 -0.044598326 -0.14072041
0.122866474 0.036350824 -0.022767242 0.07083659 -0.08251003 -0.28459263 -0.05874584 -0.21447939
0.089700304 -0.08094125 -0.087389 0.026474772 -0.033643078 -0.07749648 -0.06231193 0.02780003
0.068064496 -0.0198901 0.04691358 -0.08989437 -0.1269157 -0.061366323 -0.028951269 -0.007764818
-0.018703427 0.029075751 -0.056147236 -0.015150251 -0.09020018 0.07923465 -0.018806951 -0.19029096
-0.023821559 -0.113913275 -0.082447596 -0.044031896 0.08418194 0.040272076 -0.009553461 -0.05078163
-0.01556015 -0.00046205733 0.07341057 0.05497518 0.0831537 -0.083702415 -0.09480735 0.025568923
0.13616201 -0.038864963 -0.0137677 0.11306059 -0.09117851 -0.08929448 -0.048914146 0.050223563
-0.02019271 -0.07872129 0.0050965645 -0.018452177 -0.14132863 0.07453953 -0.016990514 0.13635688
-0.1443268 -0.0348291 0.14357255 0.0955762 -0.14253362 -0.073466025 0.06880088 -0.09495559
-0.095677346 0.10856126 0.09944976 -0.068501934 0.070255585 -0.10281897 0.06208758 0.042108692

Encoder.rnn.bias_hh_l0 f4 [192]
00000000: 099c b73d af78 c53d c21c 993c 5896 053d
00000010: 2439 243d 1ae4 e73d ae57 dcbd f192 d5bd
00000020: 7412 50bd 4460 bfbd 178d a4bd a4a0 72bd
00000030: 4532 8b3d eb23 d3b9 525e b43b 8d1b dc3d
00000040: 262d 4a3e 94e1 083e b65a a63d bdad 36bd
00000050: abd9 903d afcd dabd cd53 9abd 20b2 093e
00000060: b177 91bc 9c62 92bd 8cda 64bd 92cb 843d
00000070: 7160 c53d 797a 62bd 5207 fdbd c17d 903d
00000080: 44bd ebbb 521c 863d 5cd0 e7bd 0e92 5f3d
00000090: 8e6c 9fbb ed66 353d 0f4e 12bc 1ff7 eb3d
000000a0: 79ba 913d f7d1 7c3d 4651 4d3d 2f59 07bc
000000b0: 0954 f63d 0d1e 95bc 2ac9 9e3d 7d22 863d
000000c0: 923a 6a3d 3179 3f3e e4d4 88bc 21fc cebc
000000d0: 72aa 163d 1a25 0cbe dffa 05bd 781c b3bd
000000e0: 8883 65bc 4d13 67bb bd34 4c3c 596d 393d
000000f0: 9ad9 6abc af16 d7bd be2d bb3d e515 fd3b
00000100: cbb9 123c d547 763e ccb2 54bd b6b6 b73d
00000110: 454b c9bc 2816 213c cc6a 0a3e 4f2a 2dbe
00000120: b52c 163e 4ad1 f53c 3c45 e13c 713e 8d3c
00000130: 84d3 7c3d 4a54 2d3e 8b3e b23c 8572 293d
00000140: 7170 e33d db0a e73b 133c 44bd de74 e3bc
00000150: f04e 8ebd e8ff 143e a327 0abe fdde d03d
00000160: c721 593b 8887 173e ee9a a83d 71cd 653c
00000170: c090 b23d 8818 623d d7e4 db3b 719e 373b
00000180: 4708 9abc 2d02 933d 40b3 b0bd 3ef6 9e3d
00000190: b7cd cabc f719 903c 83ce bb3d 3dd0 1f3e
000001a0: 94c6 32be 0d22 143e dfbe 3b3d a98d f93d
000001b0: 7ff5 173e d201 0d3e 14b3 71bd 1887 f8bd
000001c0: 60e2 cd3d 8743 c1bd deb7 8cbd 66c8 70bc
000001d0: 50a6 2ebe c8b9 23be 945e 3b3d 3098 38be
000001e0: b3a0 91bd b9b6 9b3d 8f78 1d3d 69ae 0ebd
000001f0: 513b 64bd 908f e53d 568f 0cbe 85ef da3d
00000200: d312 263c f434 f93d 6b71 3fbc a164 39bd
00000210: 3b73 89bd 94d0 92bd 7a68 a4bd 1a91 0b3e
00000220: c8b6 013e c3dd 1abd b332 4dbd 5d14 873d
00000230: 9d3b 983d 081c 02bd 6558 b73d a586 b3bd
00000240: 05fb 6fbd 17f3 833d d0a3 79bd 1b30 263d
00000250: 38a9 a73d a15d 98bc c8ef e8bd f9da 363d
00000260: 57e6 fcbd 4bcc a73b 2c1c 4dbd e483 2bbd
00000270: b5a3 a5bb 8fe9 d63c 8130 7bbd 6ad4 8dbd
00000280: 20c8 87bd b995 ab3d b101 04bc fad6 26bd
00000290: 5440 723c f6b5 0abe 202b 00be ef5c 643d
000002a0: 59d8 943d a6bc b83d cf0a b4bd 8ea3 e63c
000002b0: 74ea 2bbe 6726 173e fb2a 7e3d 60b2 023e
000002c0: 9ab2 ecbd e351 373d 4041 213d 57d8 bbbb
000002d0: 5f9b e73c 0156 303c d2b3 923d 400b 8a3d
000002e0: 07a0 f03d 2167 47bd eec4 a83d 1750 28bb
000002f0: 1061 f13c eb17 c3bd 24ab cfbc b888 643d
0.08965308 0.09642159 0.01869047 0.032614082 0.040093556 0.11322804 -0.10758911 -0.104284175
-0.05079885 -0.09344533 -0.08034723 -0.05923523 0.067966975 -0.00040271817 0.005504408 0.107474424
0.19743785 0.13367301 0.081227705 -0.044599283 0.07072767 -0.10683762 -0.07535515 0.13446856
-0.017757269 -0.071477145 -0.055872485 0.064841405 0.09637535 -0.05529258 -0.12354912 0.07055236
-0.007194193 0.065483704 -0.11319038 0.054582648 -0.0048652356 0.04428761 -0.008929743 0.11521744
0.07115645 0.061723676 0.050126337 -0.008261009 0.12027747 -0.018202806 0.07753213 0.06549547
0.057184763 0.18698575 -0.016703077 -0.025266709 0.036783643 -0.13686028 -0.032709952 -0.08745664
-0.01400841 -0.0035259307 0.012463746 0.045270298 -0.014334107 -0.105023734 0.09139584 0.0077235573
0.008955429 0.24050839 -0.051928326 0.08970396 -0.024572024 0.009831943 0.13517302 -0.1691067
0.14665492 0.030007023 0.027498834 0.017241688 0.061725155 0.16926685 0.021758338 0.04136898
0.11105431 0.0070508546 -0.047908854 -0.027765688 -0.0694865 0.14550745 -0.13491683 0.10198782
0.0033131705 0.14797795 0.082326755 0.014026032 0.08719015 0.055199176 0.0067106294 0.0028018022
-0.018802775 0.07178149 -0.08627939 0.07761811 -0.024756296 0.017590506 0.09170248 0.1560678
-0.17458564 0.14466114 0.045836326 0.12185223 0.14839743 0.13770226 -0.059008673 -0.12135142
0.10052943 -0.09436708 -0.068710074 -0.014696216 -0.1705563 -0.15988839 0.045744494 -0.18026805
-0.07110729 0.07603211 0.03844505 -0.0348343 -0.05572063 0.11209023 -0.13726553 0.10690216
0.010136324 0.12168303 -0.011684756 -0.045261983 -0.067114316 -0.07168689 -0.0802774 0.1362957
0.12667382 -0.037809145 -0.05009718 0.06595681 0.07433245 -0.031765014 0.08952407 -0.08765916
-0.058589 0.0644285 -0.06094724 0.04057322 0.08186573 -0.018599333 -0.1137386 0.044642422
-0.12348621 0.005120789 -0.050075695 -0.041873828 -0.005054916 0.026234416 -0.061325554 -0.069252804
-0.06629968 0.08378167 -0.008057044 -0.04073236 0.014785845 -0.13545975 -0.12516451 0.05575269
0.072678275 0.09020357 -0.08791124 0.02815416 -0.16788656 0.14760743 0.062052708 0.12763357
-0.11557503 0.044755828 0.039368868 -0.005732577 0.028272329 0.010762692 0.07163204 0.06740427
0.11749273 -0.048682336 0.08240686 -0.0025682503 0.029465228 -0.09526046 -0.02535016 0.055794448

Encoder.rnn.weight_ih_l1 f4 [192, 64]
00000000: 809f aabd ffce 44bd 6f51 703c 5b86 47be
00000010: 8d3c f53b 98e5 2fbe e21e 1e3d 00f5 723c
00000020: cf70 3e3c d6bc 953d f246 663d 2a6a ba3d
00000030: 9ea4 5e3c f7c0 04be e673 1e3e b10a a73c
00000040: f1f1 10bd faa5 11be 79ed 82bd 01a7 1c3c
00000050: dcfa 4bbd 4be0 48be 98b7 613d 013a 783d
00000060: a0d8 b83d d81a 7f3e d26b 5dbc e0f1 90bd
00000070: 93c0 17be 7db9 9d3d 1070 813c 818e 273d
00000080: 0dc7 f6bd ca21 b8bd ebfb abbd 14a0 c13c
00000090: 5335 e53d 4876 1fbe 3613 9dbd c110 afbd
000000a0: c901 c7bc dcb5 71bd a681 c13d 982d df3d
000000b0: eabe 82bd 5a0b 8dbd e2d9 c73d c595 2f3e
000000c0: 366d f63d cbf4 debc 8cac 04bd 1a91 04bc
000000d0: 1b90 ddbd 875f fcbc 2661 f3ba f868 cb3d
000000e0: e82d 823d a80d e03c bd59 8fbd 6bf8 d2bd
000000f0: 0c71 453d 9dd9 1f3d 3c41 a53d 6926 e8bc
00000100: d2d5 31be 0700 f6bd 603a fc3d c83c d0bd
00000110: 01fa f43d 475d 063c 5334 82bd d902 b3bd
00000120: f431 cb3d 37d9 50bd 21f0 ee3d 331f fd3d
00000130: a92a df3d 022f af3c a2a6 30be b9fe 4dbe
00000140: bd59 92bd f470 cb3d f0cd 063e e038 0d3e
00000150: e035 ad3d 42ee 1cbc 2f6a 58bd 2f40 8e3c
00000160: 099b a0bd c674 03be cf59 eebd 5064 80bd
00000170: 094a a63d 9148 f4bc 3c14 78bd 947c bd3c
00000180: fabf 9f3d c97b 2d3d b932 c03c 2421 883d
00000190: f8dd f0bd e48f fcbd b4e4 e4bd 7929 973d
000001a0: 91f7 d9bc 4ff7 24bd 6b2f 28be 4980 74bd
000001b0: 09ef 883d d241 7d3e 3a65 8dbe f58a 97bd
000001c0: f7e6 2ebc aa20 ec3d 19ab 6dbd 6f20 45bd
000001d0: b8be f23c a07a 393c a497 8dbc 997a 863d
000001e0: f3a6 173d e961 4bbe 9041 aebd 0c6e 413d
000001f0: 79fa 72bd fe68 5f3e accf 12bd b298 0c3d
00000200: 16d4 113e 8c0d 7f3d d24c 333e 4911 e53d
00000210: 65da 61bd fd42 9dbb 050d eb3d 314d 113d
00000220: 5f32 14be 124e f2bd 8ab2 afbd 6dd7 94bd
00000230: d8a1 ad3d 2d26 39be 4412 3c3e f068 de3d
00000240: c2cc 15be 41e2 123e 2a15 993c 91cd dfbd
00000250: 37bf 15be e642 58bd 4b4d cbba 3c34 82bd
00000260: 510e a9bd 404f 433c 7ebc 88bd 0489 7ebd
00000270: e940 b33d 17e5 b6bd 6737 e4bc c1b1 bfbd
00000280: e695 e0bd 1022 223e 8108 4e3e 0a99 24be
00000290: 856e 62be 5449 7abd cb0b 613d 3465 10bd
000002a0: cc82 8b3d cd26 ad3d 2b4f 0f3e f615 8cbd
000002b0: 31ec 903d 3dc6 483d 1fb5 ab3d 61ee 49bb
000002c0: 5f72 a93d daec ccbd 228a 0d3d d9a0 b1bd
000002d0: fb55 1c3e 0cbd 563d 005f 083d aa24 d13d
000002e0: ac81 283c 4ae9 a53b 4275 a3bd 83b4 c23d
000002f0: 73d4 d83d c9f0 d6bc 4369 d33d c1ba 2cbe
00000300: 4211 8dbd 9fa2 5b39 93d1 5cbc f639 c63d
00000310: 1940 f2bc 2612 c4bd 4e89 7b3d 0de1 c73d
00000320: 4476 c2bd 542d b03d b568 cf3d a917 a53d
00000330: cce2 24bd 9572 e1ba ac44 3a3d 3d68 9c3d
00000340: 0743 c23d e23d 07be bcae 683d a33f e93d
00000350: 49a8 2a3d b360 a83d eb59 6c3d c7eb 123d
00000360: 45c0 743d 6552 bfbd a3d1 06bd 7317 5cba
00000370: 4ede 00bd 72ea 703d f42b b43d 1ac4 193e
00000380: c415 03be 3f25 50be b3ad a5bd dd92 e0bd
00000390: d817 9ebd 7285 2dbd e45c 9abc 413e 9d3d
000003a0: 1fe5 09be ad28 e5bd d4b5 50be a0f8 0dbd
000003b0: e6e5 41bd 72a3 113d b8ab 09be e07d 03bc
000003c0: 5a59 c03d 4d9c ae3d 823c 35be 944b 263e
000003d0: d88b 653d fb9d 243d cb32 483d 233a cfbd
000003e0: 307c 703d 8c97 b8bd 92b4 22be d36d 88bd
000003f0: 9ac8 51bc 0826 9abd 09aa 1b3d 43c9 5f3d
-0.083312035 -0.04804897 0.014667853 -0.19484846 0.007484025 -0.17177427 0.03860367 0.01482892
0.011623575 0.07311408 0.056220002 0.091022804 0.0135890525 -0.12964235 0.15473899 0.02039084
-0.035386983 -0.14223471 -0.063929506 0.009561301 -0.049799785 -0.19616811 0.05510673 0.06060219
0.09025693 0.24912584 -0.013514476 -0.07077384 -0.14819555 0.07701395 0.015800506 0.040907387
-0.12049685 -0.0899082 -0.08397659 0.023635902 0.111918114 -0.15572464 -0.0766968 -0.085481174
-0.024292843 -0.059011325 0.094485566 0.10897368 -0.0638407 -0.06886931 0.09758355 0.17146976
0.12032549 -0.027216336 -0.032391116 -0.0080912355 -0.108185016 -0.03080727 -0.0018568381 0.099321306
0.06356412 0.027350262 -0.06999538 -0.10301288 0.048203513 0.03902589 0.08069083 -0.028338628
-0.17366722 -0.12011724 0.12315822 -0.10167843 0.11961747 0.00820095 -0.06357636 -0.087407775
0.09921637 -0.050988402 0.11666895 0.123594664 0.10896809 0.02138472 -0.17251065 -0.201167
-0.071460225 0.099336535 0.13164496 0.13791227 0.084575415 -0.009578289 -0.05283564 0.01736459
-0.078420706 -0.12837514 -0.116382234 -0.06269133 0.0811959 -0.029819759 -0.060566172 0.023130693
0.078002885 0.04235438 0.023461686 0.06646946 -0.11761087 -0.123321325 -0.11176434 0.07380957
-0.026607307 -0.040274914 -0.16424339 -0.059692655 0.06686217 0.2473214 -0.27616292 -0.07399551
-0.0106751835 0.11529668 -0.0580245 -0.048126634 0.029631957 0.01132074 -0.017284222 0.065663524
0.03702445 -0.19861569 -0.08508599 0.04722409 -0.0593209 0.21817395 -0.035842583 0.03432531
0.1424106 0.06226878 0.17509773 0.111849375 -0.055139918 -0.0047992454 0.11477093 0.035474006
-0.1447234 -0.11831297 -0.085789755 -0.07267652 0.08478135 -0.18080969 0.18366343 0.10859859
-0.1462889 0.14344122 0.01868685 -0.109278806 -0.14623724 -0.052798174 -0.0015510706 -0.06357619
-0.08254684 0.01192075 -0.06676577 -0.062142387 0.08752615 -0.08930414 -0.02785845 -0.09360076
-0.10966091 0.15833306 0.20120431 -0.16074005 -0.22112472 -0.061105087 0.054942887 -0.035252765
0.06812057 0.08454666 0.13995044 -0.06840126 0.070763 0.04901718 0.083841555 -0.003081225
0.08273768 -0.10006113 0.03455556 -0.086732574 0.15267174 0.052426383 0.033293724 0.10212071
0.010284822 0.0050632106 -0.079813495 0.09507086 0.105873965 -0.026237862 0.103228115 -0.16868116
-0.06888057 0.00020946049 -0.013477701 0.09679024 -0.02957158 -0.09573774 0.06141024 0.09759722
-0.09495214 0.08602396 0.10127393 0.080611534 -0.040255353 -0.0017200286 0.045475647 0.076370694
0.09485441 -0.132072 0.056807265 0.11389091 0.041664395 0.08221569 0.05770294 0.035869386
0.059753675 -0.093418874 -0.03291477 -0.0008395828 -0.031462006 0.058817334 0.08797446 0.15016213
-0.12801272 -0.20326708 -0.08089771 -0.10965512 -0.077193916 -0.04236359 -0.018843122 0.076778896
-0.13466309 -0.11189399 -0.20381862 -0.034660935 -0.04733839 0.035556264 -0.13444412 -0.008025616
0.093920425 0.08525906 -0.17698863 0.16239768 0.05604157 0.040189724 0.048876565 -0.101185106
0.058712184 -0.0901328 -0.15889195 -0.06661572 -0.012804175 -0.07526785 0.038003955 0.054635298

Encoder.rnn.weight_hh_l1 f4 [192, 64]
00000000: 5027 c5bd 48e1 0e3d 6897 adbd 3a86 a03d
00000010: a104 8d3d b44f ba3d 622f c83d 5812 e93d
00000020: 2c0b 76bc d02d e7bc 3167 0cbe 7a1b a33c
00000030: a420 a23c c362 ffbd 0fa7 353d 8b19 cd3b
00000040: 2932 193e 359d cbbd 6b48 c0bd 4d65 2b3e
00000050: 748a ca3d fecf 753d 75f6 643e 2f94 06be
00000060: 5272 193e 6a94 acbd a764 0e3d 7910 d1bd
00000070: de05 dbbd ecea 2bbe 27d3 2abd 39a7 563c
00000080: 87c7 b93c 7521 f6bd 15ff 93bd 6540 bcbc
00000090: d8f3 2ebe 981a e63d b77b 063e 69e5 75bd
000000a0: ef12 73bd 6f11 463d c0d5 7f3d 82b1 f33d
000000b0: 9dd3 b53d 0ea4 333e 2b76 c93d 25f1 2fbe
000000c0: 7ed8 d6bd c7a2 b83d a660 d4bc 7975 463c
000000d0: 89ca d33c 4880 863d 219b 243d 5ecf ccbd
000000e0: bd70 193b 960c 9b3d b6a2 023c 06d3 0e3d
000000f0: 7a95 bebd e078 c43c f8a9 603d e808 e0bc
00000100: 8056 ab3d 7cba e6bd 6cf7 5d3d 3486 62bd
00000110: 0ae9 003d 8246 aabc abad 4ebd 0d5a 603d
00000120: a8ed 4a3d 9daa 413e 37fd 223e c8bc 0fbe
00000130: b83f 843d f758 7f3d 9268 d2bc f256 073b
00000140: d657 39be 03eb b0bd b571 6cbc d17e c23c
00000150: c4d0 b7bd d5da 00be 1059 043e 4d93 11be
00000160: 708f 88bd f197 3b3b 4216 8b3d 60f3 d7bd
00000170: 2c84 b8bd bdaf 263d e29b c8bd 4783 afbd
00000180: 4394 7e3c 1fbd 013d af11 31be 3bd5 00be
00000190: 9556 1dbc ce67 183c 37d9 0fbe 5a46 2dbc
000001a0: 4989 2f3d fb9b 05be 48bb d13d 9c53 3e3a
000001b0: 8db1 a8bd 0282 09be 56f0 2ebe 345c 003c
000001c0: 4cc8 9dbd 2587 3d3d 3ffc 453d 9fcf c33d
000001d0: 5aa9 09bd 468a b1bd 2711 dbbd ae3d 153d
000001e0: 9e11 ab3d ce78 87bd 8aa8 0fbe 508d e2bd
000001f0: c0ae 1d3d a736 583d 604b 5bbd 8a51 a53c
00000200: 2438 f2bd 73e3 c4bd 628d 82be 3e3f f4bd
00000210: 62c2 0ebb 35dd bb3d 78c8 85bd 80c7 0b3e
00000220: be9f d53d 3c14 0ebe 7781 80bd 4596 10be
00000230: e973 9e3d ce82 c1bc 4dd3 f8bc d7ba 183e
00000240: ec8b d33d 2d08 ddba 2572 3f3b 3764 2d3d
00000250: 4002 ab3d 5bd0 a33c e55f 0a3e c861 d33d
00000260: a163 bf3d ee24 2bbe f967 b83b 8aa9 e53c
00000270: 5faa 963d 7422 e93c 4932 9dbd 2bd9 b0bd
00000280: 473b d63d 999d d63d 7ef7 883d be53 fdbd
00000290: 743f 943a d3d4 30bc f0af 533d ff40 af3c
000002a0: 0d2d e8bd 4102 0e3c 1647 b839 ecd0 2e3d
000002b0: 2ec4 fcbb 7bdd c43c 9330 c43a 850e e73d
000002c0: 0bf3 4b3e d691 073d 202a 233e 093b a4bd
000002d0: 2f2d 0e3c c076 383d 19c5 2b3d c58c 7cbe
000002e0: 6792 e43c d9fa 323e 26f8 543d 8a2f d53d
000002f0: 5124 2abe 9b6e abbd 76da d03d ac98 1dbe
00000300: e1c8 f4bd 44bb d13c 15e1 443d 09d3 f2bd
00000310: b73c 56bb 4192 d8bd 9652 16bd e4bd e93a
00000320: ca46 ec3c 5891 d03d aaeb 0f3e c24b c5bc
00000330: d4a4 0ebd 9702 cf3d 394f 403a 25e8 c8bd
00000340: 2427 993c 4f50 e9bd 29a2 b33d 9c4b 76bd
00000350: ff08 fbbd 8960 2a3d adda 66bd 7f85 733c
00000360: f031 9c3a 77d9 7dbd 3c77 c2bd e4e1 523d
00000370: 63c2 06be ce54 e03c 5841 22bc 488e 1abd
00000380: 1437 d43d ec6c 4ebc ac41 b9bd 6383 3bbb
00000390: 6f26 b43a 58d0 b33d b9d4 9ebc 0966 013e
000003a0: 4279 9b3c bb87 1abc 9901 ef3d 6f0c 683d
000003b0: d802 a93d e4f8 2dbd 6376 833d cdf3 0c3e
000003c0: f4a8 673d 61b2 63bd f2bb 7439 1ea1 eebd
000003d0: b154 7ebd 1af4 473d 8c0f 8cbd 64a3 79bc
000003e0: d738 dabd f634 6b38 3cc5 403c 41cd e43d
000003f0: 710e 363d 97ae bdbd 29e0 c23d 2535 c73d
-0.09626639 0.034882814 -0.08476144 0.07838102 0.068856485 0.090972334 0.097746626 0.11380452
-0.015017312 -0.028220087 -0.1371124 0.019910563 0.019790955 -0.12470009 0.044348773 0.0062591485
0.14960541 -0.09942094 -0.09388813 0.16737862 0.09889689 0.06001281 0.22359641 -0.13142465
0.14985016 -0.08426745 0.03476396 -0.1020822 -0.106944785 -0.16788834 -0.041705277 0.013101392
0.02267815 -0.120181 -0.072263874 -0.022979924 -0.17085207 0.11235541 0.13133131 -0.060033236
-0.05934423 0.04835647 0.062459707 0.11899091 0.08878253 0.1754305 0.09836992 -0.17181833
-0.10490511 0.09015422 -0.025924992 0.012112969 0.025853412 0.065674365 0.040187005 -0.1000049
0.0023413145 0.0757076 0.007973364 0.034869216 -0.09305854 0.023983419 0.054849595 -0.027347997
0.08366108 -0.11266038 0.054191038 -0.055303767 0.031472243 -0.020785574 -0.05045859 0.05477338
0.049543053 0.1891274 0.15916906 -0.14036858 0.06457466 0.062340703 -0.025684629 0.0020651189
-0.18099913 -0.08638575 -0.014431407 0.023742111 -0.08975366 -0.12583478 0.129246 -0.14216347
-0.066679835 0.00286245 0.06791355 -0.10544467 -0.09009585 0.04069494 -0.09795357 -0.08569961
0.015538278 0.0316745 -0.17291902 -0.12581341 -0.009603162 0.009302093 -0.14047705 -0.010575855
0.042855535 -0.13047783 0.10240799 0.00072603836 -0.0823699 -0.134285 -0.17083868 0.007834483
-0.07704219 0.046271462 0.048336264 0.09561085 -0.03360877 -0.08668952 -0.10696631 0.036435775
0.083529696 -0.066148385 -0.14029136 -0.110621095 0.038496733 0.052786496 -0.05353868 0.020180482
-0.11827114 -0.09613695 -0.25498492 -0.11926125 -0.0021783342 0.09173051 -0.06532377 0.13650322
0.10430859 -0.13874906 -0.062746935 -0.14119823 0.07736952 -0.023621943 -0.030374194 0.14915024
0.10329422 -0.0016863398 0.0029212323 0.0423319 0.083500385 0.019996813 0.13513143 0.10321385
0.093451746 -0.16713306 0.005627629 0.028034944 0.073567145 0.028458811 -0.07675607 -0.086351715
0.10460525 0.10479278 0.066878304 -0.12369488 0.0011310414 -0.010792929 0.05168146 0.021393297
-0.11336718 0.00866753 0.00035148178 0.042679712 -0.007713816 0.024031391 0.001496809 0.11282066
0.19916932 0.033098064 0.15934038 -0.080190726 0.008677765 0.045035124 0.041936014 -0.24663074
0.027901841 0.17478503 0.051994465 0.10409458 -0.16615416 -0.08370706 0.10197918 -0.15390271
-0.11952377 0.02560199 0.048066217 -0.11856658 -0.0032689997 -0.10574771 -0.036699854 0.0017833081
0.028842349 0.10183972 0.14054742 -0.024083976 -0.03482516 0.10107916 0.0007336024 -0.09809903
0.018695422 -0.11392271 0.08771164 -0.0601307 -0.12257575 0.04159597 -0.05636089 0.014863371
0.0011916738 -0.06197497 -0.094953984 0.051484957 -0.1316009 0.027384188 -0.0099032745 -0.037733346
0.10362068 -0.012599211 -0.09045729 -0.0028612248 0.0013744364 0.08779973 -0.019388543 0.1263658
0.018978719 -0.009431775 0.116702266 0.056652483 0.082524955 -0.04247369 0.06419065 0.13764878
0.05655761 -0.055590037 0.00023339668 -0.116518244 -0.062092487 0.048816778 -0.06838903 -0.015236709
-0.106553726 5.607769e-05 0.011765774 0.111719616 0.044447366 -0.09261816 0.095154114 0.097269334

Encoder.rnn.bias_ih_l1 f4 [192]
00000000: d99a c0bc 864b a83c 527d cfbd 22ad 9fbd
00000010: 8ab7 573c bcde fdbc 75fd 0d3d 2ed2 e73d
00000020: d2fb 753d 5623 9b3d 7b4c 143e e836 233e
00000030: 6e0f 9b3d 2d01 c83d c7ff af3d a4b3 acbd
00000040: b577 30bd b883 99bd 03b0 8e3d b191 213d
00000050: ac93 1e3d 09a0 e13c 1efa c43c d4fc 133d
00000060: f58a 14be 1aec 94bd fc8a 9abd f51c 1ebc
00000070: 7e0e d63a 96f0 213d edf0 bf3d 0c23 d4bd
00000080: a5de 94bd 7529 3f3d a8bc 19be 8a6e 43bd
00000090: a943 e23c d2be fbbd 2d65 bcbd 7cee 0a3d
000000a0: a2b4 fabd 2560 a2bd b745 893d 3017 dfbb
000000b0: cd92 30be 1e7e f33c 06b4 38bd d13f 963d
000000c0: fc4f 5b3d 98ec 153e daf9 053d a6d6 e23d
000000d0: 5dba a13c c919 f3bd 6285 4d3d c204 f4bb
000000e0: 95e2 eabd 19ce 0b3e 5d0e dfbc 8a1c 20bc
000000f0: 8be3 5c3d 9745 cbbd 1ce7 a13c 0ed7 da3d
00000100: 30ef f63d b3b6 fbbd 694a 223e 8fe6 0bbc
00000110: 5e7a 203e 8c5a 983d 4f31 8e3e a706 bf3c
00000120: e92a 173d cf2a 4cbc fcc3 fbbd 35a5 e23d
00000130: 54c6 f9bd 0123 92bd 0636 edbc 6e73 f13c
00000140: 19a2 06be e589 513e a2e4 3d3d 2fdd 003e
00000150: dc9e 673e ae66 ebbd e0d7 9dba bf6b d0bd
00000160: 3348 7fbd 039e ee3d 08e7 9c3c 66ff 8ebd
00000170: f04c ff3c 0659 37bd 822d 8e3e 9975 f3bd
00000180: d975 3ebe 5741 cd3b 20cf 173d 2338 b53c
00000190: ca96 debd 5066 ecbd 3c82 bcbc 0ae5 28bc
000001a0: 546c f7bb 932e 6dbd 1c89 0cbe d4ad 583e
000001b0: ef56 c8bd 1bdb 263e c026 9f3d 0c09 be3d
000001c0: 5d7d 573d fb16 593e 8f40 32bc 3763 4c3e
000001d0: 59b0 0f3e eb2f 29bd 02f9 e33c 4b4e 5abd
000001e0: a996 463e 90f0 b13d e902 bebd 843f 673e
000001f0: 5d1c 40bc bcfe 3ebe aed9 023e 5ebb 533d
00000200: 90f9 d8bd f9ad 2e3e 631f 02be 86c6 08be
00000210: 5f23 23be 0fc5 01bd ff17 e9bb 6f7b a73d
00000220: d78a 09be ffe7 773d ce85 f23c b920 193e
00000230: 56b9 003d 92f6 2c3e 11fa 2f3e b585 7dbd
00000240: 2454 993c c5f0 f6bd cf2f 94bd 1cbd 29be
00000250: 0be4 593d ffe3 253e 7392 2cbe ff37 35bc
00000260: ebe9 033d e481 2a3d db27 043d 2e96 81bc
00000270: 0e1d 3d3d 472e 803d e6eb ea3d d15e 853d
00000280: d9c5 36be e853 c13d cd62 503d 1cb9 aebc
00000290: a83f 8f3d f03d 9ebc 8bec 66bd 27a6 a3bd
000002a0: f0b8 803b 61d4 57bd f8a7 8fbd f228 8e3d
000002b0: 9ec3 c0bd 4c12 043d 0616 0d3e 0247 45bc
000002c0: 3672 f63d 45cd 66bd 6442 9e3d dc7d 923c
000002d0: ec19 93bd 9c41 ce3d 02d7 31bd e81b d8bc
000002e0: 7484 bd3c 5f92 f23d 7df1 153e 0af9 c2bb
000002f0: 4c1f 8fbc f82c 243e 5e70 3dbd 112c 5f3d
-0.023511337 0.020543825 -0.10131325 -0.07796694 0.013166318 -0.030989997 0.034665544 0.113193855
0.060054608 0.07575099 0.144823 0.15938914 0.07571302 0.09765849 0.085937075 -0.08432701
-0.04308291 -0.074958265 0.06967165 0.039445583 0.03871505 0.027542131 0.024045046 0.036129788
-0.14506133 -0.07271595 -0.075460404 -0.009650459 0.0016331223 0.03953608 0.09372125 -0.10358247
-0.072690286 0.046670396 -0.15013373 -0.04771284 0.027620154 -0.122922555 -0.09198985 0.033918843
-0.12241484 -0.07928494 0.0670275 -0.006808184 -0.172435 0.029723223 -0.04509356 0.07336391
0.053543076 0.14641035 0.03270898 0.11076097 0.019742185 -0.118701525 0.050176032 -0.0074468562
-0.11468998 0.13652839 -0.027228529 -0.009772429 0.05392794 -0.099253826 0.019763522 0.1068555
0.1205734 -0.122907065 0.15848698 -0.008538856 0.1567168 0.074391454 0.27771994 0.023318602
0.036906157 -0.012461378 -0.122932404 0.11066667 -0.12196031 -0.07135583 -0.028956424 0.029473986
-0.13147773 0.20462759 0.04636062 0.12584375 0.22619194 -0.11494194 -0.0012042485 -0.10176801
-0.062324714 0.11651232 0.019153133 -0.06982307 0.031164616 -0.044762634 0.27769095 -0.11887664
-0.18599643 0.0062638926 0.037062764 0.022121495 -0.108686045 -0.11542952 -0.02301132 -0.010308513
-0.0075507555 -0.057905745 -0.13724178 0.2116006 -0.09782206 0.1629452 0.07771063 0.09279069
0.05260979 0.21200173 -0.01087965 0.19959722 0.14032115 -0.041305464 0.027828697 -0.053297322
0.1939341 0.08688462 -0.09277899 0.22582823 -0.011725512 -0.18651861 0.1277835 0.05169236
-0.10594475 0.17058553 -0.12707286 -0.1335698 -0.15931462 -0.03168207 -0.0071134563 0.0817784
-0.1343187 0.060523983 0.029604819 0.14953889 0.03142675 0.16890934 0.17185237 -0.06189509
0.01871688 -0.12057642 -0.07235681 -0.16576046 0.053195994 0.16200255 -0.16852741 -0.011060714
0.032205503 0.04162778 0.03226457 -0.015818682 0.046170287 0.06258827 0.11470775 0.065122254
-0.1784891 0.09439832 0.050875474 -0.021328501 0.06994563 -0.019316643 -0.05637793 -0.079906754
0.0039282963 -0.052692775 -0.07014459 0.069414034 -0.09412311 0.03224401 0.13777933 -0.012040855
0.12033503 -0.056348104 0.07727507 0.01788228 -0.071826786 0.10071108 -0.043417938 -0.026380494
0.023134448 0.11844324 0.14642902 -0.005950098 -0.017470978 0.16032779 -0.04624974 0.054485384

Encoder.rnn.bias_hh_l1 f4 [192]
00000000: ba10 07bd df29 b13c bb66 42bd a873 2b3d
00000010: 96db dcbd 7517 843a e68e ef3c afe0 4d3d
00000020: 8424 19be 418b feba a03e cb3d 5540 22bd
00000030: c1a5 5f3d a666 9a3d 9bfe 923d 1c38 84bc
00000040: 591a 0fbe 7e87 a4bd 9f53 ecbd 8c7a fabd
00000050: c169 123d 2fde 91bd 8a9e 1fbd f191 493c
00000060: 4333 a9bd df40 98bb 12b6 223e f4e6 e43c
00000070: e917 06be 1022 16be 32f6 96bd 72cf 733c
00000080: 81ea 2ebe 4fde a9bd 7c45 67bd ddaf babd
00000090: 1238 56bd e10d f3bd d60c c4bd 24a2 25bd
000000a0: 39ee 04be 6f76 3d3d 67b6 9abd 5249 873d
000000b0: 855e 28be 082e 9abd a523 4bbd 7956 d93a
000000c0: 7857 3fbd 92b1 843d 80ff cdbd ab06 34bd
000000d0: b519 293e 59c8 25bd 437b 87bc 1de2 dcbd
000000e0: c039 8e3d 3d25 a5bd 5edf 703d 0658 e6bd
000000f0: dd68 f7bd 699a 2fbe 3267 42bd 553e 20bd
00000100: fa87 db3d 72b7 0f3d 33d2 1b3e 66de 7dbd
00000110: 8169 b73d e02a 2b3e 3c59 0b3e d30f 9d3d
00000120: 4c3d 1e3e 2f21 98bd a2ff 79bd 816e 39bd
00000130: a867 3dbb b111 00bd 319d aabc a3e1 243e
00000140: b849 96bc 2381 023e f605 813c 3867 0d3e
00000150: d7e3 b73c faad 0bbe b667 95bc 5707 cabb
00000160: 0617 0bbe 2d38 75bc b275 553d 651d 603d
00000170: d2d8 883d bb9b c5bb d70f 7c3e 6502 65bd
00000180: d3fd e8bd 34a3 edbc ed7b 15be bd86 e03c
00000190: eba1 2dbe cac3 1bbe 2899 a13d 2820 d5bd
000001a0: 449f 11ba 3338 a9bd eaaa b83c 4a3d 0b3d
000001b0: 3556 83bd ba5c 293e 4103 d5bd 59e8 6a3e
000001c0: 6ac4 f6bd 9ec2 933d 267f 583d 54cf 083e
000001d0: 8830 433e afd5 14bd eb40 c83d f558 2a3e
000001e0: 32c9 763e 7849 443d 5a8e 8e3d 6849 b63d
000001f0: 2b7c b93c 935d 4dbe bf61 283e e999 8bbd
00000200: 9e8c 45bd 8d7b 363d 489c 0bbd e79b 733d
00000210: a74b 153d 3d68 41bd 1fb0 56bd 06d9 1c3e
00000220: d83b b63c f53f fa3d 1b3d 303e 8c70 393d
00000230: 3c42 0f3e afe4 2a3e 2d96 6a3c 3e99 1c3d
00000240: 2880 cabc 749e 0fbe d4ee c2bd 7250 5cbd
00000250: 17b5 9a3d cc3a fcbc dc62 05bd f06c 633d
00000260: 71e1 c1bb 9a9a b33d 9151 3c3d 4f27 1bbe
00000270: b907 493d 2918 703d c62a b73b ce6f 153d
00000280: 3abb 14bd 4078 c63c f62a 1abd 57fa f3bd
00000290: 6b55 51be 4f76 3abe ef35 12be f3f4 043e
000002a0: d276 da3d 7f66 103d 819c e23d 940c 883d
000002b0: 17e1 853c 806e 9bbc c413 d43c 4651 a73d
000002c0: a646 d3bc 67ca b8bd 3446 5f3d d6a0 9a3d
000002d0: 3c09 983c 614e c43d 4992 be3d fa47 9c3d
000002e0: 77d5 f83d 9c40 d0bd bbca 8cbc 2555 103c
000002f0: f6f7 b3bd 62e0 113e dabd aabd a2a3 d3bc
-0.032974936 0.021626411 -0.047461253 0.041858345 -0.1078407 0.0010077792 0.029242944 0.050263103
-0.14955336 -0.0019420163 0.09924054 -0.039612133 0.054601435 0.0753911 0.071774684 -0.016140036
-0.13974895 -0.080336556 -0.11539387 -0.12230405 0.035745386 -0.07122456 -0.038969554 0.012302862
-0.082617305 -0.004646405 0.15889767 0.027942158 -0.13095059 -0.14661431 -0.07371177 0.014881002
-0.17081644 -0.08294355 -0.05646275 -0.091155745 -0.052299567 -0.118678816 -0.09572761 -0.040437832
-0.129815 0.046255525 -0.07554322 0.066057816 -0.16442306 -0.07528311 -0.04959454 0.0016581557
-0.046714276 0.06479181 -0.100584984 -0.04395167 0.16513713 -0.04047427 -0.016538268 -0.10785315
0.06944609 -0.08063743 0.05880677 -0.11247258 -0.12080548 -0.17148747 -0.047461696 -0.039121944
0.10719295 0.035087056 0.15216903 -0.061979674 0.0895567 0.16715574 0.13608259 0.07669034
0.1545307 -0.07428204 -0.061034806 -0.0452714 -0.0028900895 -0.03126687 -0.020826908 0.16101699
-0.018345699 0.12744574 0.015749913 0.13808906 0.02244751 -0.13640586 -0.01823793 -0.0061654258
-0.13583001 -0.014967007 0.052114196 0.054715533 0.0668198 -0.0060305274 0.24615417 -0.055910487
-0.11376538 -0.029008485 -0.14598055 0.027407998 -0.16956298 -0.15211406 0.0789054 -0.10406524
-0.00055550435 -0.08262672 0.022542436 0.033993997 -0.06412927 0.16539279 -0.10401011 0.22940196
-0.12049182 0.07214855 0.052855633 0.1336034 0.19061482 -0.036336597 0.09778007 0.16635497
0.24100187 0.047921628 0.06960745 0.0890072 0.022642216 -0.20055227 0.16443537 -0.068164654
-0.048229806 0.04455142 -0.03408459 0.059474852 0.0364491 -0.04721855 -0.052414056 0.15317163
0.022245333 0.1221923 0.1721081 0.04527335 0.1399011 0.16688798 0.014318031 0.03823208
-0.024719313 -0.14025289 -0.09518209 -0.053787656 0.075540714 -0.030789755 -0.032564983 0.055523813
-0.0059167673 0.08769722 0.045976225 -0.15151714 0.04907963 0.05861679 0.005589816 0.03648358
-0.036311366 0.024227262 -0.037638627 -0.11912983 -0.2044274 -0.18209194 -0.14278387 0.12984066
0.106671944 0.035253998 0.11065007 0.06643024 0.016342683 -0.018973589 0.025888331 0.081697986
-0.025790524 -0.0902298 0.05451031 0.07550208 0.01855909 0.09585262 0.093052454 0.07630916
0.1215009 -0.10168573 -0.017186513 0.008809363 -0.08787529 0.14245752 -0.083369926 -0.025834862
