EXPERIMENT_3/model_OpenChem_CLASSIFIER_ENSEMBLE_9.pth (torch, 573437 bytes, 25 tensors)

Embedding.embedding.weight f4 [56, 64]
0	0xbf9f972b	-1.2468008
1	0xbf8a2340	-1.0792007
2	0xbe966787	-0.2937586
3	0xbf0687bb	-0.5255086
4	0x3f668042	0.90039456
5	0x3f1a654d	0.6031082
6	0xbe46beee	-0.19408771
7	0xc00250a5	-2.0361722
8	0x3e978381	0.29592517
9	0xbf940bd8	-1.1566114
10	0x3ebb11df	0.36537072
11	0x3e90f024	0.28308213
12	0x3cf8fa17	0.03039269
13	0x3f952f7c	1.1655116
14	0x3f8da826	1.106694
15	0xbe0dcd19	-0.1384777
16	0xbfabe4ab	-1.3429159
17	0xbfddcc75	-1.732802
18	0x3ef3ac94	0.47592604
19	0x3f4da9c1	0.8033715
20	0x3f1f9d61	0.62349516
21	0xbfb78b2e	-1.4339349
22	0xbe177092	-0.14789036
23	0x3ff11cb1	1.8836881
24	0x3f4f9a35	0.81094676
25	0xbf1b399f	-0.606348
26	0xbdb77616	-0.0895807
27	0x3e2c8648	0.16848099
28	0x3faf087c	1.3674464
29	0x3fc9d894	1.5769219
30	0x3f76a14b	0.96339864
31	0xbf3b0c4b	-0.7306563
32	0xbf21f233	-0.6326019
33	0xbd048ac3	-0.032358896
34	0xbf20e4ff	-0.6284942
35	0x3e849e48	0.2590201
36	0x3ef8002e	0.48437637
37	0x3e3e7426	0.18598995
38	0x3f2d6011	0.6772471
39	0x3ede6ec1	0.43443874
40	0xbd9c7a8b	-0.07640561
41	0x3f5d46fc	0.8643644
42	0xbe157519	-0.1459545
43	0x3e22efcb	0.15911786
44	0x3f0a27a5	0.5396674
45	0x4019c5d4	2.4026995
46	0xbfbcf8a5	-1.476338
47	0xbfcc5257	-1.5962628
48	0xbf28d426	-0.6594871
49	0x3f6bcf10	0.9211283
50	0x3f6095b9	0.8772846
51	0x3e55e024	0.20886284
52	0xbe879cfb	-0.26486954
53	0xbeafb705	-0.3431932
54	0x3ef79ada	0.4836033
55	0xbe59db2c	-0.21275014
56	0xbf17fd99	-0.59371334
57	0x3f358fdc	0.70922637
58	0x3fb80267	1.4375733
59	0x405c8b6d	3.4460099
60	0xbfcb9282	-1.5904086
61	0xbfa4070d	-1.2814652
62	0x3ff4c9b7	1.9124058
63	0xbf1968fc	-0.5992582
64	0xbf022da2	-0.5085088
65	0x3f67e6d5	0.90586597
66	0x3f94c767	1.1623353
67	0x3fa2f337	1.2730473
68	0xbfc03644	-1.501656
69	0x4024059a	2.562842
70	0xbefac87d	-0.48981085
71	0x3eafdd20	0.34348392
72	0xbfcdcd5f	-1.6078299
73	0xbf112d68	-0.5670991
74	0xbefd7e97	-0.49510643
75	0xbed218d7	-0.41034576
76	0xbf8bb490	-1.0914478
77	0x3f909a8e	1.1297166
78	0xbe2abc7a	-0.1667346
79	0x3f43cda2	0.76485646
80	0xbe169fd0	-0.14709401
81	0x3f2eeaf2	0.6832725
82	0xbf525314	-0.8215802
83	0x3d28f8d8	0.04125294
84	0x3f5666ad	0.8375042
85	0xbebc3f40	-0.36767006
86	0x3f825ddf	1.0184897
87	0x3ea66493	0.32498607
88	0xbe8ddf08	-0.27709222
89	0x40123cb6	2.2849555
90	0xbff5309e	-1.9155462
91	0xbd49a0c9	-0.049225602
92	0xbf7bfe76	-0.9843515
93	0xbf77cbe6	-0.967955
94	0x3d905bd3	0.07048764
95	0x3f18486b	0.594855
96	0x3fd8d94f	1.6941317
97	0xbfb27638	-1.3942327
98	0x3e9d8231	0.3076339
99	0x3ef70f5e	0.48253912
100	0xc0275f03	-2.615174
101	0xbfd9400f	-1.6972674
102	0xbe5809d6	-0.21097502
103	0x3e87faf6	0.26558656
104	0x3e6f2e9f	0.23357628
105	0x3df5d19c	0.120028704
106	0x3ea741b8	0.32667327
107	0x3ed2a9ea	0.4114526
108	0x3eed49a6	0.46345252
109	0xbf4f5cc4	-0.81000924
110	0x3f45f033	0.7731964
111	0xbf60b207	-0.8777165
112	0xbe76e3e2	-0.24110368
113	0xc019c490	-2.4026222
114	0x3b6b7d9c	0.0035933023
115	0xbcdb978c	-0.026805662
116	0x3f7d4743	0.9893686
117	0x3ed46d9e	0.4148988
118	0xbf679dbb	-0.9047505
119	0xbd9daa90	-0.07698548
120	0xbf184ce0	-0.594923
121	0xbee6f956	-0.45112103
122	0x3ff44eca	1.9086545
123	0xbeaecdef	-0.3414149
124	0x3e03c5a0	0.12868357
125	0x3f9a6f91	1.2065297
126	0x3f6b7275	0.9197152
127	0x3fb37abd	1.4021832
128	0xbf670daf	-0.90255255
129	0xbef83fe3	-0.48486242
130	0xbf5ade7a	-0.8549572
131	0x3ef8bc7e	0.48581308
132	0x3f2515f2	0.6448661
133	0x3f01c520	0.50691414
134	0x3ff50022	1.9140666
135	0xbf82fd33	-1.023352
136	0xbdc66050	-0.09686339
137	0x3ddb3fe0	0.107055426
138	0xbeff757a	-0.49894315
139	0xbf9c4e63	-1.2211422
140	0xbdac0766	-0.08399849
141	0xbf806073	-1.0029434
142	0xbe8f7646	-0.28019923
143	0x3e258776	0.16164955
144	0xbe80ec01	-0.25180057
145	0x3d8f9007	0.07009893
146	0x3e7f3cf4	0.24925596
147	0x3f8b3326	1.0874984
148	0x3e1bfe86	0.15233812
149	0x3ed03b09	0.4067004
150	0xbe0e8808	-0.1391908
151	0xbd2982e3	-0.04138459
152	0x3e79728d	0.24360104
153	0xbf2190af	-0.63111395
154	0xbff35b82	-1.9012301
155	0x3e32ab5b	0.1744818
156	0xbf40073e	-0.7501105
157	0x3e95bbb5	0.29244772
158	0x3e4fe1f9	0.20301045
159	0x3ebc7ce9	0.3681405
160	0x3f73baa3	0.9520666
161	0xbf7dcd54	-0.9914143
162	0x3ec7a929	0.38996246
163	0xbe33417d	-0.1750545
164	0x3f81ac40	1.0130692
165	0xbef62b63	-0.48079976
166	0x3f52e7a9	0.82384735
167	0x3f263448	0.64923525
168	0x3e918c92	0.2842756
169	0x3e8b79bc	0.27241313
170	0xbdbc4ebc	-0.09194705
171	0x3eb39d2b	0.35080847
172	0xbe65e983	-0.22452359
173	0xbf808403	-1.0040287
174	0x3e389f00	0.18029404
175	0xbfb7a7a9	-1.4348041
176	0xbe10413d	-0.14087386
177	0xbeb30425	-0.349641
178	0xbfcada64	-1.5847898
179	0xbed0013c	-0.40625942
180	0x3f824505	1.0177313
181	0x3e5b78c7	0.21432792
182	0x3fceb690	1.6149464
183	0x3f4a6a21	0.7906819
184	0xbf8cf0fe	-1.1011045
185	0xbf32e81e	-0.6988543
186	0x3fb72a4b	1.4309782
187	0x3e94fbca	0.2909835
188	0x3f23cd0d	0.6398476
189	0xbf756ad6	-0.95866144
190	0xbf9195fa	-1.1373894
191	0xbf9a40bd	-1.2051007
192	0xbf0f43eb	-0.5596301
193	0x3f08919c	0.5334718
194	0x3ed05371	0.4068866
195	0x3eca073f	0.39458653
196	0x3e2fa092	0.17151096
197	0x3f604478	0.87604475
198	0xbe92fd1f	-0.2870874
199	0x3f82c51a	1.0216401
200	0xbd985c5d	-0.07439492
201	0xbf8bcdfc	-1.0922236
202	0x3ec8b7b0	0.39202642
203	0x3f1832dd	0.5945261
204	0x3f298acb	0.66227406
205	0xbf9a681e	-1.2063024
206	0x3f1b812b	0.6074397
207	0xbf0c1278	-0.5471568
208	0x3f95e63e	1.1710889
209	0x3dc7ac0e	0.09749614
210	0x3f769fb7	0.96337456
211	0x3f571f6c	0.8403232
212	0xbfa077c2	-1.2536547
213	0x3f7ca14a	0.9868361
214	0xbefd436d	-0.49465504
215	0xbfa43ac1	-1.283043
216	0x3f74896b	0.95522183
217	0x3fa44c46	1.2835777
218	0xbf2a75e0	-0.6658611
219	0x3f10ac9a	0.5651337
220	0x3e934ddc	0.2877034
221	0xbd08b3ff	-0.033374783
222	0xbf87ebf6	-1.0618885
223	0xbdea5845	-0.11442617
224	0xbeafc9b6	-0.3433358
225	0x3fc91f35	1.5712649
226	0x3e4436b1	0.19161488
227	0x3ec287bd	0.37994185
228	0xbe143b30	-0.14475703
229	0x3f233aec	0.6376178
230	0xbe900546	-0.28129023
231	0xbfaa3959	-1.3298751
232	0xbe116b47	-0.1420108
233	0xbf08bdc7	-0.5341458
234	0xbf05fc2b	-0.523379
235	0x3f5c8b8b	0.86150426
236	0xbf631005	-0.8869632
237	0x3f56b9f0	0.8387747
238	0x3f939211	1.1528951
239	0xbfe16baa	-1.7610981
240	0xbfbd26ad	-1.4777428
241	0xbfe0b9d5	-1.7556711
242	0x3d9bfcf8	0.07616609
243	0xbf8a0fad	-1.0786034
244	0x3fb85d22	1.4403422
245	0xbde27f35	-0.11059419
246	0x3f13ad1d	0.57686025
247	0xbe2d3bf9	-0.16917409
248	0xbd831f79	-0.06402487
249	0x3f84eb21	1.0384256
250	0x3f682596	0.9068235
251	0xbef3768d	-0.47551385
252	0xbf5ee90d	-0.8707436
253	0x3e14377b	0.14474289
254	0x3ff390cd	1.9028565
255	0x3ec7e1f5	0.3903958

Encoder.rnn.weight_ih_l0 f4 [256, 64]
0	0xbd0dc021	-0.034607057
1	0xbde60f84	-0.11233428
2	0xbd995616	-0.07487123
3	0xbe22aedc	-0.15887016
4	0x3e35d400	0.17756653
5	0xbd922562	-0.071360365
6	0x3bb83aac	0.0056222286
7	0xbd6f1c13	-0.058376383
8	0x3d543bc3	0.051814806
9	0x3c5fb731	0.013654516
10	0x3abdcf17	0.0014481273
11	0xbd8c1e8a	-0.06841762
12	0xbdf0bfe9	-0.11755354
13	0x3d421c6f	0.047390398
14	0xbd8da4b6	-0.06916182
15	0xbe00e216	-0.12586245
16	0xbde0f56a	-0.10984309
17	0xbc9b7cae	-0.01898035
18	0x3cea9b53	0.028638517
19	0x3e1f4b45	0.15556057
20	0x3d97a458	0.07404393
21	0x3e1dd95d	0.15414949
22	0x3db8fe04	0.09032825
23	0x3dd13c09	0.10216529
24	0xbd2a273f	-0.041541334
25	0xbcfc9c5f	-0.030836282
26	0xbd549c9a	-0.05190716
27	0xbd900240	-0.07031679
28	0x3d8c1e1a	0.06841679
29	0xbd19406a	-0.037414946
30	0xbd84cddd	-0.06484578
31	0xbcb90e0e	-0.02258971
32	0xbdeb4ccb	-0.114892565
33	0x3e2b68ce	0.16739199
34	0x3d512897	0.0510641
35	0x3e0da0d5	0.13830884
36	0x3e29a3b9	0.16566361
37	0x3d2debdb	0.042461257
38	0x3d92e675	0.071728624
39	0xbdc03df8	-0.093868196
40	0x3e142c45	0.14470012
41	0xbe03aa1e	-0.12857863
42	0xbd0212d6	-0.031756245
43	0xbda4dca4	-0.08049896
44	0xbe2c86e9	-0.16848339
45	0x3c7ca71a	0.0154206995
46	0x3ce2a838	0.027668104
47	0xbd962cd8	-0.07332772
48	0x3de489d8	0.11159104
49	0x3b980719	0.004639518
50	0xbd840ad6	-0.06447379
51	0xbe1a6478	-0.15077388
52	0xbdd803e8	-0.1054762
53	0xbcafa562	-0.021441165
54	0xbd0c928b	-0.03431944
55	0xbdcae001	-0.099060066
56	0x3ba32f19	0.0049799797
57	0xbc35f959	-0.011106812
58	0xbcf2d936	-0.02964459
59	0x3e040aa4	0.12894684
60	0x3d43a8a1	0.04776824
61	0xbe177824	-0.14791924
62	0x3d85594e	0.06511174
63	0xbcea7d25	-0.028624127
64	0xbdf91c79	-0.12163634
65	0x3d190167	0.037354853
66	0xbd975170	-0.0738858
67	0xbe4fe250	-0.20301175
68	0x3e1e7de0	0.15477705
69	0x3ba58da3	0.005052285
70	0x3d9ba2f7	0.075994425
71	0xbe1d96dd	-0.15389581
72	0x3e45b927	0.19308911
73	0x3d26a83e	0.040687792
74	0x3d83066a	0.06397708
75	0x3d0592af	0.03261059
76	0xbd6a37b6	-0.057182036
77	0xbd5e58fb	-0.054284077
78	0xbe0d01f5	-0.13770278
79	0x3dd5c1aa	0.10437329
80	0xbde08b4d	-0.109640695
81	0x3e12c094	0.14331275
82	0xbc8b2b08	-0.016988292
83	0x3d94aac8	0.072591364
84	0xbdf475f5	-0.11936561
85	0x3c53dc72	0.012930976
86	0x3d1d44bc	0.03839563
87	0x3bdd51b8	0.0067541264
88	0x3d84e30e	0.0648862
89	0x3d0831b5	0.03325053
90	0xbc7c325a	-0.015392864
91	0xbdd7638e	-0.105170354
92	0xbcd36fd1	-0.025810154
93	0x3db6bf99	0.08923263
94	0x3db1b00e	0.08676158
95	0xbc6765f2	-0.014123427
96	0x3d29050f	0.04126459
97	0xbdb9384a	-0.090439394
98	0xbd8011e7	-0.062534146
99	0xbe0c5293	-0.13703375
100	0x3d822c89	0.06356151
101	0xbd0a4de3	-0.033765685
102	0x3d4842b3	0.048891734
103	0x3d0808c1	0.033211473
104	0x3dded442	0.10880329
105	0x3df1cb96	0.11806409
106	0xbe05197b	-0.12998001
107	0xbe25370c	-0.1613428
108	0xbca5ce31	-0.020239921
109	0xbc898620	-0.016787589
110	0xbe2afb8b	-0.16697519
111	0x3ddf8cf5	0.10915557
112	0x3dad9772	0.084761515
113	0xbccd312e	-0.025047865
114	0xbdb1c578	-0.08680242
115	0x3d23edf7	0.040021863
116	0xbd4f2e0b	-0.05058102
117	0xbcda95ab	-0.026682695
118	0xbd8515bd	-0.06498287
119	0xbdb8100f	-0.08987438
120	0x3cfe8843	0.031070834
121	0xbd4533fd	-0.048145283
122	0x3cd8a7d5	0.026447216
123	0x3d91736c	0.07102093
124	0xbdd1d432	-0.10245551
125	0x3dca6941	0.09883357
126	0xbdba0ae6	-0.0908411
127	0x3dd82323	0.10553577
128	0x3d3ce079	0.04611251
129	0xbe67a225	-0.22620447
130	0x3d27a49f	0.04092848
131	0x3db4d147	0.08828979
132	0xbcfcc21c	-0.030854277
133	0x3de7cdd5	0.11318556
134	0xbd80dbff	-0.06291961
135	0xbdcbc550	-0.09949744
136	0x3dd61929	0.10454018
137	0x3decc5f2	0.115611926
138	0x3dd06972	0.10176362
139	0x3cccf11d	0.025017316
140	0xbdaa180d	-0.083053686
141	0xbdd09b51	-0.10185874
142	0x3cdd8c79	0.027044522
143	0x3d8472c6	0.06467204
144	0xbacfb77b	-0.0015847528
145	0xbca7bef8	-0.020476803
146	0x3d443dd0	0.04791051
147	0xbd19e172	-0.037568517
148	0xbd5210e9	-0.051285658
149	0xbd3e71c6	-0.04649522
150	0xbc7c676e	-0.015405519
151	0x3c304adb	0.010760034
152	0x3d08f533	0.033436965
153	0x3d211945	0.03933074
154	0x3e0d3cd9	0.13792743
155	0xbd909f09	-0.070615835
156	0x3c7f570e	0.01558472
157	0xbbbec637	-0.005821969
158	0x3ba281cd	0.004959321
159	0x3d46b61d	0.04851352
160	0x3bb0041b	0.005371583
161	0xbda5686c	-0.080765575
162	0x3cf40fea	0.029792745
163	0xbe26e867	-0.16299592
164	0x3bf36299	0.0074275252
165	0xbd4391d7	-0.047746506
166	0x3e04b855	0.12960942
167	0x3c5a6faf	0.0133322915
168	0xbcb85c36	-0.022504907
169	0x3e674024	0.22583061
170	0xbcf7a72b	-0.03023108
171	0xbc41e8ee	-0.01183532
172	0x3e141751	0.1446202
173	0x3d7f1237	0.06227323
174	0xbcbaf366	-0.02282114
175	0x3b5f2b0b	0.0034052755
176	0xbdcbc921	-0.09950472
177	0x3ddd2653	0.107983254
178	0x3e08693f	0.13321398
179	0x3df236b2	0.118268386
180	0x3dbd5beb	0.092460476
181	0xbd53c9ae	-0.05170601
182	0xbd250604	-0.04028894
183	0xbd2b0acb	-0.04175834
184	0x3e203cf2	0.15648249
185	0xbe1e8832	-0.15481642
186	0xbe080478	-0.13282955
187	0xbd1f1b2b	-0.03884427
188	0xbdb3fa4e	-0.08787976
189	0xbd4498fc	-0.04799746
190	0x3dcb2a7d	0.09920213
191	0xbceb468b	-0.028720161
192	0xbda742df	-0.081670515
193	0xbc5333d2	-0.012890773
194	0x3d3344a7	0.043766644
195	0x3dac1dda	0.08404131
196	0xbe16ebd8	-0.14738405
197	0x3cd98f3a	0.026557554
198	0xbdae8902	-0.08522226
199	0x3e219fb2	0.15783575
200	0xbe19da68	-0.15024722
201	0xbd0e5b29	-0.034754906
202	0xbd513b3e	-0.05108189
203	0xbdd45c10	-0.10369122
204	0x3dd9cbe6	0.10634594
205	0x3d93d78b	0.07218846
206	0x3dcaf1f1	0.09909428
207	0xbd07d837	-0.033165183
208	0x3dc7cfc9	0.09756429
209	0xbcf18cbe	-0.029486056
210	0xbcca6c0a	-0.02470972
211	0x3c813a3e	0.015774842
212	0x3e055ed5	0.13024457
213	0x3d6f133e	0.05836796
214	0xbdf5af31	-0.11996306
215	0x3dcbcb99	0.099509425
216	0xbce9299e	-0.028462227
217	0x3c8932b8	0.016747817
218	0xbc01fbc4	-0.007933561
219	0xbe0d6c12	-0.13810757
220	0xbaffd415	-0.0019518161
221	0x3e1c707a	0.15277281
222	0xbdb67620	-0.08909249
223	0x3e0a0084	0.13476759
224	0x3d7ca5ce	0.06168156
225	0x3d53cfe2	0.051711924
226	0xbd1c5d39	-0.03817484
227	0xbbabf8c3	-0.0052481606
228	0xbbc6b8df	-0.006064519
229	0xbd9edeee	-0.07757364
230	0x3dd621a0	0.10455632
231	0x3d04aa02	0.032388695
232	0xbd5770ab	-0.052597683
233	0xbe125bfa	-0.14292899
234	0x3d8789c9	0.06618077
235	0xbd24f3db	-0.04027162
236	0x3dea9d71	0.11455811
237	0x3e4ae978	0.19815624
238	0xbd5f4452	-0.054508515
239	0x3df22942	0.118242756
240	0xbb0a3859	-0.0021090715
241	0xbd6e8cc3	-0.05823971
242	0xbe00eb5d	-0.12589784
243	0x3cace455	0.021104971
244	0xbde2ac94	-0.11068073
245	0x3d2bef50	0.041976273
246	0xbd1725ea	-0.036901392
247	0x3df3ce1f	0.11904549
248	0xbddcba0a	-0.10777672
249	0x3d9335af	0.07187974
250	0xbdb631cb	-0.08896216
251	0xbcb1a830	-0.021686643
252	0x3db53a9e	0.08849071
253	0x3c4b08f9	0.012392276
254	0xbcf52a1e	-0.02992731
255	0xbde4231e	-0.111395106

Encoder.rnn.weight_hh_l0 f4 [256, 64]
0	0xbdbf55cc	-0.09342536
1	0x3c8ad6e0	0.016948164
2	0x3e0543cb	0.13014142
3	0xbdbb90ef	-0.09158503
4	0x3db575f8	0.088603914
5	0x3c8548d3	0.016270077
6	0xbc93ffa1	-0.01806623
7	0x3e126611	0.14296748
8	0xbd053eb9	-0.03253052
9	0x3d17eea3	0.037092816
10	0x3d819b58	0.063284576
11	0xbd21dc05	-0.039516468
12	0x3e0511fe	0.12995145
13	0x3dd28fce	0.10281335
14	0x3e578c32	0.21049574
15	0xbd0bebdb	-0.034160476
16	0xbd2dd8cb	-0.042443078
17	0x3dec07a1	0.115248926
18	0xba7c63e3	-0.00096279214
19	0xbdf38ae5	-0.118917264
20	0xbdb44c63	-0.08803632
21	0x3d71deef	0.059050497
22	0x3dbbf644	0.09177831
23	0xbe404118	-0.18774831
24	0x3dfecd4c	0.12441501
25	0x3e24ba0c	0.16086596
26	0xbd96975c	-0.07353088
27	0xbd5294a3	-0.051411282
28	0xbe4d55f7	-0.20052324
29	0xbd025d62	-0.031827338
30	0xbcd9b8c6	-0.026577365
31	0x3e128c21	0.14311267
32	0xbc4f0f1e	-0.012637882
33	0xbd0a7760	-0.03380525
34	0xbdd68552	-0.104746476
35	0x3d952b7d	0.07283685
36	0x3e157fc0	0.14599514
37	0xbd9f2804	-0.07771304
38	0xbdb58136	-0.08862536
39	0x3ce3d587	0.027811779
40	0xbda4f0cb	-0.0805374
41	0xbde7e127	-0.11322241
42	0xbd3f0309	-0.046633754
43	0x3d465f42	0.04843069
44	0x3e757560	0.23970556
45	0x3e2fbe39	0.17162408
46	0x3c6e467b	0.014543171
47	0xba3e1a98	-0.00072518876
48	0xbe0f4653	-0.1399167
49	0xbd50ed8b	-0.05100779
50	0xbd8990bf	-0.06717061
51	0x3dd07f87	0.10180574
52	0x3db89d95	0.090144314
53	0xbdacec59	-0.08443517
54	0xba111f07	-0.00055359345
55	0x3d660f70	0.056167066
56	0xbc81fbe9	-0.01586719
57	0xbdc2dcee	-0.09514795
58	0xbcceb7ce	-0.02523413
59	0x3d96fa62	0.073719755
60	0x3e4df3e1	0.20112564
61	0x3cb7c84d	0.022434378
62	0xbb75f16f	-0.003752794
63	0xbd91e0d6	-0.07122962
64	0x3de5e0ad	0.11224494
65	0x3c60b76f	0.013715609
66	0x3d9558b5	0.0729231
67	0x3d72b580	0.059255123
68	0xbe09c96b	-0.13455741
69	0xbcf9f4d5	-0.030512253
70	0x3d56db17	0.052455034
71	0x3e11a7ca	0.14224163
72	0x3cece0c3	0.028915768
73	0x3ba2bcab	0.0049663386
74	0xbd8fb96a	-0.07017787
75	0x3c7cb080	0.01542294
76	0x3da41db2	0.080134764
77	0xbe2b5bf5	-0.16734298
78	0xbe3c2b6e	-0.18375942
79	0xba8f0ff4	-0.0010914789
80	0xbdefaf24	-0.11703327
81	0xbd60859d	-0.054814924
82	0xbd873255	-0.06601397
83	0x3c4c6a62	0.0124765355
84	0x3c531477	0.012883297
85	0xbdce19e7	-0.10063534
86	0xbd866941	-0.06563044
87	0x3d8d5025	0.06900052
88	0xbd470e11	-0.0485974
89	0x3e066094	0.13122779
90	0xbb8a57c5	-0.0042218887
91	0xbdd6d309	-0.104894705
92	0xbd291bfe	-0.04128646
93	0x3d7d3e71	0.061827127
94	0xbd3a4697	-0.045477476
95	0x3c7a6c4f	0.015284612
96	0x3e1f6069	0.15564121
97	0xbd2498cc	-0.04018478
98	0x3dae4a23	0.08510234
99	0x3e40e18d	0.18836041
100	0x3dde0f9b	0.1084282
101	0x3e12a200	0.1431961
102	0x3cc29b19	0.023755597
103	0xbc98821c	-0.018616728
104	0x3c956e9b	0.018241217
105	0xbdad4207	-0.08459859
106	0x3e565a23	0.20932822
107	0x3e5af79e	0.21383521
108	0x3d31e868	0.04343453
109	0xbd7e6fb8	-0.062118262
110	0xbd2bf081	-0.04197741
111	0x3d3774f1	0.04478926
112	0x3d6b7cb5	0.057491977
113	0xbd9e438a	-0.07727726
114	0xbceeb28a	-0.029137868
115	0xbdcc877c	-0.09986779
116	0x3e82a529	0.25516632
117	0xbd65b44b	-0.056080144
118	0xbc8fc9d6	-0.017552298
119	0x3de49aac	0.11162314
120	0x3e505189	0.20343603
121	0xbdb812d2	-0.08987965
122	0xbd4b223c	-0.049593195
123	0x3ddf03ea	0.108894184
124	0x3e513330	0.20429683
125	0xbb44476d	-0.00299498
126	0xbccdcb49	-0.025121348
127	0x3da249dd	0.079242446
128	0x3d852154	0.065004975
129	0x3e41b2c0	0.18915844
130	0xbe45fa05	-0.19333656
131	0xbd85a5d9	-0.065257736
132	0x3ca2253c	0.019793145
133	0xbdba7cf6	-0.09105866
134	0x3c3a1c4d	0.0113592865
135	0xbde1d773	-0.11027422
136	0x3da361f6	0.07977669
137	0xbdaf01ee	-0.0854529
138	0xbe9b8754	-0.30376685
139	0xbe0eab14	-0.13932449
140	0xbd17bf75	-0.037047822
141	0x3ca8bd88	0.020598188
142	0xbe44cef1	-0.19219567
143	0x3e2aa1ff	0.16663359
144	0x3d2c76e7	0.04210558
145	0x3e0c5cc3	0.13707261
146	0xbda04138	-0.078249395
147	0x3c7f35b7	0.015576771
148	0xbd18f0a1	-0.037338857
149	0xbda42570	-0.08014953
150	0xbe6ecf9d	-0.23321386
151	0xbe4efec9	-0.2021438
152	0x3e0c097d	0.13675494
153	0x3e1944f9	0.14967717
154	0x3df11457	0.11771458
155	0xbbec11ef	-0.0072042863
156	0xbdde2fba	-0.10848947
157	0x3e591a28	0.21201384
158	0xbd8f56cf	-0.06998979
159	0x3dbbfbb7	0.0917887
160	0x3ca479c5	0.020077595
161	0xbe3e6968	-0.18594897
162	0x3d254fc4	0.040359274
163	0x3daab70d	0.083356954
164	0x3d843742	0.06455852
165	0x3d9868a6	0.07441835
166	0x3e4a551f	0.19759034
167	0xbe611b05	-0.21982963
168	0x3ca0ced9	0.019629883
169	0xbdb72195	-0.08941952
170	0x3e16cad9	0.14725818
171	0x3e391631	0.18074872
172	0xbd73ec36	-0.05955144
173	0x3d886fcd	0.06661949
174	0x3d6a43ab	0.05719344
175	0x3bb358da	0.0054732384
176	0xbc58c5a5	-0.013230716
177	0xbbcc3d72	-0.006232911
178	0xbdc42542	-0.09577419
179	0xbd1f2b9e	-0.038859956
180	0xbc63b1ee	-0.013897402
181	0x3d9116f6	0.070844576
182	0xbd046eca	-0.03233222
183	0x3e607169	0.21918263
184	0xbde0afe4	-0.109710485
185	0xbe2b8974	-0.16751653
186	0xbcbcaec7	-0.02303256
187	0x3e797c20	0.24363756
188	0x3c37c77d	0.011216995
189	0xbd475bda	-0.04867158
190	0xbd6028d0	-0.05472642
191	0xbe17605c	-0.14782852
192	0xbbe66591	-0.0070311506
193	0xbd643131	-0.055710975
194	0x3e2018b7	0.15634428
195	0xbb4e7625	-0.0031503525
196	0x3df95719	0.12174816
197	0x3bebf611	0.0072009643
198	0x3d66111e	0.056168668
199	0xbc639d60	-0.013892502
200	0xbe73275d	-0.23745485
201	0x3e55e2a9	0.20887245
202	0x3e10a0df	0.14123867
203	0xbd48d703	-0.049033176
204	0xbc2a3793	-0.0103892265
205	0x3c2d5545	0.010579412
206	0xbda8c6d8	-0.082410514
207	0x3ca9a727	0.020709587
208	0xbd96faf6	-0.07372086
209	0xbd935f0f	-0.07195865
210	0x3e3c8628	0.18410552
211	0xbdb54830	-0.08851659
212	0xbd3882e3	-0.0450467
213	0x3c9f3f44	0.019439347
214	0xbe254221	-0.16138507
215	0xbc05f908	-0.008177049
216	0xbd88a9d9	-0.06673021
217	0x3dd0cebb	0.10195681
218	0xbd0b8e4a	-0.034071244
219	0x3e040e53	0.1289609
220	0xbdb63f21	-0.0889876
221	0xbd5e5f07	-0.054289844
222	0x3dd5a541	0.1043191
223	0x3e037261	0.12836601
224	0x3b2cda04	0.0026375065
225	0x3e04dda4	0.12975174
226	0xbd5e883b	-0.05432914
227	0x3db0ab2c	0.086263984
228	0x3dcdc934	0.10048142
229	0x3e2c13c8	0.16804421
230	0xbd6e203c	-0.05813621
231	0xbdac1c55	-0.084038414
232	0x3e45f801	0.19332887
233	0xbe308f06	-0.17242059
234	0x3d32f23f	0.043688055
235	0x3dfca49e	0.12336086
236	0x3cf2846a	0.029604156
237	0xbddc2c36	-0.1075062
238	0xbd9db73d	-0.077009656
239	0x3d3edeeb	0.04659931
240	0x3ca2bc5a	0.019865204
241	0x3c8d9a37	0.01728545
242	0xbcbc7452	-0.023004685
243	0xbc81a1bd	-0.015824193
244	0x3e69c0d2	0.22827461
245	0xbd083aff	-0.033259388
246	0xbd967553	-0.073465966
247	0x3dd3ee57	0.10348194
248	0xbdfabd8f	-0.12243187
249	0xbe18ac1a	-0.14909402
250	0xbcd0727f	-0.025445221
251	0xbd4bfb35	-0.049800117
252	0xbc595af9	-0.0132663185
253	0x3cd21e7f	0.025649307
254	0x3e4458fb	0.19174568
255	0x3ddd3b40	0.10802317

Encoder.rnn.bias_ih_l0 f4 [256]
0	0x3db6da53	0.08928361
1	0x3cb6dc2e	0.022321787
2	0xbd90be49	-0.07067544
3	0x3cbb5c2f	0.022871105
4	0x3df62d2e	0.12020336
5	0xbe0f77a2	-0.1401048
6	0x3c8442c6	0.016145121
7	0xba1f6d39	-0.0006081644
8	0xbde711c2	-0.11282684
9	0x3dc4090d	0.09572039
10	0x3e4ae0b1	0.19812275
11	0x3d94504a	0.072418764
12	0xbd4a7692	-0.049429484
13	0x3ca9d696	0.020732205
14	0xbde11d05	-0.10991863
15	0xbc86414c	-0.016388558
16	0x3d7f259d	0.06229173
17	0x3d7463f7	0.059665646
18	0x3e11a3e9	0.14222683
19	0x3e0df386	0.13862428
20	0xbd83a2fa	-0.0642757
21	0xbd04ae50	-0.0323928
22	0x3df04a47	0.11732917
23	0x3d15e9a8	0.036599785
24	0xbdc3b856	-0.09556644
25	0xbc951a7d	-0.018201107
26	0x3d8d16ff	0.06889152
27	0xbd0abf42	-0.033873804
28	0xbd695417	-0.05696496
29	0x3e342bfe	0.17594907
30	0x3cc1cfa2	0.023658577
31	0xbdffa2cb	-0.12482222
32	0x3da471d9	0.08029527
33	0x3b20a2ca	0.0024511092
34	0x3dc29998	0.09501952
35	0xbde0aa39	-0.109699674
36	0x3d6b6d0f	0.057477053
37	0xbe0a72b1	-0.13520314
38	0xbc9f3f15	-0.01943926
39	0x3c6f98ec	0.014623862
40	0xbd4dd76e	-0.050254278
41	0x3d5ed93c	0.05440639
42	0xbe0a6fed	-0.13519259
43	0xbdac61fa	-0.08417125
44	0x3df54695	0.11976353
45	0xbd642c12	-0.05570609
46	0x3d067f23	0.03283609
47	0xbdce2cfd	-0.100671746
48	0x3d9e0890	0.07716477
49	0x3b3377e7	0.00273847
50	0x3d8dc3f1	0.069221385
51	0x3cd72209	0.026261346
52	0x3e4e90aa	0.20172372
53	0x3db25f67	0.08709603
54	0x3d24ffc6	0.040282987
55	0x3de685c5	0.11255983
56	0xbe04713c	-0.1293382
57	0x3d1aa072	0.03775067
58	0xbda06984	-0.078326255
59	0xba8209e3	-0.0009921159
60	0x3947889f	0.00019029014
61	0x3def9209	0.11697776
62	0xbc2f13d9	-0.010685884
63	0x3d11d76e	0.03560584
64	0x3df78e29	0.12087662
65	0x3b3ba6fc	0.0028633466
66	0x3de94d5c	0.11391708
67	0x3d61bb55	0.055110294
68	0xbce1f2b8	-0.027581558
69	0x3dd5379c	0.10410997
70	0xbbd71ff9	-0.0065650907
71	0xbd4cbe59	-0.049986217
72	0x3e52fbd4	0.20603877
73	0x3e0f28c3	0.13980393
74	0xbcfe869e	-0.03107005
75	0x3e6ce594	0.23134452
76	0x3ced7659	0.028987097
77	0xbd51d13f	-0.051224943
78	0x3e238945	0.15970333
79	0xbda44cd0	-0.08022463
80	0xbc5f4272	-0.013626682
81	0x3d36324f	0.04448157
82	0x3e03bb7d	0.1286449
83	0xbb65237b	-0.0034963775
84	0x3e216f9f	0.15765236
85	0xbdddfed5	-0.10839621
86	0xbd3651c3	-0.044511568
87	0x3ca817bc	0.02051913
88	0x3d492734	0.049109653
89	0xbc688bb6	-0.014193466
90	0x3cd68ad1	0.02618924
91	0x3e442572	0.19154909
92	0x3df1b3e8	0.118018925
93	0xbcad11b1	-0.0211266
94	0xbd8966b8	-0.06709045
95	0x3e02d226	0.12775478
96	0x3e0b35bc	0.13594717
97	0xbb8349aa	-0.004006584
98	0x3aed8ab6	0.0018123004
99	0x3dae69cf	0.08516275
100	0x3d6e240a	0.05813984
101	0xbd814b68	-0.06313211
102	0xbe2d5f75	-0.16930945
103	0x3db44b81	0.08803464
104	0x3e381123	0.17975287
105	0x3d3516e0	0.04421127
106	0x3d1a1d01	0.037625317
107	0x3cc30c44	0.02380956
108	0xbbdc3440	-0.006720096
109	0xbd9f2caf	-0.077721946
110	0xbc3d20ac	-0.011543434
111	0xbd4d368b	-0.050100844
112	0x3e02e2e0	0.12781858
113	0x3e1e89e7	0.15482293
114	0x3cd873ec	0.026422463
115	0x3e07cd84	0.13261992
116	0x3d856a34	0.06514397
117	0x3d5f2546	0.054478906
118	0x3d53b865	0.051689524
119	0x3e4bdf2d	0.19909354
120	0x3e0e1283	0.13874249
121	0x3de7bce7	0.11315327
122	0xbd50a224	-0.05093588
123	0x3debb8e4	0.115098745
124	0xbd1ba918	-0.038003057
125	0x3cedae79	0.02901386
126	0x3dbf0bc3	0.09328415
127	0x3e17ec75	0.14836295
128	0x3bc97653	0.0061481385
129	0xbcde683a	-0.027149308
130	0x3c08848e	0.008332385
131	0xbde20d02	-0.11037637
132	0x3dc3046b	0.09522327
133	0xbb82330e	-0.0039733713
134	0xbd909891	-0.0706035
135	0x3dff8449	0.12476403
136	0xbdd86016	-0.10565202
137	0x3e1625e0	0.14662886
138	0xbc33760d	-0.0109534385
139	0x3dc7ceb2	0.09756221
140	0xbc7852d7	-0.015156469
141	0xbcf5ad3f	-0.029989837
142	0xbdd55a97	-0.10417669
143	0x3d1e9c4f	0.038723286
144	0xbc2306ec	-0.009950381
145	0x3ddf921c	0.1091654
146	0xbd9c634f	-0.07636129
147	0xbd5474eb	-0.051869314
148	0x3d39c863	0.04535712
149	0x3d469137	0.04847833
150	0xbd14406d	-0.036194254
151	0x3deb0047	0.11474662
152	0x3d9fb934	0.077989966
153	0xbdba3fe3	-0.09094217
154	0xbdd4dd88	-0.10393816
155	0xbdcf65d5	-0.10126845
156	0x3da1215f	0.07867693
157	0x3d8f6ef9	0.07003588
158	0x3decd4d2	0.1156403
159	0xbde66841	-0.112503536
160	0x3cdfe47d	0.027330631
161	0xbe06f0f8	-0.1317786
162	0x3e00a974	0.12564641
163	0x3de07601	0.109600075
164	0xbd8f2094	-0.06988636
165	0x3c9a5ba2	0.018842522
166	0x3a56c44a	0.00081927015
167	0x3d8a2460	0.06745219
168	0xbd34528c	-0.044024035
169	0xbdab3f77	-0.08361714
170	0xbd2fa50b	-0.042882007
171	0x3d0cb850	0.03435546
172	0xbcfd7f41	-0.030944468
173	0x3de31d2d	0.11089549
174	0x3cb7eee3	0.022452777
175	0xbd9855d9	-0.07438249
176	0x3d9b7ee1	0.075925596
177	0xbdb7e43f	-0.08979081
178	0x3db7c5df	0.08973288
179	0xbd25c893	-0.040474486
180	0x3e053b52	0.1301091
181	0xbdb2c2a6	-0.087285325
182	0xbc241b8b	-0.010016332
183	0x3df1f50a	0.118143156
184	0x3e1444b1	0.14479329
185	0xbd702344	-0.058627382
186	0x3d9e0b2f	0.07716977
187	0xbdcf2ce8	-0.10115987
188	0x3cb7b2df	0.02242416
189	0x3dd42d86	0.103602454
190	0x3deef029	0.11666901
191	0x3e116bde	0.14201304
192	0xbd380099	-0.044922445
193	0x3cc8a375	0.024492005
194	0xbd06e383	-0.032931816
195	0xbd875b23	-0.0660918
196	0x3dea2f51	0.11434806
197	0x3df2a178	0.11847204
198	0x3db771b7	0.08957236
199	0x3d8b6617	0.068065815
200	0x3d6c679d	0.057716
201	0xbd6bb041	-0.057541136
202	0xbd09d1ce	-0.03364735
203	0x3e0bf060	0.13665915
204	0x3d02f65d	0.03197323
205	0xbd3c0496	-0.04590281
206	0xbc75945d	-0.014988986
207	0xbcaf9922	-0.021435324
208	0xbc87abb6	-0.01656137
209	0xbb4a4a16	-0.0030866913
210	0x3e1a659f	0.15077828
211	0xbdaea03c	-0.08526656
212	0x3dd0a9b6	0.1018862
213	0xbce23de4	-0.027617402
214	0xbda81762	-0.08207585
215	0x3e31af5e	0.17352054
216	0x3d991c69	0.07476122
217	0xbd5fb1e9	-0.054613028
218	0x3d499ac7	0.049219873
219	0xbd5816ee	-0.052756242
220	0x3dafba60	0.0858047
221	0x3dde4591	0.108531125
222	0xbcdf685c	-0.027271442
223	0x3da326b9	0.0796637
224	0x3db1eab5	0.08687345
225	0x3d5bf310	0.0536986
226	0xbd25c7e7	-0.040473845
227	0x3dcb1dc1	0.099177845
228	0xbdc2eac4	-0.09517434
229	0xbda898d3	-0.08232274
230	0xbd035c50	-0.032070458
231	0xbcd5a716	-0.02608065
232	0x3e0a58c7	0.13510428
233	0xbda3f0dd	-0.080049254
234	0xbd258693	-0.040411543
235	0xbd102c17	-0.035198297
236	0x3d97287c	0.07380769
237	0x3d733262	0.05937422
238	0xbdf2aaf2	-0.118490115
239	0xbab19ba1	-0.0013550409
240	0xbd525cfb	-0.051358204
241	0xbdf69151	-0.12039436
242	0xbc72f9f1	-0.0148300985
243	0x3c418c89	0.011813291
244	0x3d222ef6	0.039595567
245	0x3e056753	0.13027696
246	0xbcd53eac	-0.02603086
247	0x3c44da56	0.012014946
248	0xbd96ae71	-0.07357491
249	0x3da1acdf	0.07894301
250	0xbdb6a3cf	-0.08917963
251	0xbd3651f2	-0.044511743
252	0x3ddb1f9c	0.106993884
253	0x3c89e8a9	0.016834574
254	0x3db0d8ef	0.08635127
255	0x3cf23217	0.0295649

Encoder.rnn.bias_hh_l0 f4 [256]
0	0xbd51dd9c	-0.051236734
1	0x3e0fa92b	0.14029376
2	0xbbecf8d2	-0.00723181
3	0x3df827c5	0.121169604
4	0xbdc50fec	-0.096221775
5	0x3d8f7eee	0.07006632
6	0x3df74294	0.12073246
7	0x3e1955fa	0.14974204
8	0x3c291b9d	0.010321525
9	0x3ded2442	0.11579181
10	0x3dd8b7dd	0.10581944
11	0x3dc9d7d3	0.09855618
12	0xbdce4561	-0.10071827
13	0x3e10e7ca	0.1415092
14	0xbdfc150c	-0.12308702
15	0xbb613061	-0.0034361111
16	0xbd9d8718	-0.07691783
17	0x3d200237	0.039064612
18	0xbca794a7	-0.020456625
19	0xbd631037	-0.055435386
20	0xbdebb1da	-0.11508532
21	0xbdb4ead5	-0.08833853
22	0xbdcc04ee	-0.09961878
23	0xbda0d01c	-0.07852194
24	0xbc3e8503	-0.011628392
25	0x3d8fd19f	0.07022404
26	0x3d44b44b	0.048023503
27	0x3ce7b664	0.028285213
28	0xbdc2bfd8	-0.095092475
29	0xbd8916de	-0.06693815
30	0xbd652e13	-0.055952143
31	0xbe1d2f79	-0.1535014
32	0x3d2153b2	0.03938646
33	0xbd719acf	-0.058985528
34	0xbd33f0c7	-0.043930795
35	0xbd49f35c	-0.04930435
36	0xbdb00fb9	-0.08596749
37	0x3d812c6e	0.063073024
38	0x3dd42ad3	0.103597306
39	0x3d5ca201	0.053865436
40	0xbc523aa6	-0.012831366
41	0xbdc6de69	-0.0971039
42	0xbb94290c	-0.0045214947
43	0xbc8564fc	-0.016283505
44	0xbc85b104	-0.01631976
45	0x3cbd4ce7	0.023107959
46	0xbe0135a6	-0.12618122
47	0x3df3d86c	0.119065136
48	0x3e0ffc10	0.14060998
49	0x3dd29f54	0.10284296
50	0xbce6660d	-0.028124833
51	0x3e5a9d0b	0.2134897
52	0x3e46fc85	0.19432266
53	0x3da42fa1	0.08016897
54	0xbc41947f	-0.011815189
55	0x3e08f48d	0.13374539
56	0xbdcb5d7b	-0.09929939
57	0xbd87730b	-0.066137396
58	0x3dc91b1c	0.09819624
59	0xbc8c2c24	-0.017110892
60	0xbccd4298	-0.025056168
61	0xbaccf0ed	-0.0015635766
62	0x3ddad670	0.10685432
63	0xbdb79756	-0.08964412
64	0x3dab8d67	0.0837658
65	0x3d0934f6	0.033497773
66	0x3e21626e	0.15760204
67	0x3b20236e	0.002443518
68	0x3d99ab26	0.07503347
69	0x3de09456	0.10965793
70	0xbcbf26a9	-0.023333864
71	0x3d48cc80	0.04902315
72	0x3e13305b	0.14373915
73	0x3e1adb53	0.15122728
74	0x3db0b918	0.08629054
75	0x3e3e87d3	0.186065
76	0xbd737932	-0.059441753
77	0x3b5df127	0.0033865662
78	0x3dd31807	0.10307317
79	0x3d7c7e2c	0.061643764
80	0x3bd6bac7	0.0065530273
81	0xbd585de1	-0.052823905
82	0x3e0f7f87	0.14013492
83	0xbdc001a5	-0.09375314
84	0x3dee022f	0.1162151
85	0x3d5224f6	0.05130478
86	0x3bfdf687	0.0077503356
87	0x3deb33d6	0.11484496
88	0x3d976301	0.0739193
89	0xbd17dc11	-0.037075106
90	0xbd91bd62	-0.071162
91	0x3d49986d	0.04921763
92	0x3d68f234	0.056871608
93	0xbcfba1c1	-0.030716779
94	0xbe30f798	-0.1728195
95	0x3e076a04	0.13224036
96	0x3da0b3cf	0.07846796
97	0x3c3b4bbc	0.011431631
98	0xbbc14f7b	-0.0058993674
99	0x3dbbd824	0.09172085
100	0x3e5bc952	0.21463516
101	0x3e0e6d4f	0.13908885
102	0xbd0af8d0	-0.033928692
103	0xbd2c5512	-0.042073317
104	0xbd26f0d7	-0.040757027
105	0xbd9ad917	-0.07560938
106	0x3ce6c36b	0.028169354
107	0xbd706123	-0.058686387
108	0x3d84a77f	0.0647726
109	0xbd966bdd	-0.07344792
110	0xbd94d9f9	-0.072681375
111	0xbdb68ac5	-0.08913187
112	0xbd9ef423	-0.07761409
113	0x3e223356	0.15839896
114	0x3bdaf794	0.0066823456
115	0xbb35fcd8	-0.0027769115
116	0x3bb1a4db	0.0054212636
117	0xbd257088	-0.04039052
118	0x3cfa5456	0.030557793
119	0x3e53d051	0.20684935
120	0x3e4b51a7	0.19855367
121	0xbddf51a5	-0.10904244
122	0x3d34dfcd	0.044158746
123	0x3c2b4081	0.010452391
124	0xbd676f18	-0.05650243
125	0x3e0b7078	0.13617122
126	0x3b3ea104	0.0029087672
127	0x3e8e8d35	0.27842107
128	0x3d1df375	0.038562257
129	0xbde35d6d	-0.11101804
130	0x3d3bf255	0.045885403
131	0xbdfd65e9	-0.123729534
132	0x3d8b8532	0.06812514
133	0xbd92b17a	-0.07162757
134	0x3d2bed3b	0.041974287
135	0xbdaadf03	-0.08343317
136	0x3d7baa4e	0.061441712
137	0xbdadabe8	-0.08480054
138	0x3d4a9b99	0.049464796
139	0xbbd4ef0c	-0.006498223
140	0xbd4b4407	-0.049625423
141	0x3d3e07cb	0.04639415
142	0x3db6a949	0.08919007
143	0x3d8cb6ed	0.06870828
144	0x3bcadc32	0.0061908
145	0xbd15d1ec	-0.03657715
146	0x3d9da215	0.0769693
147	0xbdda2bc1	-0.10652877
148	0xbcdd88cc	-0.027042769
149	0xbcaca270	-0.02107355
150	0x3d5b34d9	0.053517196
151	0x3bfc79a5	0.007704931
152	0xbce1bcd2	-0.027555857
153	0x3c97850b	0.018496057
154	0x3dbab996	0.09117429
155	0xbdc32433	-0.09528389
156	0xbd78c644	-0.060735956
157	0x3c4514a8	0.012028851
158	0x3bea1c65	0.007144498
159	0xbdd84c8f	-0.105614774
160	0x3c807558	0.015680954
161	0x3d4aafa4	0.04948391
162	0xbd3953e7	-0.04524603
163	0x3dc418d3	0.09575047
164	0xbdce1434	-0.10062447
165	0x3d3cc1e9	0.046083365
166	0x3ba14aa9	0.0049222303
167	0xbd0c3d82	-0.034238346
168	0x3d48e30c	0.049044654
169	0xbdd86cfb	-0.105676614
170	0xbde3ffe1	-0.111327894
171	0x3d0dc5ac	0.034612343
172	0xbd059858	-0.03261599
173	0x3dccebd7	0.100059204
174	0xbdc40654	-0.095715195
175	0x3d692654	0.05692132
176	0x3cb68495	0.022280017
177	0x3db156b5	0.08659116
178	0xbd929c25	-0.071586885
179	0xbe06f158	-0.13178003
180	0x3dc25187	0.09488206
181	0xbdd04205	-0.10168842
182	0xbc397a5c	-0.011320677
183	0xbd4ec063	-0.050476443
184	0xbd9ecc81	-0.0775385
185	0x3da18353	0.07886376
186	0xbe0e91d9	-0.13922824
187	0x3d7f0640	0.06226182
188	0x3c9d4b9c	0.019201092
189	0x3daeaee9	0.08529455
190	0xbd968033	-0.07348671
191	0xbd3bd6bb	-0.04585908
192	0xbdb1b84e	-0.086777315
193	0xbc81ad95	-0.01582984
194	0xbd4c1ef6	-0.049834214
195	0x3dd3790a	0.10325821
196	0x3e0761c6	0.13220891
197	0x3dbae557	0.09125774
198	0x3d904837	0.07045024
199	0x3d8c0220	0.06836343
200	0x3db4f621	0.08836008
201	0xbc4e36d7	-0.012586317
202	0x3e27adfe	0.16374967
203	0x3db51cd9	0.08843393
204	0x3e103c84	0.14085585
205	0x3d94e38f	0.07269966
206	0x3dfb6796	0.12275617
207	0x3ddedfeb	0.10882553
208	0xbb3bf1f3	-0.0028678149
209	0xbd578cda	-0.05262456
210	0x3cf079a2	0.029354874
211	0xbc80603e	-0.015670892
212	0x3c631f34	0.01386242
213	0x3dd9dff1	0.106384166
214	0x3dd86b99	0.105673976
215	0x3cc47b7a	0.02398466
216	0x3cec55d6	0.028849524
217	0x3dca4124	0.09875706
218	0x3d918169	0.07104761
219	0x3d37ad38	0.04484293
220	0xbdec63cf	-0.115424745
221	0xbd741703	-0.05959226
222	0x3b87f1fc	0.00414872
223	0xbdbc930b	-0.09207734
224	0xbdb0c7bd	-0.08631847
225	0xbda54b0a	-0.08070953
226	0x3d404efa	0.046950318
227	0xbd8b25d9	-0.06794328
228	0x3ce50f6d	0.027961457
229	0xbdce6549	-0.10077912
230	0x3dfee9f7	0.12446969
231	0xbda613c4	-0.08109239
232	0x3dda8bd8	0.10671204
233	0x3d7e5cdb	0.062100273
234	0x3db3974a	0.087690905
235	0xbd872f3c	-0.06600806
236	0x3e123c89	0.14280905
237	0x3e259f33	0.16174011
238	0xbd56321d	-0.052293885
239	0x3e176860	0.1478591
240	0x3cc123c7	0.02357663
241	0xbd31d54f	-0.043416318
242	0x3c89e014	0.016830482
243	0x3da538d6	0.08067481
244	0x3e7892e5	0.24274786
245	0xbd12b3c5	-0.035815973
246	0x3ddc5400	0.10758209
247	0x3e2779ff	0.16355132
248	0x3d1db1a7	0.0384995
249	0x3c8703e6	0.016481351
250	0x3dbe4c01	0.0929184
251	0xbe124b9a	-0.14286652
252	0x3d243747	0.04009178
253	0xbd403793	-0.046928
254	0x3e444705	0.19167717
255	0xba00d3ed	-0.0004914392

Encoder.rnn.weight_ih_l1 f4 [256, 64]
0	0xbe0e3766	-0.1388832
1	0xbd2b6a45	-0.041849393
2	0x3d2afc33	0.041744422
3	0x3dcfcc1a	0.10146351
4	0xbc4d78c5	-0.012541001
5	0xbd158431	-0.03650302
6	0x3b89b270	0.0042021796
7	0x3cd07a09	0.025448816
8	0xbdeb664a	-0.114941195
9	0xbe161acb	-0.14658658
10	0x3d4d9607	0.050191905
11	0x3d8395fc	0.064250916
12	0xbcd682a1	-0.026185336
13	0xbd402b33	-0.046916198
14	0x3d190290	0.03735596
15	0xbdc792f9	-0.0974483
16	0x3cfdb212	0.0309687
17	0xbc4e9fd0	-0.012611344
18	0x3d82a048	0.063782275
19	0x3de88356	0.11353175
20	0xbcf72e75	-0.03017352
21	0x3d9f6e86	0.077847525
22	0x3d492b90	0.04911381
23	0xbdb57ac8	-0.08861309
24	0x3dec8a18	0.11549777
25	0xbc9293b3	-0.017892694
26	0xbcbe3dc3	-0.02322281
27	0x3e0b2ca1	0.13591243
28	0xbd5c2039	-0.053741667
29	0xbe43b01a	-0.19110146
30	0xbd4727a5	-0.048621792
31	0x3dc9ff1a	0.0986311
32	0xbd685fbc	-0.056731924
33	0xbcb54dfb	-0.02213191
34	0xbdd1c3cd	-0.10242424
35	0xbdfc8ef1	-0.123319514
36	0xbd37d62a	-0.044881977
37	0xbdf00d73	-0.11721315
38	0xbd82448c	-0.063607305
39	0x3be69f2e	0.0070380187
40	0x3de5aefd	0.11215017
41	0x3d882840	0.06648302
42	0xbe0e1eb7	-0.13878904
43	0x3c435168	0.011921264
44	0xbd8ff97d	-0.07030008
45	0xbd977d55	-0.07396952
46	0x3bd30b55	0.00644056
47	0xbe01ffc7	-0.12695228
48	0x3d8078b2	0.06273021
49	0xbd9bfabc	-0.07616183
50	0xbdc08afd	-0.0940151
51	0x3d9f8134	0.077883154
52	0xbdceb2ed	-0.10092721
53	0xbddee5c3	-0.10883667
54	0xbdff8ed1	-0.12478412
55	0xbdfc9326	-0.12332754
56	0xbc99ed04	-0.018789776
57	0x3e4f99f8	0.20273578
58	0xbdc69295	-0.09695927
59	0xbd135491	-0.03596932
60	0xbc6d2def	-0.014476283
61	0xbe12c483	-0.14332776
62	0x3dd1cebb	0.10244509
63	0xbd503ee9	-0.050841246
64	0x3de061d7	0.109561615
65	0x3da61baa	0.08110745
66	0x3d55342e	0.052051716
67	0xbcd88941	-0.026432635
68	0xbdb5c411	-0.08875287
69	0x3c0aa8e3	0.008463117
70	0x3df83dfb	0.12121197
71	0xbe1b6847	-0.15176497
72	0x3e155950	0.14584851
73	0xbd61e31b	-0.055148225
74	0x3ca45dd7	0.020064278
75	0x3d353b21	0.044245843
76	0x3d291564	0.041280165
77	0x3d8d64ca	0.069039896
78	0x3dfd1bfb	0.123588525
79	0x3e38585d	0.18002458
80	0x3dae7c34	0.085197836
81	0xbc958f94	-0.01825694
82	0xbd9e9e97	-0.07745092
83	0x3d02cbf4	0.031932786
84	0xbe36d90a	-0.17856231
85	0xbd54f291	-0.05198914
86	0x3dc7d3b6	0.097571775
87	0x3d591b43	0.053004514
88	0x3dae3db9	0.085078664
89	0x3dc29fdd	0.09503148
90	0xbd8a5518	-0.067545116
91	0x3dd9b0d7	0.10629433
92	0xbccc60fc	-0.02494859
93	0xbd4ed700	-0.05049801
94	0xbcd41d97	-0.025893016
95	0x3d0e63db	0.0347632
96	0x3cb19f7e	0.021682497
97	0xbd64039a	-0.055667497
98	0xbdda755b	-0.10666915
99	0xbdaf5c2b	-0.085625015
100	0x3dc6f927	0.09715491
101	0x3d2d61c4	0.042329565
102	0x3d814660	0.06312251
103	0x3dc23695	0.09483067
104	0x3e10ef22	0.14153722
105	0xbdc7ec66	-0.09761886
106	0x3de5bde7	0.112178616
107	0xbd268b21	-0.040660027
108	0x3d1621fa	0.036653496
109	0x3e17ac3a	0.14811793
110	0xbcc7f064	-0.02440662
111	0xbce6c8b8	-0.028171882
112	0x3d39d750	0.045371354
113	0xbd816c92	-0.06319536
114	0xbdc3962f	-0.095501296
115	0xbe343b08	-0.17600644
116	0x3da0d56f	0.07853209
117	0x3ca7dcc3	0.02049101
118	0x3d951e87	0.07281213
119	0xbd684e95	-0.056715567
120	0xbda2fcc9	-0.07958371
121	0x3dd9b685	0.10630516
122	0xbe030297	-0.12793957
123	0xbd512c44	-0.051067606
124	0x3d144717	0.03620061
125	0x3d343e7f	0.044004913
126	0xbcc94705	-0.024569998
127	0xbc7e071b	-0.015504624
128	0x3e03b0ea	0.12860456
129	0xbe21823a	-0.15772334
130	0xbdc2061a	-0.0947382
131	0x3d87c488	0.06629282
132	0x3d6034e7	0.05473795
133	0xba1ac75b	-0.000590434
134	0x3c0af5b0	0.008481428
135	0x3e36b44c	0.17842215
136	0x3cf3bc98	0.029753014
137	0xbe1b395c	-0.151586
138	0x3c35ea06	0.011103159
139	0x3cbe8e88	0.023261324
140	0xbd0d145c	-0.034443244
141	0xbd01cb2a	-0.031687893
142	0xbd213450	-0.03935653
143	0x3da77db7	0.08178275
144	0xbd64858f	-0.055791434
145	0xbd66cb89	-0.05634645
146	0x3d53fb44	0.051753297
147	0x3e0f7fc5	0.14013584
148	0xbd56fa5b	-0.05248485
149	0xbc8b6f7d	-0.017020935
150	0xbdca8021	-0.0988772
151	0x3ca740ff	0.020416735
152	0x3dce2872	0.10066308
153	0xbc9cb166	-0.019127559
154	0x3c888d1f	0.016668854
155	0x3da75e8b	0.081723295
156	0x3d912c61	0.07088543
157	0x3d94033b	0.07227179
158	0xbd2fb57c	-0.042897686
159	0xbe372223	-0.17884116
160	0x3d881f41	0.06646586
161	0x3e1e4fd2	0.15460137
162	0xbdf400ec	-0.11914238
163	0xbd07aad1	-0.033121888
164	0xbdb68c8d	-0.08913527
165	0xbc8f7a66	-0.017514419
166	0x3c7f7930	0.015592858
167	0xbdddf029	-0.108368225
168	0xbca5091b	-0.020145943
169	0x3e335be8	0.17515528
170	0x3c3f63d1	0.011681513
171	0xbe06ee54	-0.13176852
172	0xbe43450d	-0.1906931
173	0x3daf8e70	0.0857209
174	0x3d83015a	0.06396742
175	0xbc81c327	-0.015840126
176	0xbd353097	-0.044235792
177	0xbb625aa2	-0.0034538885
178	0x3debc565	0.115122594
179	0xbc26d5d8	-0.01018282
180	0xbcc0376d	-0.02346393
181	0xbd18ba27	-0.037286904
182	0x3e0baed7	0.13640915
183	0x3da4fb01	0.08055688
184	0x3cbbfdde	0.022948202
185	0x3cdf135e	0.027230915
186	0xbd77dcbf	-0.060513254
187	0x3e44f0af	0.19232439
188	0x3ccc477c	0.02493643
189	0xbe34d0a0	-0.17657709
190	0xbd878903	-0.0661793
191	0x3d30e3c7	0.043185975
192	0x3cb51406	0.022104274
193	0xbcb3aa4b	-0.021931788
194	0xbd6cb41c	-0.057788953
195	0x3d0dc4f3	0.034611654
196	0xbe6f8a74	-0.2339266
197	0x3db51369	0.08841593
198	0xbe8180d6	-0.25293607
199	0xbd754186	-0.05987694
200	0xbd3f003c	-0.046631083
201	0xbdba4c34	-0.09096566
202	0xbd54ab4c	-0.051921174
203	0x3d950830	0.07276952
204	0x3dc9c696	0.098523304
205	0x3e5df4ad	0.21675368
206	0x3cd38bb5	0.025823453
207	0x3d3cbd27	0.046078827
208	0xbc6c181b	-0.014410044
209	0x3afba3f2	0.001919864
210	0x3cb8e1dc	0.022568636
211	0x3d5695a8	0.052388817
212	0x3de37e38	0.11108059
213	0x3b42bab7	0.0029713342
214	0x3c8e838c	0.01739671
215	0x3de37e0c	0.11108026
216	0x3c4a5ff2	0.012351977
217	0x3d07da3d	0.033167113
218	0xbd0722fe	-0.032992356
219	0xbd709950	-0.05873996
220	0x3c1d04d0	0.009583667
221	0x3dff96f3	0.12479963
222	0xbe839f42	-0.25707442
223	0xbe0bc56f	-0.13649534
224	0xbdb7904a	-0.08963068
225	0x3c82565f	0.015910326
226	0xbd056975	-0.032571275
227	0xbe1cad2e	-0.15300438
228	0xbdc6699c	-0.09688112
229	0x3d3cc2fc	0.04608439
230	0x3de0e763	0.109816335
231	0xbc565c24	-0.0130834915
232	0x3dfed19a	0.12442322
233	0x3d6fb766	0.05852451
234	0xbd35f82a	-0.04442612
235	0xbe6054de	-0.21907374
236	0x3dcce8b5	0.10005323
237	0x3b83e4bd	0.0040250705
238	0x3daa9649	0.08329446
239	0xbd167656	-0.036733948
240	0xbca95385	-0.020669708
241	0x3cda60d3	0.026657498
242	0xbd033273	-0.032030534
243	0xbd6afa30	-0.057367504
244	0xbdc938e1	-0.09825302
245	0x3e243585	0.16036041
246	0xbd808131	-0.06274641
247	0x3d7ca624	0.06168188
248	0xbcc2daf9	-0.023786055
249	0x3d7e25e0	0.06204784
250	0x3d8fa2b6	0.070134565
251	0xbc39f032	-0.011348771
252	0xbcdad004	-0.026710518
253	0xbe4bfd0a	-0.19920745
254	0xbe2d530b	-0.1692621
255	0xbe5e7ee9	-0.217281

Encoder.rnn.weight_hh_l1 f4 [256, 64]
0	0xbdc3067e	-0.09522723
1	0x3e20ce5f	0.15703724
2	0xbd706008	-0.058685333
3	0xbda642ce	-0.08118211
4	0xbe0244e6	-0.12721595
5	0xbdc0bf2e	-0.09411465
6	0xbe11322a	-0.14179292
7	0x3d533576	0.051564656
8	0xbdf21123	-0.11819675
9	0x3da4d570	0.080485225
10	0x3cd41ed1	0.0258936
11	0x3de576ec	0.11204323
12	0xbde3905e	-0.1111152
13	0x3de06ecf	0.10958635
14	0x3e366d4a	0.17815128
15	0x3ac97dbd	0.0015372556
16	0x3db15229	0.08658249
17	0xbc82dcee	-0.015974488
18	0xbd605140	-0.054764986
19	0xbd4beca5	-0.04978623
20	0x3d57dab5	0.05269881
21	0x3dd68374	0.104742914
22	0xbdb4c026	-0.08825712
23	0x3c7b7771	0.015348301
24	0x3d624d2a	0.05524937
25	0xbcbbb08c	-0.022911333
26	0x3c8d254f	0.017229704
27	0xbbc52d3c	-0.0060173552
28	0x3ce11511	0.027475866
29	0x3d15774a	0.036490716
30	0x3ac721c2	0.0015192556
31	0x3b92fa7f	0.004485428
32	0xbde144cc	-0.1099945
33	0x3cd49b90	0.025953084
34	0x3d9df992	0.077136174
35	0x3bd92b96	0.0066275103
36	0x3e16b724	0.147183
37	0x3d9a1cbe	0.075250134
38	0xbd043adb	-0.03228269
39	0xbe228ded	-0.15874453
40	0x3c751ce9	0.014960506
41	0xbbe1318e	-0.0068723625
42	0xbe1b9899	-0.1519493
43	0x3de1ecd1	0.11031497
44	0xbc906c41	-0.017629744
45	0x3dbd5751	0.0924517
46	0x3cc2ced1	0.023780258
47	0xbdc4ee5c	-0.09615776
48	0x3e14eefb	0.14544289
49	0xbca0a5c0	-0.019610286
50	0x3d481347	0.04884651
51	0x3de2cf6b	0.11074718
52	0xbdfe36e1	-0.12412811
53	0x3dd6eef7	0.10494798
54	0xbda15a6d	-0.078785755
55	0xbd884802	-0.066543594
56	0xbc13a0eb	-0.009010534
57	0x3e07cced	0.13261767
58	0x3e02a214	0.1275714
59	0x3b8edc6e	0.0043597734
60	0xbd4e5f1f	-0.050383683
61	0x3e5adf34	0.21374208
62	0x3c209edd	0.009803501
63	0x3bf58e43	0.0074937656
64	0xbd5d32f5	-0.054003675
65	0x3d8bb29e	0.06821178
66	0xbced8924	-0.028996058
67	0x3ce81466	0.02833004
68	0xbdbb64ed	-0.091501094
69	0xbdb4c0a6	-0.08825807
70	0xbd99c223	-0.07507732
71	0x3da34388	0.07971865
72	0xbe053038	-0.13006675
73	0x3dd4cbbb	0.10390421
74	0x3dd42bfc	0.10359952
75	0xbdbf399c	-0.0933716
76	0xbd5f75f5	-0.054555852
77	0x3d77aad4	0.06046565
78	0x3e35d1bd	0.1775579
79	0x3c84328b	0.016137382
80	0xbd831c48	-0.064018786
81	0xbd5f050a	-0.054448165
82	0xbda5753d	-0.08079002
83	0xbd95b897	-0.07310598
84	0x3cbbac69	0.02290936
85	0xbd0a7a09	-0.033807788
86	0xbcb5ce25	-0.022193024
87	0x3d042874	0.03226514
88	0xbc29f2ba	-0.010372812
89	0xbb6259db	-0.0034538421
90	0x3e14d0e6	0.14532813
91	0x3c6d6ff6	0.014492026
92	0xbc8bad70	-0.017050475
93	0xbdbae125	-0.09124974
94	0xbe1152ae	-0.14191696
95	0xbd60ce9a	-0.05488453
96	0xbe15eca6	-0.14641055
97	0xbd9ca71d	-0.07649062
98	0x3d47851f	0.04871094
99	0xbdc7f7aa	-0.09764035
100	0x3b5718d8	0.0032821205
101	0xbd860424	-0.065437585
102	0xbd9bfc79	-0.07616515
103	0xbd72492f	-0.059151825
104	0xbe0bace5	-0.13640173
105	0x3db1870d	0.08668337
106	0xbe09bd6e	-0.13451168
107	0x3dbfc021	0.093628176
108	0xbd5d10ca	-0.05397109
109	0xbc364425	-0.011124645
110	0xbde1b411	-0.11020673
111	0xbb7e8b0f	-0.003884021
112	0xbd151c14	-0.03640373
113	0xbb28741e	-0.0025703977
114	0xbdb218d8	-0.08696145
115	0x3be625d4	0.0070235524
116	0x3e0c6ce5	0.13713415
117	0xbd5d1d1e	-0.053982846
118	0xbcc7af47	-0.024375571
119	0xbc86d03d	-0.016456718
120	0x3e3385d6	0.17531523
121	0xbd5a6670	-0.05332035
122	0x3dacbed0	0.08434832
123	0xbe21cddc	-0.15801185
124	0xbdbe7ab5	-0.09300748
125	0xbd2359c7	-0.03988054
126	0xbc91234d	-0.017717028
127	0xbd427ac9	-0.04748038
128	0xbce21e24	-0.027602263
129	0x3d81bf8a	0.06335361
130	0x3dea142d	0.114296295
131	0xbdccc866	-0.099991605
132	0x3d8b5ba5	0.06804589
133	0x3caa6a6f	0.020802705
134	0xbd9a06c1	-0.075208195
135	0x3e111d22	0.1417127
136	0x3d876e9f	0.06612896
137	0x3c27d096	0.010242602
138	0xbd29ee81	-0.04148722
139	0xbde5b503	-0.11216166
140	0x3ce8d856	0.02842347
141	0xbd0e2480	-0.034702778
142	0xbbab846f	-0.005234293
143	0x3e21c2a8	0.15796912
144	0x3d25a6b2	0.040442176
145	0x3ddcd96b	0.10783657
146	0x3d78c21f	0.060732003
147	0xbc6beadb	-0.014399256
148	0xbdc89b30	-0.09795225
149	0x3c033f3b	0.008010681
150	0xbd2ef79c	-0.042716607
151	0x3d9da005	0.07696537
152	0xbc9f2d85	-0.019430885
153	0xbd5aef94	-0.053451136
154	0x3cbe048e	0.023195531
155	0x3d9d8179	0.076907106
156	0x3d83f9fb	0.06444164
157	0xbd629d75	-0.055325944
158	0x3b5e432a	0.0033914545
159	0xbd7955c6	-0.060872816
160	0xbd8c9600	-0.06864548
161	0xbbc39d31	-0.0059696664
162	0xbdadb1ed	-0.08481202
163	0xbde51986	-0.11186509
164	0xbca02e51	-0.019553335
165	0xbc732a21	-0.014841587
166	0x3dbf32df	0.09335875
167	0xbd309b02	-0.043116577
168	0xbc64b0c9	-0.0139581645
169	0xbd70ecf5	-0.05881973
170	0x3c2f5285	0.0107008265
171	0xbc229b3c	-0.009924706
172	0x3c14383e	0.009046612
173	0x3e224c0b	0.1584932
174	0xbe1aaf5e	-0.1510596
175	0x3d91131a	0.070837215
176	0xbdbe9d5e	-0.09307359
177	0xbe1125e4	-0.1417461
178	0xbc8e3b0f	-0.017362146
179	0x3af9da8e	0.0019062327
180	0xbd806a94	-0.06270328
181	0xbc5d4907	-0.013506181
182	0x3cfaa4d3	0.030596172
183	0x3e14e9ad	0.14542265
184	0x3e0da014	0.13830596
185	0xbc5dc09b	-0.01353469
186	0x3ddd7250	0.10812819
187	0xbdda1940	-0.10649347
188	0xbd5b381b	-0.053520303
189	0xbd1c5bb6	-0.0381734
190	0x3de3559b	0.11100312
191	0xbda44af5	-0.080221094
192	0xbcfdacbc	-0.030966155
193	0x3ca04a3c	0.019566648
194	0x390996eb	0.0001312156
195	0x3d3e7577	0.046498742
196	0x3e09880b	0.13430803
197	0xbe488f59	-0.19585933
198	0xbe096824	-0.13418633
199	0x3e1fc34a	0.1560184
200	0x3d014c2b	0.03156678
201	0x3e41f495	0.18940957
202	0x3e2864ae	0.16444656
203	0x3c86b414	0.01644329
204	0x3d78edfc	0.060773835
205	0x3e35f439	0.17768945
206	0x3c0e8d26	0.008700645
207	0x3cb5281f	0.022113858
208	0xbc2ad95f	-0.010427802
209	0xbd3b62c4	-0.045748487
210	0xbdee3977	-0.11632054
211	0x3d446cf3	0.047955465
212	0x3d9d367d	0.076764084
213	0xbd66c131	-0.056336585
214	0x3dd87a72	0.105702296
215	0x3cf990b4	0.030464508
216	0x3d8a08e8	0.0673998
217	0x3ccb256f	0.024798123
218	0x3ce5cea7	0.028052641
219	0xbdf2325e	-0.11826013
220	0x3dfdfa72	0.12401284
221	0xbd042974	-0.032266095
222	0xbe08b9eb	-0.13352172
223	0x3c946bef	0.018117873
224	0x3d7ac18a	0.06121973
225	0xbdc33506	-0.09531598
226	0x3d4186ec	0.047247812
227	0xbdd0723b	-0.10178038
228	0xbdd66550	-0.104685426
229	0xbd437fea	-0.04772941
230	0xbdd305e7	-0.1030386
231	0x3c2fff13	0.010741967
232	0x3d483e13	0.048887324
233	0x3dd36342	0.10321666
234	0x3d3d581c	0.046226606
235	0x3e7922f1	0.24329735
236	0x3e04f71b	0.12984888
237	0x3e0c5a7a	0.13706389
238	0xbd6443f4	-0.055728868
239	0xbca8ad14	-0.020590343
240	0x3d0a1c37	0.033718314
241	0xbe2760df	-0.16345547
242	0x3d35c33d	0.044375647
243	0x3dd7a9d8	0.10530442
244	0xbb8ba7f0	-0.004261963
245	0x3b0f55ee	0.0021871286
246	0x3d811029	0.063019104
247	0x3d59137c	0.052997097
248	0x3e1b223a	0.15149775
249	0xbc84c457	-0.016206903
250	0x3d0691af	0.03285378
251	0x3bfd374f	0.0077275406
252	0xbdf5bd69	-0.11999018
253	0x3e09c921	0.13455631
254	0xbcb1c9bd	-0.021702642
255	0xbdb1db5e	-0.08684419
