EXPERIMENT_3/model_OpenChem_CLASSIFIER_ENSEMBLE_7.pth (torch, 439933 bytes, 21 tensors)

Embedding.embedding.weight f4 [56, 64]
-1.1671113 -1.1822836 -0.28919005 -0.46774018 0.83306706 0.64451855 -0.27171978 -1.9993986
0.33555466 -1.2159578 0.36115968 0.23932663 0.08829113 1.3211696 1.1319624 -0.2219892
-1.2724204 -1.8210232 0.5782821 0.7236971 0.6402997 -1.5391906 -0.24963424 1.8348716
0.77590185 -0.56088096 -0.15190615 0.14041087 1.2972611 1.5585221 0.96084934 -0.8312053
-0.57816774 0.0029518346 -0.55142933 0.23480934 0.4303888 0.16538113 0.5984597 0.4759897
-0.1760423 0.8007096 -0.334709 0.110571876 0.636501 2.2392924 -1.5087537 -1.6126958
-0.77908576 0.90340704 0.9539095 0.19426253 -0.20067781 -0.35058963 0.5857058 -0.43609622
-0.4564561 0.7215694 1.5588928 3.4209676 -1.5382419 -1.192799 1.8209565 -0.5448351
-0.5288565 0.97372854 1.1736484 1.3027037 -1.5310346 2.5872462 -0.4557444 0.37152365
-1.6552525 -0.45925048 -0.45104387 -0.45436925 -1.0804307 1.1202682 -0.17578162 0.84480315
-0.06122755 0.6691887 -0.82037354 0.046594825 0.8561931 -0.40055567 1.066835 0.31254798
-0.28728575 2.2827892 -1.8445091 0.008474702 -0.97969383 -0.9857797 0.024019055 0.6595159
1.6209074 -1.3850172 0.27716836 0.5217268 -2.600163 -1.6762772 -0.24215798 0.3202617
0.19663928 0.04730051 0.3467406 0.44999036 0.42271 -0.792318 0.8584957 -0.8752773
-0.2935745 -2.477574 -0.070717044 -0.080363736 1.030117 0.34551182 -0.9627322 -0.021286292
-0.6225091 -0.41570976 1.9246498 -0.42128336 0.16017254 1.2025294 1.0025942 1.381313
-0.88227504 -0.4407308 -0.82972956 0.52828467 0.62194306 0.4737721 1.9551187 -1.0396876
-0.14963579 0.14722803 -0.5866225 -1.228508 -0.110381655 -0.9763902 -0.2600058 0.2202046
-0.26284364 0.09492487 0.28500178 1.1428206 0.3036824 0.39405116 -0.14762926 -0.097224064
0.2149709 -0.7567431 -1.9064345 0.17259248 -0.70616287 0.3375169 0.091233715 0.40153593
0.9664339 -0.94606376 0.35434458 -0.12361764 1.0616603 -0.47474086 0.7667968 0.58900696
0.3244459 0.2749259 -0.086253196 0.41118532 -0.27443537 -1.0783463 0.21485607 -1.4283389
-0.16964254 -0.3291535 -1.5505294 -0.42406923 1.0364786 0.16335154 1.6251374 0.81443703
-1.052195 -0.7593605 1.4276552 0.278365 0.6632086 -1.0120399 -1.2214355 -1.247265
-0.5596301 0.5334718 0.4068866 0.39458653 0.17151096 0.87604475 -0.2870874 1.0216401
-0.07439492 -1.0922236 0.39202642 0.5945261 0.66227406 -1.2063024 0.6074397 -0.5471568
1.1710889 0.09749614 0.96337456 0.8403232 -1.2536547 0.9868361 -0.49465504 -1.283043
0.95522183 1.2835777 -0.6658611 0.5651337 0.2877034 -0.033374783 -1.0618885 -0.11442617
-0.3433358 1.5712649 0.19161488 0.37994185 -0.14475703 0.6376178 -0.28129023 -1.3298751
-0.1420108 -0.5341458 -0.523379 0.86150426 -0.8869632 0.8387747 1.1528951 -1.7610981
-1.4777428 -1.7556711 0.07616609 -1.0786034 1.4403422 -0.11059419 0.57686025 -0.16917409
-0.06402487 1.0384256 0.9068235 -0.47551385 -0.8707436 0.14474289 1.9028565 0.3903958
00000000: e763 95bf 1255 97bf b810 94be a47b efbe
00000010: e243 553f 2bff 243f db1e 8bbe 4bec ffbf
00000020: d2cd ab3e 81a4 9bbf ece9 b83e 0a12 753e
00000030: fbd1 b43d 161c a93f 25e4 903f 2351 63be
00000040: acde a2bf 4a17 e9bf 4c0a 143f 3744 393f
00000050: aeea 233f 3304 c5bf 1ea0 7fbe 13dd ea3f
00000060: 81a1 463f e595 0fbf 498d 1bbe dec7 0f3e
00000070: a70c a63f a77d c73f 39fa 753f dfc9 54bf
00000080: cd02 14bf 9173 413b 792a 0dbf dc71 703e
00000090: ec5b dc3e ac59 293e a834 193f ecb4 f33e
000000a0: 6f44 34be 4efb 4c3f fa5e abbe 8273 e23d
000000b0: bbf1 223f 9150 0f40 d71e c1bf d16c cebf
000000c0: 2a72 47bf af45 673f 6a33 743f c2ec 463e
000000d0: 7c7e 4dbe 7c80 b3be d1f0 153f 0148 dfbe
000000e0: 9db4 e9be c6b8 383f cd89 c73f 22f1 5a40
000000f0: 1ce5 c4bf a3ad 98bf 1a15 e93f 507a 0bbf
00000100: 2463 07bf 4646 793f 1c3a 963f ffbe a63f
00000110: f1f8 c3bf 7195 2540 5457 e9be 5938 be3e
00000120: 50df d3bf e122 ebbe 39ef e6be 16a3 e8be
00000130: 8e4b 8abf f364 8f3f 1900 34be 0545 583f
00000140: bdc9 7abd f34f 2b3f 0004 52bf 37da 3e3d
00000150: 792f 5b3f a215 cdbe 0d8e 883f 4a06 a03e
00000160: 1e17 93be 3819 1240 e018 ecbf 7ad9 0a3c
00000170: 37cd 7abf 0f5c 7cbf 9cc3 c43c 09d6 283f
00000180: e579 cf3f 3e48 b1bf 03e9 8d3e e38f 053f
00000190: 1269 26c0 4090 d6bf 43f8 77be 57f9 a33e
000001a0: cf5b 493e 2ebe 413d fc87 b13e 2365 e63e
000001b0: 726d d83e 5ad5 4abf 60c6 5b3f 2c12 60bf
000001c0: 664f 96be 9390 1ec0 19d4 90bd be95 a4bd
000001d0: e0da 833f ede6 b03e 9e75 76bf 9760 aebc
000001e0: c25c 1fbf e9d7 d4be ed5a f63f 74b2 d7be
000001f0: 4504 243e 7cec 993f 0255 803f ddce b03f
00000200: c7dc 61bf 78a7 e1be 2869 54bf aa3d 073f
00000210: a937 1f3f 4292 f23e 5441 fa3f 7c14 85bf
00000220: 203a 19be f2c2 163e e42c 16bf c03f 9dbf
00000230: c70f e2bd b5f4 79bf 7b1f 85be 517d 613e
00000240: 7193 86be f867 c23d c1eb 913e f247 923f
00000250: 427c 9b3e 13c1 c93e 202c 17be 691d c7bd
00000260: 5521 5c3e eab9 41bf 0c06 f4bf 15bc 303e
00000270: 17c7 34bf 04cf ac3e bed8 ba3d 1e96 cd3e
00000280: 3668 773f 3c31 72bf a76c b53e 3f2b fdbd
00000290: 7ce4 873f 3c11 f3be cc4c 443f 29c9 163f
000002a0: c61d a63e 16c3 8c3e 84a5 b0bd e286 d23e
000002b0: cb82 8cbe 4007 8abf 3b03 5c3e cfd3 b6bf
000002c0: c6b6 2dbe cf86 a8be bf77 c6bf 9a1f d9be
000002d0: 55ab 843f a045 273e 8104 d03f f27e 503f
000002e0: 53ae 86bf 7365 42bf 68bd b63f db85 8e3e
000002f0: 0ac8 293f 868a 81bf 0058 9cbf 61a6 9fbf
00000300: eb43 0fbf 9c91 083f 7153 d03e 3f07 ca3e
00000310: 92a0 2f3e 7844 603f 1ffd 92be 1ac5 823f
00000320: 5d5c 98bd fccd 8bbf b0b7 c83e dd32 183f
00000330: cb8a 293f 1e68 9abf 2b81 1b3f 7812 0cbf
00000340: 3ee6 953f 0eac c73d b79f 763f 6c1f 573f
00000350: c277 a0bf 4aa1 7c3f 6d43 fdbe c13a a4bf
00000360: 6b89 743f 464c a43f e075 2abf 9aac 103f
00000370: dc4d 933e ffb3 08bd f6eb 87bf 4558 eabd
00000380: b6c9 afbe 351f c93f b136 443e bd87 c23e
00000390: 303b 14be ec3a 233f 4605 90be 5939 aabf
000003a0: 476b 11be c7bd 08bf 2bfc 05bf 8b8b 5c3f
000003b0: 0510 63bf f0b9 563f 1192 933f aa6b e1bf
000003c0: ad26 bdbf d5b9 e0bf f8fc 9b3d ad0f 8abf
000003d0: 225d b83f 357f e2bd 1dad 133f f93b 2dbe
000003e0: 791f 83bd 21eb 843f 9625 683f 8d76 f3be
000003f0: 0de9 5ebf 7b37 143e cd90 f33f f5e1 c73e

Encoder.rnn.weight_ih_l0 f4 [256, 64]
-0.120849565 -0.18684895 -0.025653506 -0.11464433 0.09401946 -0.03643052 0.10512823 -0.09986379
0.058497205 0.0819177 0.017850116 -0.053987626 -0.20629258 0.015763836 -0.23055509 -0.073997736
-0.13782845 -0.030005366 0.0026660662 0.09428556 0.072212145 0.16127178 0.0947883 0.062479403
0.024661805 -0.05118166 -0.080523506 -0.122531585 0.009530704 0.04055785 -0.06575554 -0.032772273
0.0043662093 0.087007925 0.03847639 0.13217135 -0.025002234 -0.0038676814 0.07940152 -0.16191773
0.093150415 -0.09146571 -0.023440422 -0.14353459 -0.10307278 -0.03177864 0.026758423 -0.0098650055
0.13246535 0.039609622 -0.123208635 -0.016091187 -0.079396196 0.03952038 -0.052839838 -0.09336056
-0.076957405 -0.08345226 -0.031477556 0.11702594 0.06379581 -0.07768623 0.041290455 -0.07401397
-0.053654693 0.10873609 0.01755617 -0.18725598 0.16151942 0.03550848 0.051074613 -0.18673721
0.17961533 0.0037192174 0.123591095 0.096804574 -0.013979903 -0.062308215 -0.048506476 0.02539161
-0.1767116 0.104558975 -0.009898035 0.034465358 -0.19544935 -0.055334758 0.0051093 0.06916077
0.0133314 0.07264206 -0.15736157 0.07071972 -0.009790915 0.073439 0.10956204 -0.038826413
0.030055672 -0.097853445 0.096113145 -0.13079181 0.060015596 0.0568209 0.12719321 0.0684138
-0.087252975 0.096329466 -0.11842494 -0.20405415 -0.0578675 0.053878684 -0.13792428 0.05580791
0.09962928 0.015025886 -0.1113167 -0.06312239 0.15183233 -0.03985189 -0.0088275485 -0.034585364
0.1076882 -0.1288315 0.043455064 0.044397302 -0.05791604 0.069467165 -0.0063305674 0.04164791
0.073593855 -0.15525839 0.05497487 0.0630379 -0.032127555 0.053070005 -0.171463 0.0023404951
0.052346647 0.13522007 0.040570304 -0.04923322 -0.16111419 -0.055509835 -0.06362708 0.11737794
0.054632656 -0.11862742 0.094888054 0.10515592 -0.010546489 -0.018778706 -0.028941194 0.030574722
0.03558096 0.04726885 0.14826088 -0.059747707 0.14721198 0.062390033 0.1042436 0.045479808
-0.010501187 -0.008452142 0.027074205 -0.069899134 0.014038153 -0.08781933 0.11443224 0.05579399
-0.026233291 0.054209348 -0.001526724 0.042653214 0.094295464 0.06489908 -0.009826949 0.012422391
-0.042386442 0.12423213 0.03904776 0.029447488 0.043822132 0.00075977325 -0.07548236 -0.0028727292
0.10283839 -0.14584832 -0.083470896 -0.018472504 -0.14871524 -0.046565283 0.14305933 -0.099122345
-0.17222452 -0.0893478 -0.008287668 0.009937894 -0.10964698 0.035422478 0.10558328 0.11769727
0.014111437 -0.032182563 -0.032459836 -0.0784119 0.1453423 0.038771752 0.06633484 -0.036832605
0.05503032 0.06562734 -0.10656217 -0.006990887 0.114240095 0.0512257 -0.10402845 0.07634896
-0.07054364 0.055846464 0.0010394955 -0.1606709 -0.10209955 0.10890429 -0.14811599 0.101070605
0.03149628 -0.009910178 -0.052830324 -0.10161622 -0.14009997 -0.0428764 0.095185645 -0.044955403
-0.097491555 -0.080636814 -0.05178755 -0.13293149 0.04434363 0.104412794 -0.06976 0.12315676
0.08145348 -0.10360709 -0.09136361 0.12645715 -0.08131428 0.025557803 0.006051849 0.124966495
-0.10695744 0.13443382 -0.20672242 -0.10329378 0.11195032 -0.023062108 -0.071634546 -0.12210016
00000000: fa7f f7bd 5555 3fbe 4d27 d2bc a6ca eabd
00000010: 468d c03d 2b38 15bd 784d d73d 6385 ccbd
00000020: c49a 6f3d 78c4 a73d 683a 923c 2122 5dbd
00000030: 5d3e 53be 2923 813c a216 6cbe 208c 97bd
00000040: e722 0dbe d0cd f5bc 2bb9 2e3b ca18 c13d
00000050: f6e3 933d 6e24 253e 5e20 c23d 67ea 7f3d
00000060: 8e07 ca3c dca3 51bd 82e9 a4bd d7f1 fabd
00000070: ab26 1c3c fd1f 263d d7aa 86bd 383c 06bd
00000080: 6b12 8f3b 3631 b23d 6b99 1d3d ed57 073e
00000090: 7cd1 ccbc ed78 7dbb 449d a23d c3cd 25be
000000a0: a5c5 be3d 6052 bbbd 2106 c0bc bbfa 12be
000000b0: d217 d3bd 522a 02bd 7b34 db3c d5a0 21bc
000000c0: ffa4 073e b33d 223d cf54 fcbd aad1 83bc
000000d0: 799a a2bd 1fe0 213d 966e 58bd d233 bfbd
000000e0: d89b 9dbd 05e9 aabd 9cee 00bd 4cab ef3d
000000f0: 61a7 823d f519 9fbd 2e20 293d a394 97bd
00000100: 06c5 5bbd 07b1 de3d f5d1 8f3c 08c0 3fbe
00000110: 5965 253e 5771 113d 9d33 513d 0a38 3fbe
00000120: 15ed 373e 1dbe 733b 541d fd3d 7a41 c63d
00000130: f70b 65bc e636 7fbd baae 46bd 1102 d03c
00000140: e3f3 34be 0423 d63d 5e2b 22bc 8c2b 0d3d
00000150: e023 48be b3a6 62bd ea6b a73b 29a4 8d3d
00000160: f26b 5a3c 5cc5 943d 6423 21be 80d5 903d
00000170: 136a 20bc 3067 963d 1062 e03d 7208 1fbd
00000180: 5037 f63c 6367 c8bd f8d6 c43d 4aee 05be
00000190: ead2 753d 08bd 683d f03e 023e 891c 8c3d
000001a0: b0b1 b2bd 6248 c53d c688 f2bd 92f3 50be
000001b0: 7906 6dbd e5af 5c3d 063c 0dbe d696 643d
000001c0: 700a cc3d 222f 763c 03fa e3bd 5046 81bd
000001d0: ef79 1b3e bc3b 23bd 6ca1 10bc 62a9 0dbd
000001e0: a28b dc3d 68ec 03be f0fd 313d f2d9 353d
000001f0: 5f39 6dbd cd44 8e3d a670 cfbb 0097 2a3d
00000200: 60b8 963d 0efc 1ebe 542d 613d 041a 813d
00000210: 2f98 03bd ef5f 593d ff93 2fbe fe62 193b
00000220: 7069 563d 2177 0a3e 0c2d 263d c6a8 49bd
00000230: 1efb 24be 485e 63bd ea4e 82bd d863 f03d
00000240: 7ec6 5f3d eff2 f2bd ab54 c23d fd5b d73d
00000250: 2ecb 2cbc cdd5 99bc 1516 edbc d777 fa3c
00000260: 57bd 113d fb9c 413d b3d1 173e 03ba 74bd
00000270: bdbe 163e b18c 7f3d ab7d d53d 0949 3a3d
00000280: 2c0d 2cbc da7a 0abc b9ca dd3c 4727 8fbd
00000290: 4800 663c 9fda b3bd 735b ea3d 3d88 643d
000002a0: 33e7 d6bc 9f0a 5e3d 5b1c c8ba 23b5 2e3d
000002b0: fb1d c13d cfe9 843d 3601 21bc 4987 4b3c
000002c0: 689d 2dbd 6a6d fe3d 8bf0 1f3d dc3b f13c
000002d0: d67e 333d 852b 473a 7f96 9abd 6644 3cbb
000002e0: ef9c d23d 4359 15be caf2 aabd a653 97bc
000002f0: cf48 18be 3dbb 3ebd 257e 123e a800 cbbd
00000300: a05b 30be fbfb b6bd 00c9 07bc 8cd2 223c
00000310: 998e e0bd 2917 113d 0c3c d83d 440b f13d
00000320: a833 673c ddd1 03bd 9bf4 04bd 6b96 a0bd
00000330: 9dd4 143e 21cf 1e3d 90da 873d c9dd 16bd
00000340: 7967 613d a067 863d 443d dabd d013 e5bb
00000350: b6f6 e93d 0ad2 513d de0c d5bd d85c 9c3d
00000360: 2f79 90bd 43bf 643d ae3f 883a ea86 24be
00000370: 9219 d1bd 3609 df3d b8ab 17be 1bfe ce3d
00000380: 3e02 013d 4d5e 22bc 9c64 58bd 2a1c d0bd
00000390: 5e76 0fbe 2a9f 2fbd b1f0 c23d 2823 38bd
000003a0: a7a9 c7bd ea24 a5bd 2f1f 54bd 311f 08be
000003b0: aba1 353d 60d6 d53d 55de 8ebd 9d39 fc3d
000003c0: 15d1 a63d f42f d4bd d81c bbbd fc7d 013e
000003d0: 1a88 a6bd 995e d13c 974e c63b 6fee ff3d
000003e0: 810c dbbd 05a9 093e 0baf 53be b08b d3bd
000003f0: 3646 e53d bfec bcbc 22b5 92bd a60f fabd

Encoder.rnn.weight_hh_l0 f4 [256, 64]
0.072553486 0.10772034 0.13312034 -0.06515259 0.010759303 0.0007771214 0.08574482 0.07232001
0.016177215 0.009000398 0.041278705 0.10929651 0.16175544 0.13191205 0.08592694 0.064358145
-0.038432673 0.094709896 -0.10341695 -0.020999486 -0.039641667 0.08895697 0.1458524 -0.1694831
0.05462299 0.08751718 -0.08600087 -0.056717236 -0.074257456 -0.074339144 -0.05247408 0.0062614023
-0.048946306 0.010113358 -0.058646593 0.0114385495 0.011155363 0.04129643 0.0015908261 -0.13143036
-0.16126044 -0.12733698 -0.050186485 0.112660855 0.12917696 0.10485195 -0.13733381 -0.041490104
-0.12509361 -0.038585577 -0.052330352 0.08435242 0.077311404 -0.016565587 0.0006599796 0.06941637
0.02020132 -0.10786694 -0.07588658 0.17519599 0.10619276 0.068299286 -0.03432144 -0.047866862
-0.010259116 -0.18521002 0.048644148 0.058582164 -0.012064375 -0.015643168 0.21848115 0.00871094
-0.009866396 0.23653263 0.004747523 0.17487626 0.13494964 -0.06950342 -0.27955326 -0.09269657
-0.014388873 -0.009901685 -0.046896312 -0.13753943 -0.037094444 -0.12630211 0.022825047 -0.07660365
0.17538865 0.06971187 0.054827888 -0.10667972 -0.1268021 0.12053583 0.040539555 -0.055034522
0.18390144 -0.052255005 0.1734787 0.19944237 0.06650312 0.19570072 -0.10035807 0.05203017
-0.24215792 -0.09996564 -0.004356472 0.14774181 0.07528673 0.029177241 -0.06874842 0.081366025
0.099778585 -0.19883867 -0.07853183 0.102734774 -0.035357215 -0.14757122 0.066037126 -0.11713946
-0.05502336 0.007532575 -0.09454884 -0.09377606 0.032971717 0.04662372 -0.07269486 0.0832159
-0.019792808 0.17431967 -0.116205834 -0.016831094 -0.035971213 0.07380052 0.063232854 -0.112122834
0.07669516 0.068061054 -0.103260994 -0.07424913 -0.0018654577 -7.027524e-05 -0.061017543 0.08844913
0.09509362 0.021296531 -0.039567884 -0.058112398 -2.7156846e-05 0.009182693 -0.10251143 -0.006102401
0.034258716 -0.014873012 0.073988184 -0.09881159 -0.08254693 -0.0042626443 0.070151635 0.09355936
0.11056726 -0.11904751 0.001110171 0.039399173 -0.07578531 0.07686645 0.013329452 -0.02903456
-0.09464637 0.13619193 0.11249037 0.15375625 0.009391079 0.06547055 0.019486358 0.1609269
-0.119731195 -0.04639599 -0.119062 0.09568272 -0.15423667 0.00037778102 -0.14171876 0.12615725
-0.1463749 -0.11055997 -0.012237543 -0.10421858 0.04214361 -0.08706132 -0.078182295 -0.10307729
-0.112811364 -0.12574586 0.039230637 -0.024323562 0.09601708 -0.0478169 -0.013663545 -0.11571015
-0.056399897 0.0795806 0.038863488 -0.055334546 0.03218231 0.12530163 0.05998078 -0.11338116
-0.16668227 -0.26732737 0.16806129 -0.016368523 -0.108912975 -0.02859243 -0.10542652 0.08659308
-0.1456794 0.17997698 -0.04239422 0.079229206 -0.05691553 -0.14455885 0.06507055 0.0896148
0.15381357 0.08688068 -0.09830982 0.013731175 0.055453364 0.019999705 -0.10471468 0.04170987
0.13201538 -0.14082895 6.274783e-05 0.09926276 -0.019163076 -0.08345362 -0.22495496 0.12351729
0.031983387 0.13679862 -0.0007170715 0.07590411 0.12951265 0.048217688 -0.12766792 0.105583064
-0.040533766 -0.073968865 -0.009661329 -0.0011630015 -0.06649561 -0.002570925 0.19780475 0.09191538
00000000: ec96 943d 7b9c dc3d b350 083e b96e 85bd
00000010: ca47 303c bcb7 4b3a fb9a af3d 831c 943d
00000020: 1486 843c 6876 133c dc13 293d d9d6 df3d
00000030: 38a3 253e f413 073e 77fa af3d 34ce 833d
00000040: 946b 1dbd 43f7 c13d 44cc d3bd 1d07 acbc
00000050: 4d5f 22bd 122f b63d 555a 153e fa8c 2dbe
00000060: 5bbc 5f3d 353c b33d 3921 b0bd 5550 68bd
00000070: 4b14 98bd 1f3f 98bd 10ef 56bd 732c cd3b
00000080: ec7b 48bd 7fb2 253c 6937 70bd c168 3b3c
00000090: fcc4 363c 7226 293d 4483 d03a ae95 06be
000000a0: 7521 25be a064 02be 5890 4dbd bcba e63d
000000b0: f746 043e 9fbc d63d 3ca1 0cbe 87f1 29bd
000000c0: 8a18 00be e90b 1ebd 5a58 56bd f6c0 ac3d
000000d0: 7155 9e3d 8eb4 87bc 7b02 2d3a 2b2a 8e3d
000000e0: 3d7d a53c 58e9 dcbd 6c6a 9bbd 9466 333e
000000f0: 977b d93d 7fe0 8b3d a394 0cbd 0b10 44bd
00000100: da15 28bc b2a7 3dbe 163f 473d daf3 6f3d
00000110: a8a9 45bc 1a26 80bc 86b9 5f3e 55b8 0e3c
00000120: aaa6 21bc 9c35 723e 1c91 9b3b c312 333e
00000130: 3d30 0a3e cf57 8ebd 9b21 8fbe b3d7 bdbd
00000140: 4fbf 6bbc ad3a 22bc 5916 40bd 23d7 0cbe
00000150: 58f0 17bd 5755 01be 98fb ba3c 60e2 9cbd
00000160: 1599 333e 19c5 8e3d 3593 603d e67a dabd
00000170: 69d8 01be 7ddb f63d ce0c 263d e16b 61bd
00000180: a950 3c3e 5809 56bd 66a4 313e 9f3a 4c3e
00000190: ca32 883d c565 483e 8888 cdbd 961d 553d
000001a0: 3ff8 77be c9ba ccbd bcc0 8ebb a149 173e
000001b0: ee2f 9a3d 1c05 ef3c f9cb 8cbd 3ba3 a63d
000001c0: b758 cc3d 5d9c 4bbe 4cd5 a0bd 9c66 d23d
000001d0: bad2 10bd e91c 17be 793e 873d d0e6 efbd
000001e0: 2d60 61bd d2d3 f63b d2a2 c1bd aa0d c0bd
000001f0: 5a0d 073d 84f8 3e3d 0be1 94bd 196d aa3d
00000200: 8724 a2bc db80 323e 53fd edbd 5de1 89bc
00000210: 8d56 13bd ba24 973d 3a80 813d a8a0 e5bd
00000220: 5a12 9d3d 9863 8b3d 807a d3bd ee0f 98bd
00000230: 6082 f4ba bb60 93b8 88ed 79bd d124 b53d
00000240: 72c0 c23d 1076 ae3c ef11 22bd 4407 6ebd
00000250: e2ce e3b7 0273 163c 83f1 d1bd a6f6 c7bb
00000260: de52 0c3d efad 73bc 1e87 973d bb5d cabd
00000270: 5d0e a9bd a7ad 8bbb a9ab 8f3d 0d9c bf3d
00000280: 1671 e23d 2ecf f3bd 2883 913a 0761 213d
00000290: 5435 9bbd 286c 9d3d c663 5a3c e3d9 edbc
000002a0: f5d5 c1bd e675 0b3e 5a61 e63d 4772 1d3e
000002b0: 0add 193c 6c15 863d dba1 9f3c 05ca 243e
000002c0: a135 f5bd b909 3ebd c7d6 f3bd 4df5 c33d
000002d0: 38f0 1dbe e910 c639 b91e 11be 5e2f 013e
000002e0: 4de3 15be 446d e2bd fa7f 48bc 8d70 d5bd
000002f0: c79e 2c3d 354d b2bd 0a1e a0bd 301a d3bd
00000300: a509 e7bd 86c3 00be 4eb0 203d 3542 c7bc
00000310: 9aa4 c43d a7db 43bd 10dd 5fbc 71f9 ecbd
00000320: 9403 67bd 27fb a23d 522f 1f3d 7aa6 62bd
00000330: 99d1 033d 124f 003e 68ae 753d 6234 e8bd
00000340: c2ae 2abe 22df 88be 4218 2c3e 4817 86bc
00000350: c40d dfbd ac3a eabc dce9 d7bd b657 b13d
00000360: fb2c 15be e34b 383e 90a5 2dbd ec42 a23d
00000370: 4220 69bd 3c07 14be b543 853d f787 b73d
00000380: 4e81 1d3e 7fee b13d a956 c9bd b9f8 603c
00000390: 1123 633d 6cd6 a33c a674 d6bd f8d7 2a3d
000003a0: 0a2f 073e 7735 10be 7c97 8338 464a cb3d
000003b0: e2fb 9cbc bbe9 aabd 985a 66be a2f6 fc3d
000003c0: 0301 033d f014 0c3e dbf9 3bba 9d73 9b3d
000003d0: f79e 043e e97f 453d 61bb 02be ef3b d83d
000003e0: bc06 26bd fd7c 97bd 8d4a 1ebc db6f 98ba
000003f0: da2e 88bd f77c 28bb 548d 4a3e 213e bc3d

Encoder.rnn.bias_ih_l0 f4 [256]
0.14623894 -0.0011713079 -0.072980665 0.0018398232 0.10116411 -0.024555547 0.024448449 -0.050898872
-0.11135439 0.08826363 0.10087443 0.05862705 -0.071731344 -0.0520967 -0.090570666 0.06668477
0.02089018 0.064257264 0.091312714 0.15885034 -0.029120294 -0.07565676 0.113316 -0.012527759
-0.08235033 0.017946213 0.18144798 -0.025279365 -0.05087145 0.105554864 0.080543086 -0.1255728
-0.060549673 0.035771098 0.16000265 0.0055515748 0.083384 -0.12292333 -0.0013448806 0.0113435285
-0.0190563 0.11478346 -0.12652102 -0.09500182 0.07396918 -0.021559235 0.07635713 -0.09988591
0.13483655 0.023545248 0.08067097 0.014385014 0.16359822 0.14828485 0.07026013 0.07798781
-0.0896069 0.091183916 -0.14792006 0.07254396 -0.053573534 0.062320057 0.006104009 -0.006949021
0.14887434 0.19988015 0.03227588 0.07292361 -0.017034378 0.043641724 0.062320687 0.041968007
0.07373384 0.10770383 -0.0051354896 0.121967226 0.020528689 0.036784 0.16020547 -0.029588575
0.0676599 0.06447143 0.14427015 -0.02464852 0.21563755 0.015888758 -0.08807506 -0.049221743
0.00043839632 0.056868404 0.0042435317 0.037822288 0.14787015 -0.06286481 0.026725568 0.101010166
0.19095528 0.03442498 0.07602316 0.12413659 0.052447904 -0.14617564 -0.078335315 0.17038769
0.1302091 0.090627685 0.085465275 0.06932692 0.02818542 -0.06664259 -0.05603086 0.02200164
0.13567987 0.12678623 -0.01336726 0.059551246 0.13407125 -0.025289487 -0.009479675 0.032182086
0.07952371 0.14337109 -0.06616128 0.15442298 -0.06819925 -0.018479329 -0.028317852 -0.05036806
0.0023370616 -0.023668313 0.06066502 -0.06748043 0.13941593 0.043684322 -0.09453005 0.07461414
-0.07783386 0.108584225 -0.006765902 0.11147448 -0.009535394 -0.05098501 -0.11602721 0.072232455
-0.029696446 0.102308325 -0.11113999 -0.07868885 0.02506167 0.056165595 0.006025325 0.10883297
0.07766157 -0.10843397 -0.08740079 -0.13846347 0.10430801 0.0929461 0.059070576 -0.09296869
0.061061073 -0.09474056 0.11803259 0.12208958 -0.11235788 -0.04762005 0.00064896006 0.04043499
-0.043219645 -0.06759037 -0.040391833 0.042651013 -0.0702302 0.07900961 0.012311222 -0.105699375
0.13128412 -0.0877335 0.068374716 -0.027772205 0.097935446 -0.047488 -0.02408155 0.08882201
0.14652282 -0.038691845 0.09181546 -0.10636946 -0.04845402 0.08879901 0.034879815 0.12450322
-0.024124987 0.0654415 -0.008200558 -0.008496954 0.08355539 0.18005727 0.08272218 0.06721818
0.0023213632 -0.06948645 -0.07568124 0.11647159 0.032163426 -0.044253826 0.002502358 -0.048025277
-0.052116808 -0.014612289 0.11212231 -0.093331136 0.1767048 0.047071222 -0.07670178 0.07191147
0.088588364 -0.02938163 0.06252614 -0.14917472 0.14018352 0.031028097 -0.0017955072 0.04208382
0.16716644 0.088864386 -0.00017665462 0.14520623 -0.062493283 -0.10319484 -0.03918392 -0.0017053235
0.121305935 -0.08488459 -0.057316985 -0.06964387 0.06015422 0.063080765 -0.079031624 0.019686941
-0.031172818 -0.10891132 -0.029375853 0.039019387 -0.007701195 0.1235497 -0.022510096 -0.025061814
-0.03587695 0.1269019 -0.0706944 0.03111013 0.049800698 0.008660579 0.014151088 -0.09353333
00000000: a9bf 153e 9286 99ba e376 95bd 3926 f13a
00000010: 212f cf3d b728 c9bc 1d48 c83c 567b 50bd
00000020: c50d e4bd 90c3 b43d 4197 ce3d eb22 703d
00000030: e2e7 92bd 5963 55bd 1d7d b9bd 0692 883d
00000040: e221 ab3c 5099 833d 2902 bb3d aaa9 223e
00000050: af8d eebc eef1 9abd 3812 e83d 3b41 4dbc
00000060: 4aa7 a8bd f003 933c 80cd 393e ac16 cfbc
00000070: 955e 50bd 262d d83d c6f3 a43d 2896 00be
00000080: ef02 78bd b784 123d bcd7 233e fce9 b53b
00000090: 3bc5 aa3d 3abf fbbd b446 b0ba 35da 393c
000000a0: f51b 9cbc 9713 eb3d ba8e 01be 5090 c2bd
000000b0: 277d 973d fe9c b0bc 2161 9c3d fc90 ccbd
000000c0: 9812 0a3e f7e1 c03c d236 a53d 1faf 6b3c
000000d0: 4b86 273e fcd7 173e 8be4 8f3d 13b8 9f3d
000000e0: d383 b7bd a2be ba3d 5b78 17be ed91 943d
000000f0: ec6f 5bbd 5143 7f3d 2404 c83b 9db4 e3bb
00000100: 8472 183e 62ad 4c3e b733 043d f958 953d
00000110: ae8b 8bbc aac1 323d fa43 7f3d a5e6 2b3d
00000120: c401 973d d393 dc3d 9c47 a8bb f4c9 f93d
00000130: c82b a83c d2aa 163d e70c 243e bd63 f2bc
00000140: 4691 8a3d 9909 843d 8ebb 133e b1eb c9bc
00000150: 17d0 5c3e 2429 823c b260 b4bd bd9c 49bd
00000160: 8fd8 e539 d8ee 683d 530d 8b3b 8beb 1a3d
00000170: 466b 173e 44bf 80bd 94ef da3c 6bde ce3d
00000180: c889 433e 3501 0d3d 08b2 9b3d 533b fe3d
00000190: 9dd3 563d 11af 15be 446e a0bd 1c7a 2e3e
000001a0: 8955 053e 029b b93d 6b08 af3d 46fb 8d3d
000001b0: 1ce5 e63c e97b 88bd 9d80 65bd c93c b43c
000001c0: aaef 0a3e 40d4 013e 5a02 5bbc 02ec 733d
000001d0: f949 093e e62b cfbc a450 1bbc 5dd1 033d
000001e0: 54dd a23d dfcf 123e 917f 87bd 0f21 1e3e
000001f0: 0cac 8bbd f661 97bc d7fa e7bc bd4e 4ebd
00000200: 6329 193b 0de4 c1bc e27b 783d 2e33 8abd
00000210: 0dc3 0e3e 55ee 323d f998 c1bd 4ccf 983d
00000220: 5c67 9fbd 6861 de3d 80b4 ddbb bb4c e43d
00000230: 573a 1cbc a8d5 50bd ad9f edbd 9cee 933d
00000240: f645 f3bc 0787 d13d 5d9d e3bd 9f27 a1bd
00000250: 224e cd3c e50d 663d 1770 c53b d2e3 de3d
00000260: 070d 9f3d a112 debd 2fff b2bd 5ec9 0dbe
00000270: 709f d53d 865a be3d fdf3 713d 5e66 bebd
00000280: 2d1b 7a3d 5707 c2bd 12bb f13d 1a0a fa3d
00000290: e31b e6bd 3e0d 43bd f91e 2a3a 299f 253d
000002a0: 1507 31bd d26c 8abd e871 25bd d4b2 2e3d
000002b0: dad4 8fbd cacf a13d 02b5 493c ea78 d8bd
000002c0: 586f 063e 9fad b3bd 0b08 8c3d 8982 e3bc
000002d0: 6192 c83d c782 42bd ac46 c5bc 50e8 b53d
000002e0: 140a 163e 577b 1ebd be09 bc3d 3bd8 d9bd
000002f0: b977 46bd 41dc b53d 23de 0e3d 8bfb fe3d
00000300: c4a1 c5bc 3106 863d a25b 06bc cf36 0bbc
00000310: 171f ab3d ef60 383e 3f6a a93d afa9 893d
00000320: 0322 183b e94e 8ebd c4fe 9abd a888 ee3d
00000330: ccbd 033d 8043 35bd 9afe 233b 27b6 44bd
00000340: 6f78 55bd 6268 6fbc 62a0 e53d 6524 bfbd
00000350: 1af2 343e c1cd 403d d315 9dbd 5246 933d
00000360: d16d b53d beb1 f0bc b40d 803d 42c1 18be
00000370: 458c 0f3e a32e fe3c 3957 ebba 1560 2c3d
00000380: ae2d 2b3e 88fe b53d 5d3c 39b9 f1b0 143e
00000390: f5f8 7fbd d157 d3bd 517f 20bd 2985 dfba
000003a0: 3f6f f83d f9d7 adbd 37c5 6abd 72a1 8ebd
000003b0: 4564 763d 7d30 813d 55db a1bd 8246 a13c
000003c0: 235e ffbc e60c dfbd a1a5 f0bc cbd2 1f3d
000003d0: 4e5a fcbb a007 fd3d 1867 b8bc 6f4e cdbc
000003e0: b5f3 12bd 92f2 013e 3ac8 90bd acda fe3c
000003f0: d1fb 4b3d 1ae5 0d3c f7d9 673c 678e bfbd

Encoder.rnn.bias_hh_l0 f4 [256]
0.0057182685 0.116800755 -0.00953719 0.1001384 -0.11526122 0.18561585 0.12903605 0.099451266
0.011793972 0.10833514 0.00857085 0.08476449 -0.123019785 0.06868008 -0.10373903 0.07963716
-0.11831888 0.043656245 -0.07137089 -0.035209484 -0.079929754 -0.13160254 -0.10363191 -0.1276496
0.001587638 0.106370956 0.16057992 0.036879633 -0.08899896 -0.13733226 0.0009321436 -0.15425222
-0.101458445 -0.025665535 0.021052402 0.0659468 -0.060060635 0.07535314 0.12169184 0.050584998
0.018366648 -0.036726788 0.0041501164 -0.027114017 -0.062114216 0.057254795 -0.08266021 0.11985101
0.19828181 0.12364968 -0.016675305 0.20161346 0.15619715 0.14135778 0.018161992 0.099173464
-0.059568156 -0.012704126 0.028602572 0.056425013 -0.07881993 -0.056221306 0.12364418 -0.13219906
0.11176363 0.23051445 0.07596089 0.020256747 0.0855806 0.049189672 0.04555185 0.14097744
0.011434089 0.11912718 0.11222506 0.07668766 -0.06790009 0.09139566 0.10357576 0.112279885
0.08783963 -0.032834087 0.15576026 -0.11490539 0.17420015 0.17558949 -0.03581323 0.045103963
0.025247954 0.03398668 -0.09310767 -0.10450898 0.08672277 -0.07245491 -0.07900344 0.10549571
0.13347617 0.049863208 0.068311594 0.13069454 0.20894314 0.056044947 0.05704555 0.040279802
-0.09030073 -0.029192988 0.076009355 -0.013169034 0.0996782 -0.06236858 -0.11716876 -0.017029367
-0.06975291 0.13036226 -0.03310734 -0.07584546 0.074348584 -0.120158814 -0.030611424 0.03993786
0.1393349 -0.078824244 0.028933356 0.049776882 -0.08669865 0.08867799 -0.11869309 0.07968965
0.03475121 -0.107536994 0.09821817 -0.08083378 0.112317756 -0.023969883 0.018047502 -0.13358298
0.08925989 -0.12284496 0.053652316 0.007414056 -0.04400446 0.025398953 0.07733955 0.10221742
-0.013555205 -0.0434342 0.04219059 -0.13334852 -0.047338277 -0.01338637 0.095736966 0.0017912112
-0.027884288 0.0010042371 0.107711665 -0.13247883 -0.035104923 0.034939323 -0.049425364 -0.08607994
0.049411237 0.08652196 -0.052860264 0.10824001 -0.14309609 -0.020379169 0.004751929 -0.06125554
0.049849026 -0.08964981 -0.10883778 0.042907897 -0.071901746 0.068173304 -0.10585658 0.025604498
0.077638656 0.088648476 -0.09294506 -0.11907766 0.06270841 -0.06189109 -0.025385883 -0.07979759
-0.07580935 0.098799124 -0.12458262 0.057052236 -0.05167704 0.07049109 -0.15527602 -0.063368775
-0.0659798 0.025119673 -0.025103081 0.16085325 0.10141611 0.15284291 0.06359989 0.0675158
0.032965496 -0.024531564 0.12171583 0.06824611 0.14104614 0.07434874 0.14024752 0.08223562
-0.038423304 -0.06415003 -0.009300954 -0.023735251 0.08868095 0.1810726 0.111048035 -0.07762437
0.042676657 0.12398856 0.08435373 -0.05157571 -0.061045572 -0.13709518 0.029624667 -0.12965713
-0.006025295 -0.04554409 0.087247625 -0.02191473 0.060642373 -0.12165118 0.11735625 -0.056716926
0.09291398 0.0572648 0.07078567 -0.100453585 0.12915578 0.16544625 -0.012835151 0.1689008
0.043762024 -0.031933255 0.0022847385 0.10788087 0.1954512 -0.042543124 0.11110307 0.12647462
0.0761977 0.06444028 0.11140371 -0.06724443 -0.017101524 -0.05510198 0.11947728 -0.12358968
00000000: 5060 bb3b 3c35 ef3d e041 1cbc 5d15 cd3d
00000010: 130e ecbd 1512 3e3e 0722 043e 1bad cb3d
00000020: 813b 413c d0de dd3d c06c 0c3c 0199 ad3d
00000030: ccf1 fbbd 24a8 8c3d 2175 d4bd cf18 a33d
00000040: 2b51 f2bd e4d0 323d e72a 92bd d237 10bd
00000050: 36b2 a3bd d1c2 06be f83c d4bd 94b6 02be
00000060: 4b18 d03a 04d9 d93d 106f 243e 190f 173d
00000070: 1645 b6bd d4a0 0cbe 195b 743a 4bf4 1dbe
00000080: 72c9 cfbd 8740 d2bc 1676 ac3c 1e0f 873d
00000090: 2402 76bd bf52 9a3d 9239 f93d 3732 4f3d
000000a0: a775 963c d46e 16bd b3fd 873b 371e debc
000000b0: 7a6b 7ebd 0184 6a3d c249 a9bd 7274 f53d
000000c0: 630a 4b3e 0b3c fd3d a69a 88bc c273 4e3e
000000d0: 25f2 1f3e 18c0 103e 75c8 943c 751b cb3d
000000e0: bdfd 73bd f724 50bc f14f ea3c ea1d 673d
000000f0: 586c a1bd 5048 66bd 2939 fd3d 315f 07be
00000100: 54e4 e43d fb0b 6c3e 6291 9b3d 7af1 a53c
00000110: e244 af3d 1c7b 493d 9494 3a3d 645c 103e
00000120: 0c56 3b3c f3f8 f33d 41d6 e53d 6b0e 9d3d
00000130: 340f 8bbd a62d bb3d 871f d43d fff2 e53d
00000140: 44e5 b33d 097d 06bd 9e7f 1f3e 8453 ebbd
00000150: 8661 323e bbcd 333e e5b0 12bd efbe 383d
00000160: ccd4 ce3c 9e35 0b3d 3caf bebd ce08 d6bd
00000170: b59b b13d 3d63 94bd 8ecc a1bd 230e d83d
00000180: faad 083e 5d3d 4c3d f3e6 8b3d cad4 053e
00000190: 31f5 553e 638f 653d 98a8 693d 6ffc 243d
000001a0: 97ef b8bd 2226 efbc cbaa 9b3d efc2 57bc
000001b0: 1624 cc3d 3276 7fbd 2df6 efbd 2c81 8bbc
000001c0: 9dda 8ebd af7d 053e 909b 07bd dd54 9bbd
000001d0: 1244 983d d315 f6bd cfc4 fabc e295 233d
000001e0: cfad 0e3e 9b6e a1bd a505 ed3c d8e2 4b3d
000001f0: 108f b1bd ce9c b53d 5d15 f3bd 5434 a33d
00000200: 4957 0e3d 5b3c dcbd 9c26 c93d 2e8c a5bd
00000210: da06 e63d 7d5c c4bc 5bd8 933c fac9 08be
00000220: e4cd b63d 2396 fbbd 88c2 5b3d 9cf1 f23b
00000230: 053e 34bd 7711 d03c 3364 9e3d 5e57 d13d
00000240: a716 5ebc 0fe8 31bd 0ad0 2c3d 848c 08be
00000250: c8e5 41bd 8152 5bbc be11 c43d 13c7 ea3a
00000260: 976d e4bc 9ba0 833a ef97 dc3d 88a8 07be
00000270: 2eca 0fbd 891c 0f3d 4072 4abd ae4a b0bd
00000280: 7063 4a3d 6d32 b13d 0184 58bd f0ac dd3d
00000290: c887 12be 37f2 a6bc 12b6 9b3b 17e7 7abd
000002a0: 7e2e 4c3d 529a b7bd 58e6 debd 31c0 2f3d
000002b0: 3941 93bd 729e 8b3d 56cb d8bd 86c0 d13c
000002c0: 0401 9f3d 558d b53d fb59 bebd fdde f3bd
000002d0: 446d 803d 8381 7dbd 0ef6 cfbc eb6c a3bd
000002e0: ef41 9bbd 3257 ca3d 2c25 ffbd 9baf 693d
000002f0: 4eab 53bd a25d 903d ad00 1fbe 7dc7 81bd
00000300: 6b20 87bd c6c7 cd3c faa4 cdbc b7b6 243e
00000310: 40b3 cf3d da82 1c3e a940 823d b945 8a3d
00000320: d406 073d 6bf6 c8bc 2646 f93d 9ec4 8b3d
00000330: 666e 103e 2744 983d 0c9d 0f3e 266b a83d
00000340: c161 1dbd 1761 83bd 0763 18bc 6e70 c2bc
00000350: 5c9e b53d 186b 393e 276d e33d 87f9 9ebd
00000360: b8cd 2e3d b7ed fd3d a6c1 ac3d 0d41 53bd
00000370: ec0a 7abd ae62 0cbe 6eaf f23c d7c4 04be
00000380: d66f c5bb 718c 3abd e2ae b23d 8586 b3bc
00000390: 2364 783d 4124 f9bd 7958 f03d 0250 68bd
000003a0: af49 be3d 7f8e 6a3d 14f8 903d 9cba cdbd
000003b0: 6a41 043e be6a 293e 864a 52bc 55f4 2c3e
000003c0: cf3f 333d 72cc 02bd 8dbb 153b a5f0 dc3d
000003d0: 5c24 483e b341 2ebd 028a e33d 9082 013e
000003e0: 8a0d 9c3d 44f9 833d a127 e43d 73b7 89bd
000003f0: 7f18 8cbc 9db2 61bd 81b0 f43d 961c fdbd

Encoder.rnn.weight_ih_l1 f4 [256, 64]
-0.02465982 0.029473128 0.005895375 0.17227377 0.0032191658 0.10285148 -0.011036963 0.040136002
-0.06339048 -0.07912894 0.089560226 0.06635326 -0.07055947 -0.041159198 0.006513327 0.028860478
0.11453646 0.04347235 0.03476953 0.1497811 -0.08344958 0.21541964 -0.047793664 -0.14359681
0.10028827 -0.09720931 -0.01828598 0.15054032 -0.03181129 -0.13211796 -0.046144336 0.051562235
-0.0473531 0.09982146 -0.11889007 -0.050487824 0.006574307 -0.009258067 -0.10564176 -0.084770665
0.08621229 0.16640137 0.017067656 0.06641381 -0.090706125 -0.08919906 -0.13349251 -0.0058838124
0.01705703 -0.020446539 -0.09962067 0.07778623 -0.0745521 -0.0976422 -0.11889549 0.047005996
-0.046162974 0.0850532 -0.026098689 0.07609525 -0.08320489 -0.14834255 0.0717027 -0.0195845
0.14204758 0.15067612 0.0036223014 -0.049944106 -0.08169136 -0.0132064065 0.08645203 -0.13209553
0.11033398 -0.06860255 0.049816262 0.00036298833 -0.08345163 -0.0023091135 0.038778372 0.112796396
0.14907795 -0.13516289 -0.047363374 -0.08338799 -0.06770276 -0.023358447 0.119380854 0.20615411
0.067381226 0.09666621 -0.1298852 0.10522477 0.006393419 -0.029262694 -0.053657204 0.06491968
-0.12424109 0.05590756 -0.012918743 -0.09151954 0.13266663 0.01316258 0.028523026 0.016116278
0.10090758 -0.099153936 0.06225897 0.008364673 0.06718624 0.09324408 -0.10682173 0.013966304
0.06477811 -0.08410774 0.10420433 -0.06952822 0.19814934 0.09058832 0.10158599 0.20682773
-0.067191646 0.07205653 -0.08190641 -0.033132635 0.09507651 0.055160593 0.0627193 0.0069306986
0.09098901 0.005220756 -0.084968105 0.10404274 0.122297816 0.072665974 0.06259226 0.049188264
0.07086035 -0.11743921 0.088418424 0.034360938 -0.15188564 -0.09531766 -0.0065712975 0.19476351
-0.04658814 -0.07868222 0.1256527 0.11256813 -0.03891716 0.039467186 -0.07833964 0.006504376
0.09496036 -0.018860964 0.1249266 0.08363684 0.07444886 -0.0027859777 -0.0018797014 -0.151742
0.05405408 0.12536423 -0.064200774 0.07272901 -0.10201722 0.0014681218 -0.109739296 -0.11240657
0.07550154 0.15784171 0.07211817 -0.11890567 -0.20481803 0.019694341 0.021170244 0.03996508
-0.1265004 0.073976845 0.057708353 0.0956314 0.08506218 -0.04875104 -0.016821139 0.117262244
0.054686084 -0.022204246 -0.09894139 0.17164318 0.058562066 -0.100396276 0.008502167 0.07915432
0.064986475 0.028869059 0.10552442 0.075151116 -0.12712304 0.06641539 -0.14665748 -0.03527814
-0.087672494 -0.18408054 0.10835989 -0.0028777688 0.115589626 0.12619093 0.15081647 0.16605847
0.030428847 -0.11036857 0.02212575 -0.011327103 -0.057178017 0.10390301 -0.011513392 -0.003288768
0.08003502 -0.03821642 0.1694811 -0.039704602 0.07528457 0.06426881 -0.1367815 -0.10676266
-0.035076786 0.11139302 0.11942104 -0.038857613 -0.14063823 0.16330816 -0.12628293 0.028637333
0.10049823 0.09117325 0.1432006 -0.09293764 0.018121727 -0.16560014 -0.035516743 0.06290809
-0.072474 0.07950018 -0.044498757 0.07557608 0.04200232 0.11217336 -0.12967326 0.1524016
0.005429854 -0.08862975 0.066923395 -0.053144965 -0.019214388 -0.03489141 -0.017022789 -0.041589297
00000000: 6403 cabc a171 f13c fd2d c13b 8968 303e
00000010: a4f8 523b cca3 d23d 61d4 34bc a665 243d
00000020: ded2 81bd 5b0e a2bd 5a6b b73d 38e4 873d
00000030: 7c81 90bd 8c96 28bd bf6d d53b cf6c ec3c
00000040: 1792 ea3d 1010 323d 7f6a 0e3d 3760 193e
00000050: 9de7 aabd f796 5c3e 4ac3 43bd 0b0b 13be
00000060: f063 cd3d ad15 c7bd 7bcc 95bc 3e27 1a3e
00000070: 8e4c 02bd ee49 07be d801 3dbd ec32 533d
00000080: 53f5 41bd 326f cc3d a37c f3bd 52cc 4ebd
00000090: 496d d73b 26af 17bc b55a d8bd 3e9c adbd
000000a0: 1290 b03d 1f65 2a3e 78d1 8b3c f703 883d
000000b0: 22c4 b9bd ffad b6bd 43b2 08be ffcc c0bb
000000c0: 2fbb 8b3c 807f a7bc ec05 ccbd 634e 9f3d
000000d0: c5ae 98bd a2f8 c7bd 7b7f f3bd 5c89 403d
000000e0: 6315 3dbd 5f30 ae3d ebcc d5bc d4d7 9b3d
000000f0: 5367 aabd 1ce7 17be ddd8 923d ac6f a0bc
00000100: ec74 113e d74a 1a3e 2264 6d3b 3192 4cbd
00000110: cd4d a7bd af5f 58bc c30d b13d 0d44 07be
00000120: c8f6 e13d 7e7f 8cbd 230c 4c3d 784f be39
00000130: b0e8 aabd 7f54 17bb 12d6 1e3d cc01 e73d
00000140: e4a7 183e 2468 0abe 1900 42bd 53c7 aabd
00000150: bfa7 8abd 375a bfbc f37d f43d 101a 533e
00000160: 2bff 893d eff8 c53d a000 05be 1680 d73d
00000170: e37f d13b 51b8 efbc a8c7 5bbd 9cf4 843d
00000180: 1d72 febd 53ff 643d 23a9 53bc 996e bbbd
00000190: c3d9 073e dda7 573c 1fa9 e93c 4906 843c
000001a0: a2a8 ce3d 3811 cbbd 4303 7f3d fb0b 093c
000001b0: f098 893d c1f6 be3d 5ac5 dabd edd2 643c
000001c0: 63aa 843d ae40 acbd 1469 d53d d064 8ebd
000001d0: a9e7 4a3e 5e86 b93d 510c d03d a6ca 533e
000001e0: c69b 89bd 6092 933d 8cbe a7bd 16b6 07bd
000001f0: 79b7 c23d 13f0 613d fa72 803d ea1a e33b
00000200: 7258 ba3d e012 ab3b c203 aebd 5c14 d53d
00000210: 4777 fa3d e6d1 943d 5f30 803d a279 493d
00000220: 3b1f 913d f883 f0bd b814 b53d 0ebe 0c3d
00000230: e987 1bbe e835 c3bd 0a54 d7bb 1670 473e
00000240: 35d3 3ebd 2524 a1bd 1aab 003e 1f8a e63d
00000250: 9a67 1fbd 58a8 213d 8870 a0bd a922 d53b
00000260: 947a c23d 4f82 9abc 84d9 ff3d cb49 ab3d
00000270: a578 983d f394 36bb 5060 f6ba 4162 1bbe
00000280: d067 5d3d 7b5f 003e b27b 83bd f2f2 943d
00000290: 67ee d0bd fe6d c03a ffbe e0bd 6a35 e6bd
000002a0: 8da0 9a3d 42a1 213e b1b2 933d d184 f3bd
000002b0: d1bb 51be 0756 a13c 386d ad3c 6cb2 233d
000002c0: 5289 01be 2c81 973d 985f 6c3d 65da c33d
000002d0: 1535 ae3d 2caf 47bd 7ccc 89bc 3027 f03d
000002e0: 84fe 5f3d aee5 b5bc c9a1 cabd 3bc3 2f3e
000002f0: c7de 6f3d 909c cdbd ac4c 0b3c a91b a23d
00000300: a117 853d ce7e ec3c 301d d83d d4e8 993d
00000310: 8b2c 02be cb04 883d 612d 16be d07f 10bd
00000320: a38d b3bd 9c7f 3cbe caeb dd3d f398 3cbb
00000330: 41ba ec3d 3238 013e a26f 1a3e 3b0b 2a3e
00000340: eb45 f93c eb08 e2bd 1041 b53c 5095 39bc
00000350: 7f33 6abd 1acb d43d aba2 3cbc 5f88 57bb
00000360: 67e9 a33d d288 1cbd 748c 2d3e 4ba1 22bd
00000370: cc2e 9a3d 5e9f 833d 7310 0cbe 62a6 dabd
00000380: adac 0fbd 0622 e43d 0593 f43d 2929 1fbd
00000390: 7803 10be 413a 273e 5050 01be d798 ea3c
000003a0: 04d2 cd3d 0ab9 ba3d 2ea3 123e 1756 bebd
000003b0: 0474 943c 1593 29be 017a 11bd f5d5 803d
000003c0: 406d 94bd fed0 a23d 5444 36bd a2c7 9a3d
000003d0: a00a 2c3d 26bb e53d 11c9 04be 2a0f 1c3e
000003e0: ebec b13b 8483 b5bd 220f 893d 89ae 59bd
000003f0: 7e67 9dbc 4cea 0ebd 6073 8bbc 8a59 2abd

Encoder.rnn.weight_hh_l1 f4 [256, 64]
-0.0735554 0.012402547 -0.109143466 -0.13810873 -0.07714176 -0.08735657 -0.06362734 0.06325162
-0.095406696 0.01897437 -0.0122758215 0.14472926 0.005664637 0.1303883 0.13383484 0.103186995
-0.047782864 -0.009840284 -0.060515575 -0.09016735 -0.026438745 0.1466575 -0.124283284 0.09068726
0.078612566 0.099763796 -0.08006394 0.118736304 -0.06319414 0.021115921 0.11214963 -0.0063041863
-0.080295876 -0.09668453 0.10495485 0.040546995 0.10229208 0.05295419 0.06586936 -0.10397506
-0.08076606 -0.14504822 -0.056035478 0.15567061 -0.04900348 0.06900881 0.115509085 -0.0339902
0.12005995 -0.16173737 0.095238544 -0.0034554817 -0.19284497 0.108462684 -0.08019508 -0.07288256
0.01034851 0.06598364 0.076471284 0.024060728 -0.07709764 0.15510902 -0.021449404 -0.061606467
-0.032370687 -0.022391554 -0.04400911 0.11930031 -0.08755501 -0.058275986 -0.09377806 0.1215304
-0.11027232 -0.0002105002 0.12989888 -0.15303944 0.010295098 0.11643788 0.084683694 0.008379484
0.0043490427 -0.037817057 -0.10510139 -0.12531176 0.03347067 0.02711014 -0.04618288 -0.07435465
0.017526163 -0.006425815 0.111082815 0.090122335 0.0058793337 -0.086743556 -0.049483035 0.0041607153
-0.08848822 -0.10178031 0.09705542 -0.045316454 0.028923862 -0.22730242 -0.0538629 -0.04907932
-0.13554405 0.08805371 -0.08692346 0.116426915 0.0004880314 0.054936364 0.0076081874 0.05818484
-0.080109164 -0.021641202 -0.04414598 -0.06318748 0.105159245 0.021829855 -0.026042666 0.012671432
0.15194419 -0.11008187 0.17349383 -0.14176013 -0.071059704 -0.07759613 -0.01655906 -0.21161593
0.027094109 0.019862052 0.05090453 -0.08918876 0.046429493 0.11200332 -0.07368267 0.07874653
0.061970342 -0.070606664 -0.0905844 -0.119273104 0.15135661 -0.035452075 -0.07756754 0.17893192
-0.0057453304 0.05347831 0.042090755 -0.0682761 -0.072749846 -0.013472411 -0.026893437 0.122824006
0.04062899 0.008606656 0.0033330352 0.13311026 0.025628729 -0.029266475 0.0828973 -0.06716637
-0.048865955 0.015732627 -0.04788543 -0.04436269 -0.0017757493 -0.03696835 0.14774042 -0.016791116
0.034505446 -0.13148426 0.117368154 -0.065075256 -0.047844574 0.14691724 -0.11259767 0.13902608
-0.13513803 -0.16750973 -0.008880808 -0.017076164 -0.11185691 0.043951377 -0.030915834 0.18429056
0.04922222 -0.045366228 0.10728415 -0.08176399 -0.02902598 -0.11804391 0.04988445 -0.1218208
-0.10857588 -0.07923509 0.040151007 0.08249774 0.14265841 -0.1407108 -0.103765815 0.12144838
0.057702098 0.085819274 0.05089647 0.035393562 0.11614963 0.1088599 -0.041078277 0.14763431
-0.0025596162 -0.14964701 -0.054011047 -0.015915172 0.14019184 -0.105964914 0.020404581 0.14944564
0.059724774 0.1036696 -0.059818126 -0.04322228 -0.046293456 0.050274614 -0.04094088 0.057136577
0.043826453 -0.13390012 -0.032819387 -0.02946736 -0.08770005 -0.13046381 -0.060028188 0.09255914
-0.009631968 0.0069776005 0.14588158 0.09071521 0.049171034 -0.03716871 0.038711756 0.043341976
-0.020995688 -0.10005438 0.054511417 0.063250415 -0.058554873 0.12840492 0.034909997 0.01096508
0.065817714 -0.13515644 -0.080898225 0.05673546 -0.12299485 0.019193511 -0.03602115 -0.102682866
00000000: 37a4 96bd 0d34 4b3c 9c86 dfbd 606c 0dbe
00000010: 80fc 9dbd 00e8 b2bd 0d4f 82bd 118a 813d
00000020: 9664 c3bd 2370 9b3c 8720 49bc e833 143e
00000030: 6b9e b93b 8384 053e 000c 093e b453 d33d
00000040: f7b7 43bd 2439 21bc 2edf 77bd a9a9 b8bd
00000050: 1196 d8bc 622d 163e 3c88 febd 3eba b93d
00000060: a0ff a03d f650 cc3d 90f8 a3bd 052c f33d
00000070: ee6b 81bd 4cfb ac3c b5ae e53d 5993 cebb
00000080: 2a72 a4bd 8a02 c6bd 92f2 d63d 9b14 263d
00000090: 837e d13d 7ee6 583d 84e6 863d e0f0 d4bd
000000a0: ad68 a5bd 8587 14be 7585 65bd 1e68 1f3e
000000b0: dfb7 48bd 7e54 8d3d 0790 ec3d 4f39 0bbd
000000c0: fee1 f53d 7b9e 25be 6d0c c33d 5d75 62bb
000000d0: 2779 45be af21 de3d 513d a4bd 7443 95bd
000000e0: cc8c 293c 6e22 873d fa9c 9c3d 011b c53c
000000f0: 5ee5 9dbd e6d4 1e3e a9b6 afbc 1057 7cbd
00000100: 2097 04bd 7e6e b7bc e642 34bd b953 f43d
00000110: 0b50 b3bd cdb2 6ebd b60e c0bd eee4 f83d
00000120: 74d6 e1bd b8b9 5cb9 3604 053e 5fb6 1cbe
00000130: c5ac 283c fc76 ee3d a56e ad3d 1a4a 093c
00000140: 6a82 8e3b 0fe6 1abd 663f d7bd ba51 00be
00000150: 8b18 093d 1616 de3c 422a 3dbd 4047 98bd
00000160: 0793 8f3c a58f d2bb 637f e33d 0f92 b83d
00000170: 6da7 c03b 9ba6 b1bd b9ae 4abd 9c56 883b
00000180: 5039 b5bd 3272 d0bd fec4 c63d bf9d 39bd
00000190: bcf1 ec3c f7c1 68be 589f 5cbd 6607 49bd
000001a0: 0fcc 0abe 8155 b43d ed04 b2bd 3c71 ee3d
000001b0: 77de ff39 f404 613d 1a4e f93b 3a53 6e3d
000001c0: 4610 a4bd e448 b1bc 6ad2 34bd 7068 81bd
000001d0: bb5d d73d 86d4 b23c 6e57 d5bc d79b 4f3c
000001e0: 4297 1b3e 9a72 e1bd 5ea8 313e 9129 11be
000001f0: c087 91bd b8ea 9ebd dea6 87bc d9b1 58be
00000200: 77f4 dd3c beb5 a23c 4581 503d 99a8 b6bd
00000210: da2c 3e3d ff61 e53d f1e6 96bd dc45 a13d
00000220: 9dd4 7d3d 3a9a 90bd 5084 b9bd 7545 f4bd
00000230: 3afd 1a3e 3236 11bd bbdb 9ebd ee39 373e
00000240: 5343 bcbb 130c 5b3d 5b67 2c3d 57d4 8bbd
00000250: dffd 94bd 63bb 5cbc a04f dcbc 278b fb3d
00000260: 956a 263d ef02 0d3c 0d6f 5a3b 0e4e 083e
00000270: 57f3 d13c 3fc0 efbc 0fc6 a93d 868e 89bd
00000280: ab27 48bd b6e1 803c 8323 44bd a7b5 35bd
00000290: 42c0 e8ba 206c 17bd 4449 173e 868d 89bc
000002a0: 9555 0d3d cfa3 06be b75e f03d 2d46 85bd
000002b0: acf8 43bd 7971 163e 9b99 e6bd da5c 0e3e
000002c0: a061 0abe ac87 2bbe cf80 11bc 50e3 8bbc
000002d0: 3c15 e5bd 5c06 343d 3443 fdbc aab6 3c3e
000002e0: 3d9d 493d f0d1 39bd cbb7 db3d e173 a7bd
000002f0: e4c7 edbc 01c1 f1bd a353 4c3d 2f7d f9bd
00000300: 085d debd 0246 a2bd 6275 243d 93f4 a83d
00000310: 0c15 123e 7e16 10be 2c83 d4bd eeb9 f83d
00000320: 0959 6c3d 04c2 af3d d178 503d d7f8 103d
00000330: dbdf ed3d f0f1 de3d b241 28bd 732d 173e
00000340: 3cbf 27bb 113d 19be b03a 5dbd 8960 82bc
00000350: 738e 0f3e 2204 d9bd 8227 a73c 4708 193e
00000360: f7a1 743d ba50 d43d da03 75bd d809 31bd
00000370: 359e 3dbd c1ec 4d3d a0b1 27bd 0b08 6a3d
00000380: 5e83 333d 1d1d 09be 9f6d 06bd 8865 f1bc
00000390: 159c b3bd 4e98 05be 1ee0 75bd a58f bd3d
000003a0: 67cf 1dbc 5ba4 e43b fb61 153e e5c8 b93d
000003b0: 9167 493d 383e 18bd 3890 1e3d 5b87 313d
000003c0: 26ff abbc 50e9 ccbd 5d47 5f3d 6f89 813d
000003d0: 3cd7 6fbd 947c 033e c9fd 0e3d e1a6 333c
000003e0: 70cb 863d 7366 0abe f8ad a5bd 7163 683d
000003f0: b9e4 fbbd b63b 9d3c ea8a 13bd 654b d2bd

Encoder.rnn.bias_ih_l1 f4 [256]
-0.061581288 -0.060274545 -0.00042054977 -0.023682725 -0.10458641 -0.05968464 0.092539296 -0.14336343
0.10294619 0.013886849 -0.015534677 -0.058544107 0.0001518697 -0.13015434 0.05652806 -0.07623572
-0.026632952 -0.140443 0.035544608 0.008510972 -0.01746786 -0.13556999 0.025710236 0.107745886
-0.07411078 0.08766689 0.099361956 0.0053034276 0.040789984 -0.059804816 0.06799181 -0.10885734
-0.05748693 0.0066568037 0.049227163 -0.13022995 0.00053598796 -0.078006305 -0.057292555 0.11658591
-0.089154355 0.04547431 0.012166064 0.020709792 0.037787285 0.07491272 0.0024805039 -0.13470408
0.01367425 0.06772133 0.030005181 0.083625525 -0.027466044 0.13594936 0.12163706 -0.108115904
0.09278594 0.027078833 -0.10306891 -0.08276415 0.082066275 -0.059817582 0.10341093 0.12221896
-0.10708412 -0.09158009 0.14403163 -0.13530768 0.091497034 0.18982458 0.14320256 0.09469265
0.10863112 0.17212477 0.08670505 -0.1488204 0.24994177 -0.035200566 -0.021920055 -0.06774988
0.119860925 0.14170916 0.1283775 0.16993071 0.056929074 0.004127134 0.014729373 0.089732565
0.16080701 0.014341764 -0.01724277 0.20401837 -0.07396714 -0.017861065 -0.022514587 0.09955386
0.08019445 0.046204254 -0.14622925 -0.21355179 -0.06855126 0.07916884 0.03215683 0.162458
-0.059549626 -0.016363844 -0.084736034 0.12467207 -0.06568679 -0.0006343575 0.051385958 0.12792687
0.18158849 0.16965441 0.08807085 -0.100137115 0.05382428 0.1473485 -0.07215059 0.18922594
0.2523238 -0.07802673 0.08177977 -0.008623496 0.10317229 0.095413186 0.23632339 0.11901681
0.12095647 0.04747269 0.041032314 -0.11925301 -0.042046566 0.005834509 0.07423862 -0.032828204
-0.13646828 -0.108495116 -0.10341288 -0.087717235 0.13187942 -0.0040412582 -0.0656426 -0.01931755
0.014404577 -0.034438416 0.028388634 -0.035637837 0.10352603 0.023363976 0.10322444 0.14397702
0.008517745 0.12611079 -0.082551956 0.11013324 -0.009657902 0.063569225 0.041102394 -0.046264444
-0.09090483 0.048056502 0.10538628 -0.0040623285 0.033167988 -0.014594028 0.033992343 0.019886628
-0.011080098 -0.16682369 0.12562566 0.013563465 -0.017436752 -0.14184663 -0.02471535 0.073959574
0.042599324 -0.04121577 -0.039379567 -0.0573445 -0.09582153 0.002756282 -0.07913773 0.014856439
-0.1056509 -0.08038769 -0.10915844 0.14651923 0.069407895 -0.06486223 -0.086381726 0.043044508
-0.07938708 0.09238398 0.02166586 0.07396374 0.08155015 -0.13021474 -0.0071783615 -0.07382076
0.12647606 0.1576415 -0.022732526 -0.11907783 -0.040857542 -0.13893044 -0.092161216 -0.059094097
-0.10383683 0.063904665 -0.010394658 0.07635434 -0.080768384 0.009896925 -0.09532014 0.11891438
-0.1127121 0.12502044 0.046106577 0.14535138 -0.04681138 -0.06322173 0.09816642 0.02563889
-0.12529285 -0.046300013 -0.06133986 -0.060026437 -0.08290412 0.038117412 -0.039668158 0.055676855
-0.0879869 -0.071275525 0.07187828 -0.081861526 -0.087039195 -0.10454385 0.16846067 0.058605693
0.08514497 -0.1189018 -0.123408034 -0.13296925 0.038254384 -0.040954463 -0.120827004 0.09597868
-0.05475509 -0.06504 0.060898867 -0.080210745 0.086820416 0.054346528 0.15637611 0.06553934
00000000: a93c 7cbd 71e2 76bd 3c7d dcb9 4602 c2bc
00000010: 6631 d6bd e277 74bd 3e85 bd3d ddcd 12be
00000020: 74d5 d23d ab85 633c 2885 7ebc f2cb 6fbd
00000030: 363f 1f39 2e47 05be f889 673d 7921 9cbd
00000040: 592d dabc 4ad0 0fbe 3997 113d 9b71 0b3c
00000050: c218 8fbc dcd2 0abe 469e d23c e0a9 dc3d
00000060: 65c7 97bd b38a b33d 487e cb3d 60c8 ad3b
00000070: 6613 273d e5f5 74bd 4a3f 8b3d 99f0 debd
00000080: 6a77 6bbd 5121 da3b 6ca2 493d 005b 05be
00000090: 8b81 0c3a c5c1 9fbd 99ab 6abd 98c4 ee3d
000000a0: 8f96 b6bd 4543 3a3d 2c54 473c 95a7 a93c
000000b0: d7c6 1a3d d76b 993d f38f 223b deef 09be
000000c0: f609 603c 7bb1 8a3d 6dcd f53c dc43 ab3d
000000d0: 7800 e1bc 4f36 0b3e da1c f93d df6b ddbd
000000e0: 8e06 be3d 6ed4 dd3c cb15 d3bd 4080 a9bd
000000f0: 5d12 a83d 4803 75bd 1cc9 d33d ef4d fa3d
00000100: eb4e dbbd 588e bbbd 077d 133e 198e 0abe
00000110: cc62 bb3d 6061 423e b1a3 123e 38ee c13d
00000120: fe79 de3d 7a41 303e 6b92 b13d 6064 18be
00000130: bcf0 7f3e 782e 10bd b091 b3bc 73c0 8abd
00000140: a579 f53d 351c 113e 6475 033e 5102 2e3e
00000150: 762e 693d e93c 873b 7853 713c b5c5 b73d
00000160: 98aa 243e b8f9 6a3c b640 8dbc 31ea 503e
00000170: 157c 97bd 5e51 92bc 8370 b8bc e5e2 cb3d
00000180: fd3c a43d ac40 3d3d 1fbd 15be 52ad 5abe
00000190: 9a64 8cbd 4623 a23d e1b6 033d 645b 263e
000001a0: 4fea 73bd 780d 86bc 168a adbd 1254 ff3d
000001b0: cc86 86bd 034b 26ba 157a 523d 43ff 023e
000001c0: 55f2 393e e3b9 2d3e 7d5e b43d b014 cdbd
000001d0: d976 5c3d 86e2 163e b0c3 93bd 72c4 413e
000001e0: 9630 813e 7acc 9fbd 277c a73d 9049 0dbc
000001f0: fe4b d33d fd67 c33d c2fe 713e 16bf f33d
00000200: 07b8 f73d b972 423d 8011 283d ec3a f4bd
00000210: 0539 2cbd 692f bf3b 6b0a 983d de76 06bd
00000220: 57be 0bbe b032 debd 22ca d3bd 18a5 b3bd
00000230: 660b 073e 886c 84bb a16f 86bd d73f 9ebc
00000240: 2d01 6c3c 4c0f 0dbd 488f e83c fbf8 11bd
00000250: 7505 d43d cf65 bf3c 5667 d33d b66e 133e
00000260: 038e 0b3c 3023 013e 0011 a9bd 898d e13d
00000270: 2d3c 1ebc 9530 823d fc5a 283d c97f 3dbd
00000280: 502c babd e5d6 443d c3d4 d73d 481d 85bb
00000290: 28db 073d ca1b 6fbc 8e3b 0b3d 48e9 a23c
000002a0: 4d89 35bc d4d3 2abe 03a4 003e 4c39 5e3c
000002b0: 85d7 8ebc 3e40 11be d877 cabc 1e78 973d
000002c0: a17c 2e3d ded1 28bd 784c 21bd 11e2 6abd
000002d0: 143e c4bd bda2 343b f612 a2bd 6c68 733c
000002e0: 805f d8bd 4da2 a4bd 768e dfbd 2309 163e
000002f0: ba25 8e3d 7dd6 84bd e7e8 b0bd 704f 303d
00000300: b295 a2bd d033 bd3d 9a7c b13c 4d7a 973d
00000310: c403 a73d 0357 05be 7638 ebbb 572f 97bd
00000320: f182 013e c66c 213e 9039 babc 14df f3bd
00000330: 3d5a 27bd c843 0ebe 05bf bcbd a70c 72bd
00000340: 67a8 d4bd 73e0 823d 5b4e 2abc aa5f 9c3d
00000350: e569 a5bd b626 223c 3537 c3bd 6289 f33d
00000360: 9ad5 e6bd 5c05 003e 40da 3c3d fed6 143e
00000370: 4abd 3fbd 657a 81bd 7a0b c93d a608 d23c
00000380: c54c 00be 15a5 3dbd 813f 7bbd 48de 75bd
00000390: a3c9 a9bd 0121 1c3d 147b 22bd 6a0d 643d
000003a0: 7a32 b4bd e7f8 91bd eb34 933d 04a7 a7bd
000003b0: 9b41 b2bd 161b d6bd f480 2c3e 860c 703d
000003c0: 7c60 ae3d c982 f3bd 5abd fcbd 1729 08be
000003d0: a1b0 1c3d debf 27bd 2674 f7bd 7890 c43d
000003e0: e046 60bd b133 85bd 1771 793d 8845 a4bd
000003f0: e7ce b13d 779a 5e3d 0f21 203e 7d39 863d
